params/old_policy_net.pkl (torch_old, 20530 bytes, 6 tensors)

policy.0.weight f4 [64, 8]
0	0xbeab0ce0	-0.3340826
1	0x3e0c425c	0.13697189
2	0xbdd1eaec	-0.10249886
3	0xbe1dd31f	-0.15412568
4	0x3e936dd3	0.28794727
5	0x3ea7b349	0.3275397
6	0xbdbb2714	-0.09138313
7	0xbdf21840	-0.118210316
8	0xbd87823c	-0.06616637
9	0xbd9903a4	-0.074713975
10	0x3e851735	0.25994268
11	0x3e943e19	0.28953627
12	0x3d3dc8e0	0.046334147
13	0xbe508cd6	-0.20366225
14	0xbc739fc0	-0.01486963
15	0x3d50f4d0	0.05101472
16	0x3ea71aeb	0.32637724
17	0x3be6c900	0.007043004
18	0x3e0ee5d4	0.1395486
19	0x3deffea0	0.11718488
20	0x3ea9a8df	0.3313665
21	0x3e0e2406	0.1388093
22	0xbd04f098	-0.03245601
23	0xbeabbff1	-0.33544877
24	0x3e4f6176	0.20252022
25	0xbe9a677f	-0.30157086
26	0xbddab884	-0.10679725
27	0xbe35a6a8	-0.17739356
28	0x3e960957	0.29304
29	0x3d8e9330	0.069616675
30	0x3d891b70	0.066946864
31	0xbe75db74	-0.24009496
32	0xbeae6091	-0.3405805
33	0xbe5de367	-0.21668778
34	0xbeadbb03	-0.3393174
35	0x3e2e427a	0.17017546
36	0x3da2e364	0.079535276
37	0xbe884eb5	-0.2662255
38	0x3ce36e90	0.027762681
39	0x3e47f1ee	0.19525883
40	0xbd624e70	-0.055250585
41	0x3d07cda8	0.033155113
42	0x3c97ac90	0.018514901
43	0xbe52007d	-0.20507999
44	0x3e0c4394	0.13697654
45	0xbe86dc2c	-0.26339853
46	0xbe512253	-0.2042325
47	0xbd3bde80	-0.04586649
48	0x3d876368	0.06610757
49	0x3ad9ea00	0.0016625524
50	0x3e2fc89a	0.17166367
51	0x3eb41bef	0.35177562
52	0xbea4aa1f	-0.32161042
53	0x3e3d08fe	0.18460461
54	0x3e87eab9	0.26546267
55	0xbe50062d	-0.20314856
56	0x3e1f4de2	0.15557054
57	0xbe424c22	-0.18974355
58	0xbe5958bd	-0.21225257
59	0xbe4c4ff3	-0.19952373
60	0x3e0b1bcc	0.13584822
61	0xbd9afbc4	-0.07567552
62	0xbe93ee31	-0.28892663
63	0x3d39a080	0.04531908
64	0x3e87ab1d	0.26497737
65	0xbe1fd478	-0.15608394
66	0xbe7ce5de	-0.24697062
67	0xbe16d421	-0.14729358
68	0xbe39a2d3	-0.18128519
69	0x3e9cac03	0.30599985
70	0x3dc03e08	0.093868315
71	0xbbd342c0	-0.006447166
72	0xbdc7c924	-0.097551614
73	0xbac22900	-0.0014813244
74	0xbe422796	-0.18960413
75	0xbd5bf238	-0.053697795
76	0xbea192f6	-0.31557435
77	0x3dbd6a88	0.09248835
78	0x3ea63de7	0.32469103
79	0x3d4c1bd8	0.04983124
80	0xbe8a2b33	-0.26986083
81	0x3ca1fc70	0.019773692
82	0xbe07d4d9	-0.13264789
83	0x3e9cdbf3	0.30636558
84	0xbe97b893	-0.29633006
85	0x3e9a65e9	0.30155876
86	0xbea0dcf8	-0.31418586
87	0x3e8bb50f	0.27286574
88	0x3cea2ee0	0.028586805
89	0xbdf63d3e	-0.120234
90	0xbe01f1b5	-0.1268986
91	0x3dd60558	0.10450238
92	0x3e9aff95	0.3027312
93	0x3e365106	0.17804345
94	0x3e4f35ee	0.20235416
95	0x3e6f487a	0.23367491
96	0xbe7fefe8	-0.2499386
97	0x3d88e990	0.066851735
98	0x3d51ace8	0.051190287
99	0xbd801f38	-0.062559545
100	0x3e3cb3ba	0.18427935
101	0x3e4a81d2	0.19776085
102	0xbe43ffa5	-0.1914049
103	0x3ea61e55	0.32445017
104	0xbe65f8ea	-0.22458234
105	0x3e95c871	0.29254487
106	0x3e6241ce	0.22095415
107	0x3d882db0	0.06649339
108	0x3ddfee74	0.10934153
109	0x3ea3dd03	0.32004556
110	0x3df1c87c	0.118058175
111	0x3c8e7030	0.01738748
112	0xbe3893c2	-0.18025115
113	0xbe8e5d25	-0.2780544
114	0xbe445797	-0.19174038
115	0x3ddb8184	0.107180625
116	0xbe249840	-0.16073704
117	0x3e758aea	0.23978773
118	0x3e48612e	0.19568321
119	0x3e88660b	0.26640353
120	0xbdc5e6f0	-0.096631885
121	0xbe8022f0	-0.25026655
122	0xbe92c1ca	-0.28663474
123	0xbe787060	-0.24261618
124	0xbd99c5b8	-0.07508415
125	0x3e14aeee	0.14519855
126	0xbe543808	-0.20724499
127	0x3d9252b0	0.07144678
128	0x3d0e6040	0.03475976
129	0xbdf3a2d2	-0.1189629
130	0x3b1fdc00	0.0024392605
131	0xbe167e56	-0.14696631
132	0x3c32e400	0.010918617
133	0x3e17a9da	0.14810887
134	0xbdff2160	-0.12457538
135	0x3e3ff2fa	0.18745032
136	0xbe9a6b38	-0.30159926
137	0x3d98a82c	0.07453951
138	0x3e98d0c9	0.2984679
139	0x3d1857f0	0.03719324
140	0x3e2dcd2e	0.16972801
141	0x3d7d5e40	0.061857462
142	0xbdeb838c	-0.114997
143	0x3e2c184a	0.1680614
144	0xbe848585	-0.25883117
145	0xbdb92ef4	-0.09042159
146	0xbe88b971	-0.2670398
147	0x3da66ff4	0.08126822
148	0xbd548688	-0.05188611
149	0xbe3b6e5b	-0.18303816
150	0xbd6f58c0	-0.058434248
151	0xbdbfb548	-0.093607485
152	0xbe8c7723	-0.27434644
153	0xbe175500	-0.14778519
154	0xbd2fe648	-0.042944223
155	0xbe94321b	-0.28944477
156	0xbdb6c2c4	-0.08923867
157	0x3e9d4b17	0.30721352
158	0xbe0738c1	-0.13205244
159	0xbe2275db	-0.15865271
160	0x3ea72b3f	0.32650182
161	0xbe9f74dd	-0.31143847
162	0xbe9e1457	-0.30874893
163	0x3e100e48	0.14067948
164	0x3d34ba78	0.044123143
165	0xbe701172	-0.23444155
166	0x3e478f86	0.19488344
167	0x3db0d62c	0.086346
168	0xbe946ff9	-0.28991678
169	0xbe223e23	-0.15844016
170	0xbd601140	-0.05470395
171	0xbe9c9189	-0.30579785
172	0x3e513466	0.20430145
173	0xbd84a02c	-0.06475863
174	0xbe8a8121	-0.27051643
175	0x3e8ccbc1	0.27499202
176	0xbe8d8cf9	-0.27646616
177	0x3eb304b1	0.34964517
178	0x3e40576e	0.18783352
179	0x3dd1729c	0.10226938
180	0xbeb40ed5	-0.35167566
181	0xbe8d9ca7	-0.2765858
182	0xbe924606	-0.2856905
183	0xbe38f43f	-0.18061922
184	0x3e0d7aac	0.13816327
185	0x3e38b336	0.18037114
186	0x3ea15069	0.3150666
187	0x3e865379	0.2623556
188	0x3c7d16a0	0.015447289
189	0xbe5cb9da	-0.21555272
190	0x3c1f7f00	0.009734869
191	0xbad50000	-0.001625061
192	0x3e7dabea	0.24772611
193	0xbd063df8	-0.03277394
194	0x3d895690	0.067059636
195	0xbe949b78	-0.29024863
196	0xbe4dd232	-0.20099714
197	0x3e7481b6	0.23877606
198	0xbe84dd44	-0.25950062
199	0xbea7c68a	-0.3276866
200	0xbe9efb9e	-0.31051344
201	0xbeaf9916	-0.34296483
202	0xbd7a4f88	-0.061111003
203	0xbda7a68c	-0.08186063
204	0x3c5f4400	0.013627052
205	0x3df836a4	0.12119797
206	0xbdd16da8	-0.102259934
207	0xbe247477	-0.16060053
208	0xbd0812d0	-0.033221066
209	0xbdbd18b4	-0.09233227
210	0x3d6cd348	0.05781868
211	0xbd731228	-0.059343487
212	0x3e3e1d56	0.18565878
213	0xbe978ef4	-0.29601252
214	0xbe7a70ac	-0.24457043
215	0xbccb2e50	-0.024802357
216	0x3d1ad1f8	0.037797898
217	0xbe3d203e	-0.1846933
218	0x3eae90bb	0.34094796
219	0x3e86c439	0.2632158
220	0x3ea2de5d	0.31810275
221	0x3ea57519	0.323159
222	0xbc9a0cf0	-0.018804997
223	0xbe5c07f0	-0.21487403
224	0x3d898b84	0.067160636
225	0x3ddb6900	0.107133865
226	0x3e76ecfa	0.24113837
227	0x3ea1b2e9	0.3158181
228	0x3e06ae8c	0.13152522
229	0xbd64fda0	-0.05590594
230	0xbe231bc0	-0.15928555
231	0x3db1bea0	0.08678937
232	0x3e98791d	0.29779902
233	0x3e311ea6	0.17296848
234	0xbcc4f440	-0.024042249
235	0xbda74744	-0.0816789
236	0xbe976513	-0.295693
237	0xbd21fcc0	-0.03954768
238	0xbe70c3a6	-0.23512134
239	0x3d6a6e20	0.05723393
240	0x3e19a0ba	0.15002719
241	0x3e89c913	0.2691122
242	0x3cbae4a0	0.022814095
243	0xbe175de5	-0.14781912
244	0x3e23db1a	0.1600155
245	0x3e874857	0.26422378
246	0xbdd7431c	-0.10510847
247	0xbc173ee0	-0.009231299
248	0xbc16d6c0	-0.009206474
249	0xbe7a2306	-0.24427423
250	0x3df7b62c	0.120952934
251	0x3dd246c8	0.10267407
252	0x3e126b86	0.1429883
253	0xbe39260a	-0.18080917
254	0xbe83f6bc	-0.2577418
255	0xbe9696da	-0.29411966

policy.0.bias f4 [64]
0	0xbe665be9	-0.22495998
1	0xbd6f45d8	-0.058416218
2	0x3e34c1d6	0.17652068
3	0x3e7a6332	0.24451903
4	0xbdb90224	-0.090336114
5	0x3e987ced	0.2978281
6	0xbe4cf94a	-0.20016971
7	0xbe929d1a	-0.28635484
8	0x3db27ae4	0.08714846
9	0x3e918a17	0.28425667
10	0xbd496e30	-0.04917735
11	0x3ce17bb0	0.0275248
12	0x3e1cafea	0.15301481
13	0xbe998593	-0.29984722
14	0x3e93a04d	0.28833237
15	0x3b59e880	0.0033250153
16	0xbe9a746a	-0.30166942
17	0xbdacb970	-0.08433807
18	0xbe176a4d	-0.14786644
19	0xbcabe9e0	-0.020985544
20	0xbeb3f628	-0.3514874
21	0x3e72b792	0.23702839
22	0xbe06ee88	-0.1317693
23	0x3e0c17fe	0.13681027
24	0x3dbb18bc	0.09135577
25	0x3e94b90b	0.29047427
26	0x3c486440	0.012230933
27	0xbe14b9ec	-0.14524049
28	0xbeaa9f21	-0.3332453
29	0xbe68ad51	-0.22722365
30	0xbeac1af7	-0.33614323
31	0xbcb2cde0	-0.021826684
32	0xbd21a9f0	-0.039468706
33	0x3db74988	0.08949572
34	0x3e9ad167	0.30237886
35	0x3ea3fa03	0.3202668
36	0x3e2122ae	0.15735886
37	0xbe94ffaa	-0.29101306
38	0xbe5703a5	-0.20997484
39	0xbb65f500	-0.0035088658
40	0xbe1e4a8b	-0.15458123
41	0x3e6cc9c2	0.2312384
42	0x3df1eb88	0.11812502
43	0x3e9f99eb	0.31172118
44	0xbdba45b0	-0.09095323
45	0x3d9937f0	0.07481372
46	0xbe5a6b21	-0.21329929
47	0x3dc8aba8	0.09798366
48	0xbdf488a6	-0.11940126
49	0xbdf0ec20	-0.11763787
50	0x3e2fe2d2	0.17176369
51	0x3e4f168e	0.20223448
52	0xbccd69c0	-0.02507484
53	0x3e974e51	0.29551938
54	0xbdc43d3c	-0.09581992
55	0xbe15931a	-0.14606896
56	0x3e925bc9	0.28585652
57	0x3e9341b7	0.28761074
58	0x3e14dfc8	0.14538491
59	0xbe2fc923	-0.17166571
60	0x3e035962	0.12827066
61	0x3e81e141	0.25367168
62	0x3ca21700	0.019786358
63	0x3e9da889	0.30792645

policy.2.weight f4 [64, 64]
0	0xbdb18ff8	-0.08670038
1	0xbd9995d4	-0.074992806
2	0xbd991688	-0.074750006
3	0x3b9db280	0.0048125386
4	0x3dfc936a	0.123328045
5	0xbddb7db2	-0.10717334
6	0xbd8d179e	-0.0688927
7	0x3dfe9ea6	0.124326035
8	0xbda984ac	-0.08277258
9	0x3cd91e58	0.026503727
10	0xbd1e8e24	-0.038709775
11	0xbd6bd44c	-0.05757551
12	0xbd11ab88	-0.035563976
13	0xbdb8d53e	-0.09025048
14	0xbdcc6a62	-0.099812284
15	0xbd32cfa4	-0.043655053
16	0x3b57de00	0.0032938719
17	0xbdb3390c	-0.08751115
18	0xbdad21f6	-0.08453743
19	0xbd2d31a8	-0.042283684
20	0x3c705f60	0.014671177
21	0xbda5f360	-0.08103061
22	0x3d2bcaf8	0.041941613
23	0xbda2b5de	-0.07944845
24	0xbd014e78	-0.031568974
25	0x3db000ee	0.08593927
26	0x3d9dff76	0.07714741
27	0xbda0e73a	-0.07856603
28	0xbc394580	-0.011308074
29	0x3dd7edae	0.10543381
30	0x3db8d11e	0.09024261
31	0xba274f00	-0.00063823164
32	0x3d6993a8	0.05702558
33	0x3dcb701a	0.09933491
34	0x3d38fa84	0.045160785
35	0x3de903f6	0.113777086
36	0xbd9c99ba	-0.076465085
37	0xbdef0434	-0.116707236
38	0x3d1aaa4c	0.037760064
39	0x3d426060	0.04745519
40	0xbd9ee640	-0.077587605
41	0xbdb30184	-0.087405235
42	0xbc857908	-0.016293064
43	0x3ca638f8	0.020290837
44	0x3dc515ac	0.09623274
45	0xbde0003e	-0.10937546
46	0xbc054b70	-0.0081356615
47	0x3d1cc980	0.038278103
48	0xbd20707c	-0.039169773
49	0x3dd19d2a	0.10235055
50	0x3ddbd2f2	0.10733594
51	0x3d282e7c	0.041059956
52	0x3d21b198	0.039476007
53	0xbda1aeee	-0.07894693
54	0x3dbb12d6	0.09134452
55	0xbdf8c4ce	-0.121469125
56	0xbd802bcc	-0.062583536
57	0x3db32bba	0.087485746
58	0x3db94108	0.09045607
59	0xbca17ed0	-0.01971379
60	0xbd052f10	-0.032515585
61	0xbdbcb1b2	-0.0921358
62	0xbd8d448c	-0.0689784
63	0x3d3edcd8	0.04659733
64	0xbc9eefc0	-0.019401431
65	0x3db5ae0a	0.08871086
66	0x3d5bf3d0	0.053699315
67	0xbda52c60	-0.080651045
68	0xbdc7f794	-0.09764019
69	0xbc6af4b0	-0.014340565
70	0xbdd063c4	-0.10175279
71	0xbda916ee	-0.082563266
72	0xbde8b780	-0.11363125
73	0xbd18ece0	-0.037335277
74	0x3ddf3c78	0.109002054
75	0x3b961e80	0.0045812726
76	0x3daebbf0	0.0853194
77	0xbdf48764	-0.11939886
78	0x3d2f4d40	0.04279828
79	0x3d7d0668	0.061773688
80	0xbd647604	-0.05577661
81	0x3d2d3610	0.042287886
82	0xbdd4b422	-0.1038592
83	0x3cc0a008	0.023513809
84	0x3d15dc14	0.036586836
85	0xbd9b39dc	-0.07579395
86	0x3d6dbfd8	0.058044285
87	0x3cd5a630	0.026080221
88	0x3db435a2	0.08799292
89	0x3a1ba500	0.00059373677
90	0x3d9f71ac	0.07785353
91	0x3d7626cc	0.060095593
92	0x3d2665b0	0.04062432
93	0x3cf92850	0.03041473
94	0x3dfde56c	0.123972744
95	0x3d3d80e0	0.046265483
96	0x3dc0d6c4	0.09415963
97	0x3de1c2d0	0.11023486
98	0x3c2031b0	0.009777471
99	0xbd2e8634	-0.042608455
100	0xb9177800	-0.00014445186
101	0x3d34df40	0.04415822
102	0xbc169200	-0.009190083
103	0x3c15e180	0.009148002
104	0xbdcae598	-0.09907073
105	0x3d56df3c	0.052458987
106	0xbcf6a998	-0.030110165
107	0x3dac32cc	0.08408126
108	0x3d8d9de0	0.06914878
109	0x3b108a00	0.002205491
110	0xbd6d100c	-0.05787663
111	0x3d96f092	0.07370104
112	0xbdd58f7e	-0.104277596
113	0x3cccb130	0.024986833
114	0x3dff1f10	0.124570966
115	0x3dcf0264	0.10107878
116	0xbd459778	-0.048240155
117	0x3d548714	0.051886633
118	0xbd3b6df8	-0.04575917
119	0x3db9bc88	0.090691626
120	0x3dcd467c	0.100232095
121	0xbd651bb4	-0.055934623
122	0x3d1eb138	0.038743228
123	0x3c8d5d30	0.01725635
124	0x3da7429e	0.08167003
125	0x3d9f1be2	0.0776899
126	0x3dc6fbbc	0.09715983
127	0x3d84328a	0.06454952
128	0xbdd86558	-0.10566205
129	0x3de71a8c	0.1128436
130	0xbbb391c0	-0.0054800212
131	0x3da70116	0.08154504
132	0x3cab48a8	0.020908669
133	0xbc94cac8	-0.0181631
134	0x3dd73a8c	0.10509214
135	0xbdfb45de	-0.122691855
136	0x3d950da2	0.07277991
137	0xbd60fe38	-0.054929942
138	0x3d9a81ac	0.07544264
139	0xbd83e094	-0.06439319
140	0x3cc42b38	0.02394639
141	0x3cd841f8	0.026398644
142	0xbd998ae0	-0.074971914
143	0x3c3c2b40	0.011484921
144	0xbdfb1804	-0.1226044
145	0xbdd957cc	-0.10612449
146	0x3dd441b0	0.103640914
147	0x3def20c2	0.1167617
148	0xbdcff6e6	-0.10154514
149	0x3c77b960	0.01511988
150	0x3b84ebc0	0.004056424
151	0x3d3535f8	0.04424092
152	0x3d9aac9a	0.075524524
153	0x3c9952f8	0.01871632
154	0xbddcfb56	-0.10790126
155	0xbd1ec354	-0.0387605
156	0x3db7d5e6	0.08976345
157	0xbd9fee62	-0.0780914
158	0x3de1c1e0	0.11023307
159	0x3ccd1578	0.025034651
160	0x3d9e9cca	0.07744749
161	0x3de7a5b8	0.11310905
162	0x3df707a6	0.12062006
163	0xbc706cb0	-0.014674351
164	0x3cddd1c0	0.027077556
165	0x3d7caac8	0.061686307
166	0xbdb6484c	-0.08900508
167	0x3d6a3150	0.057175934
168	0x3c557720	0.01302889
169	0x3c1dd3b0	0.00963299
170	0xbdf2c35a	-0.118536666
171	0x3dc18d84	0.0945082
172	0xbd7a3468	-0.061085135
173	0xbcdcc480	-0.026949167
174	0x3dc407da	0.0957181
175	0xbcf91b60	-0.030408561
176	0xbd47f644	-0.04881884
177	0x3d8ce240	0.06879091
178	0xbd844956	-0.064593
179	0xbd660354	-0.056155518
180	0xbcfa4a60	-0.030553043
181	0xbda9b8f0	-0.08287227
182	0xbdcb29a8	-0.09920055
183	0xbdc487f8	-0.095962465
184	0x3d2c3400	0.04204178
185	0xbd8c1e10	-0.068416715
186	0xbdacaa8c	-0.08430967
187	0xbca33d38	-0.019926652
188	0xbdf5d6d8	-0.12003869
189	0x3d6a2cd0	0.057171643
190	0x3d988840	0.074478626
191	0x3d38996c	0.04506819
192	0x3d503444	0.050831094
193	0xbdcb67ee	-0.099319324
194	0xbd51b6f4	-0.05119987
195	0x3c539690	0.012914315
196	0x3d96b400	0.07358551
197	0x3b985920	0.0046492964
198	0x3af79180	0.0018887967
199	0x3dad8b98	0.08473891
200	0xbc504eb0	-0.012714073
201	0xbdb51128	-0.08841163
202	0x3dad7420	0.08469415
203	0x3b90c7c0	0.0044183433
204	0x3d37411c	0.044739828
205	0x3cbf22c0	0.023332
206	0x3df65b10	0.120290875
207	0x3dd4d338	0.10391849
208	0x3bde6c40	0.0067878067
209	0x3d7f7134	0.06236382
210	0xbd5c654c	-0.05380754
211	0x3c48a510	0.012246385
212	0x3dfa71bc	0.12228724
213	0xbd99dae8	-0.07512456
214	0xbd8a29e4	-0.06746271
215	0x3d5b1a90	0.05349213
216	0x3c56c2f0	0.013108
217	0xbbcb5400	-0.006205082
218	0x3d7af56c	0.06126921
219	0xbcb5eba0	-0.022207081
220	0xbdfdad7e	-0.12386607
221	0x3d070ba0	0.03297007
222	0xbdd3b082	-0.103364006
223	0xbddf20e0	-0.10894942
224	0xbd9e7000	-0.07736206
225	0x3dff2336	0.12457888
226	0x3cdaa0b8	0.026687965
227	0x3d02c4a0	0.031925797
228	0x3dbb6adc	0.09151241
229	0xbde820e6	-0.113344
230	0x3cfc9ed0	0.030837446
231	0xbdddd874	-0.10832301
232	0x3d841820	0.06449914
233	0x3db2d356	0.087317154
234	0x3dd437c6	0.103622004
235	0xbdfec232	-0.124393836
236	0x3de55e84	0.11199668
237	0xbcc96b48	-0.024587288
238	0xbbf0bd60	-0.007346794
239	0x3d19481c	0.037422284
240	0xbd151be0	-0.036403537
241	0xbd66161c	-0.05617343
242	0x3d98bf50	0.07458365
243	0x3d73a62c	0.059484646
244	0xbd6edff0	-0.058319032
245	0xbd9a1620	-0.07523751
246	0xbd7fbb74	-0.06243463
247	0xbd9891ca	-0.07449682
248	0xbd39a200	-0.04532051
249	0x3d15ebfc	0.036602005
250	0xbda31b58	-0.079642
251	0x3d9c4fc4	0.076324016
252	0xbbefdb80	-0.0073198676
253	0x3df12ce0	0.11776137
254	0xbd93499a	-0.07191773
255	0xbd9a6ad4	-0.07539907

policy.2.bias f4 [64]
0	0xbbf7d440	-0.007563144
1	0x3dced5cc	0.10099372
2	0x3da4ae6e	0.08041082
3	0xbdee3eb0	-0.116330504
4	0x3d83d500	0.06437111
5	0x3d8d74ec	0.06907067
6	0x3df1c524	0.1180518
7	0x3d3dee5c	0.046369895
8	0x3bd01e60	0.006351277
9	0xbd5b52b0	-0.053545654
10	0xbd734510	-0.059392035
11	0xbdf4cbaa	-0.11952908
12	0x3de2befc	0.11071584
13	0x3c9e09f8	0.019291863
14	0xbd0b0c14	-0.033947065
15	0xbd9be42a	-0.07611878
16	0xbd203924	-0.039116994
17	0xbcc0dd20	-0.02354294
18	0x3dea890c	0.11451921
19	0xbca48270	-0.020081729
20	0xbdd12dcc	-0.10213813
21	0x3def719a	0.1169159
22	0xbdd5156e	-0.10404478
23	0xbc970130	-0.018433183
24	0x3d915de8	0.07097989
25	0xbdae352e	-0.08506237
26	0xbd8194aa	-0.063271835
27	0x3d7de354	0.061984375
28	0x3bebee00	0.0072000027
29	0x3d026f34	0.031844333
30	0xbd5ef1dc	-0.054429874
31	0x3df82276	0.12115948
32	0xbd20ff20	-0.039305806
33	0x3dc04e58	0.09389943
34	0xbccaf4d8	-0.024774954
35	0xbde1498a	-0.110003546
36	0xbde00170	-0.10937774
37	0xbd5130c8	-0.051071912
38	0x3db52f38	0.08846897
39	0x3dd84a46	0.105610415
40	0xbb9ab820	-0.0047216564
41	0x3dddb178	0.10824865
42	0xbbbbdec0	-0.005733341
43	0xbbd76620	-0.0065734535
44	0xbd784470	-0.060612142
45	0xbdc2238a	-0.09479435
46	0xbd8ce624	-0.06879833
47	0xbd9a1536	-0.07523577
48	0x3bba98a0	0.005694464
49	0xbdd43808	-0.103622496
50	0xbdd5f4c8	-0.10447079
51	0x3d002024	0.03128065
52	0xbde7be7e	-0.113156304
53	0xbdaca614	-0.084301144
54	0xbdee96cc	-0.11649856
55	0x3bf87820	0.0075826794
56	0x3da2e01e	0.07952903
57	0xbd02393c	-0.031792864
58	0x3b869060	0.0041065663
59	0x3c920560	0.017824829
60	0xbcb6d198	-0.022316739
61	0x3dbc2a12	0.09187712
62	0x3db911b2	0.09036578
63	0xbdc6d85a	-0.097092345

policy.4.weight f4 [2, 64]
0	0x3da449d8	0.08021897
1	0x3da69828	0.0813449
2	0x3d448748	0.047980577
3	0x3ce1e210	0.027573615
4	0x3d00c3b0	0.031436622
5	0x3b101ac0	0.00219886
6	0xbcaa0450	-0.02075401
7	0xbdb99eda	-0.09063502
8	0x3bf218e0	0.0073882192
9	0x3db476e2	0.088117376
10	0xbde013ca	-0.109412745
11	0xbcdbf290	-0.026849061
12	0xbd93e7cc	-0.07221946
13	0x3c8e9288	0.017403856
14	0x3cf41b20	0.02979809
15	0xbd021444	-0.031757608
16	0x3c99b868	0.01876469
17	0x3d8171aa	0.06320508
18	0xbccbde90	-0.0248864
19	0x3de62ddc	0.11239216
20	0x3ddb9a38	0.10722774
21	0x3d656440	0.05600381
22	0xbd1ded0c	-0.038556144
23	0x39d17800	0.00039952993
24	0x3a237100	0.0006234795
25	0xbd4febc4	-0.050761953
26	0xbd92e65e	-0.07172845
27	0xbdc5ed48	-0.096643984
28	0x3cd10f18	0.025519893
29	0xbde8dadc	-0.11369869
30	0x3d9bb75a	0.07603331
31	0x3d9f0526	0.07764654
32	0xbd99bcb4	-0.075066954
33	0x3d16c884	0.03681232
34	0x3d8e0182	0.06933881
35	0x3dcc2752	0.09968437
36	0xbce42c10	-0.027853042
37	0x3ce56218	0.028000876
38	0xbcc83d98	-0.024443433
39	0x3d86984a	0.065720156
40	0xbdc58aaa	-0.09645589
41	0x3dc606a2	0.09669234
42	0x3d59483c	0.053047404
43	0x3d0cea28	0.034402996
44	0xbdb37350	-0.087622285
45	0x3d106930	0.035256565
46	0xbd9bf5c2	-0.07615234
47	0xbd47aa20	-0.04874623
48	0xbddabaf6	-0.10680191
49	0x3d99b5ea	0.075054005
50	0x3d7b4138	0.061341494
51	0x3d64ad00	0.05582905
52	0xbdf1c664	-0.11805418
53	0xbc8c5ee8	-0.017135099
54	0x3d0be8f4	0.03415771
55	0xbd88c90c	-0.06678972
56	0xbd023d0c	-0.0317965
57	0xbdb3b2ac	-0.08774313
58	0xbdb77f6a	-0.08959849
59	0xbdce309a	-0.10067864
60	0x3cc6d838	0.024273023
61	0xbcb77680	-0.022395372
62	0xbd13c1e8	-0.036073595
63	0x3c96cc60	0.018408
64	0xbd91d6b4	-0.071210295
65	0x3d731404	0.05934526
66	0x3c6341a0	0.013870627
67	0x3dcfcc08	0.10146338
68	0xbbfd8340	-0.0077365935
69	0xbcb524b8	-0.022112235
70	0xbd5e8e44	-0.054334894
71	0x3d54873c	0.051886782
72	0xbc55e170	-0.013054237
73	0x3d35beb4	0.04437132
74	0x3cbf89e8	0.023381189
75	0xbd273a44	-0.04082705
76	0x3d9be78a	0.07612522
77	0xbddfda6a	-0.10930331
78	0xbdc6497e	-0.09681986
79	0xbd4e1a48	-0.050318033
80	0xbda068f6	-0.0783252
81	0xbd9ae376	-0.07562916
82	0xbdd13bac	-0.1021646
83	0xbd37ceec	-0.04487507
84	0x3c5e6730	0.0135744065
85	0xbb1c2140	-0.002382353
86	0x3c2bd270	0.010487184
87	0xbcb3b8a8	-0.021938637
88	0x3ba41380	0.0050072074
89	0x3d84200c	0.06451425
90	0xbc975740	-0.018474221
91	0x3c097260	0.0083890855
92	0x3cea2db0	0.028586239
93	0x3b9fdb80	0.0048784614
94	0xbdc22990	-0.09480584
95	0x3cb7a710	0.022418529
96	0x3d34c16c	0.044129774
97	0x3d844d8e	0.06460105
98	0xbd77e850	-0.060524285
99	0x3caee388	0.02134873
100	0xbd96f22a	-0.07370408
101	0xbc9bab78	-0.019002661
102	0x3c01e320	0.007927686
103	0x3d9a2d18	0.07528132
104	0xbdb5cdec	-0.08877167
105	0xbd3d7480	-0.04625368
106	0xbcafcaa0	-0.021458924
107	0x3bc50ca0	0.006013468
108	0x3b91af20	0.0044459254
109	0xbb782d80	-0.0037868917
110	0xbcef0800	-0.02917862
111	0xbdf95eec	-0.12176308
112	0xbd8d40f6	-0.06897156
113	0xbd3ef978	-0.04662463
114	0xbdbe36be	-0.09287785
115	0xbcbb0a78	-0.02283214
116	0x3daf3340	0.08554697
117	0x3d89770a	0.06712158
118	0xbd8e1f1c	-0.069395274
119	0xbd142c24	-0.03617491
120	0xbdf60ac2	-0.12013771
121	0x3d8fd20a	0.07022484
122	0xbca06530	-0.0195795
123	0xbdf08542	-0.11744167
124	0xbdac6364	-0.08417395
125	0x3bc27140	0.0059339106
126	0x3d97dea6	0.07415514
127	0xbdf01e10	-0.11724484

policy.4.bias f4 [2]
0	0xbdc1fc86	-0.09471993
1	0xbd53b370	-0.051684797
