params/old_policy_net.pkl (torch_old, 39218 bytes, 6 tensors)

policy.0.weight f4 [128, 8]
00000000: 5f7b 8f3d 8ba6 883d dbd3 663e baab 383f
00000010: 6c04 c93e 1cb2 1ebe 8797 35be 6266 d53e
00000020: 1d0e 26be cab0 33be de8b 72bd 3b60 573e
00000030: 1ed5 4f3e 1013 d1be d3f4 b0bd 9934 2dbe
00000040: 1e23 90be a0f3 efbe c665 123e 0721 a5be
00000050: cc34 8e3d c487 b5be e34c 903e d52e b8ba
00000060: bafa 883e 7f49 0f3e 136e d53d e9d7 023e
00000070: 7218 b03d 9fa1 923e ac55 2d3e 72f1 d53d
00000080: 4952 663f 98c4 0f3f 8cf1 98be 6da1 9b3d
00000090: 87e9 c43e 6dbb 0c3f bec1 81be 4d92 3bbe
000000a0: 760c fa3c cf47 8b3e ad61 16be 5697 37be
000000b0: 0f09 bdbd c2e9 0cbe 672b 723e 6388 013d
000000c0: 27d6 093e 5a75 a0be 6208 333e 85e4 16be
000000d0: c7c5 a23d 3d44 9b3e 4b21 203e 75c5 9b3e
000000e0: 38e2 30be d671 9ebc 89ee b7be abb3 22be
000000f0: bcc2 cbbd d406 08be 8f0b e0bd 059c 53be
00000100: c9eb a13e 96ed 9a3a 30b8 223d 3c15 44be
00000110: daee 33be 7c94 a63e 9903 343e aaaa 9a3e
00000120: 99d9 133f 174c e63e da07 2fbe 70b6 b2bd
00000130: 935c cf3e cecd 093f d53c 08be c2f8 8cbe
00000140: d957 593d 85c8 663d c586 2abe 8a2e 6bb8
00000150: e892 603e 11f4 4e3e e42e 3d3e 961d 473e
00000160: 3ea6 5cbe e17d 90be ab81 c13d 9cc9 723e
00000170: 95b2 a83e 4ba9 153e 3412 7bbe 886d be3e
00000180: f60d 20be a415 0e3e 2c63 1a3e 575c 8ebd
00000190: 2670 02be 2881 bcbe 5528 5d3e 7bf2 4fbe
000001a0: 7093 37bf 51c7 88bf b946 b5be f4c0 b03c
000001b0: 66d0 1dbf 0b8f 50bf d45e 6dbe 9d16 263f
000001c0: c32b a23e 6312 5c3e e074 143d 2368 03bf
000001d0: 4543 aa3e 9637 15bd be25 363e b42d 10bf
000001e0: 3f27 3240 0600 3440 4c9a 9abd 8c34 cbbe
000001f0: 8e3c 1640 75c8 1240 4330 9f3e 3ca0 773e
00000200: b381 e040 131e 0041 eaed d93e e1a1 53bf
00000210: ec6b ef40 54ca e740 2aa9 e73e d7ff 173f
00000220: 5f01 e83f d2b7 cc3f 997c a43e 6bea 2bbf
00000230: 2cf5 ce3f 0657 e03f c3ef 80be f839 17bf
00000240: 1b2b 05bf a138 b3be 54c6 d93d 05bf 1d3e
00000250: ef92 18be 149c 0dbf 8ffd 97be de7a 2e3e
00000260: d055 3a3e 45ce 803e 2800 81bd e2a7 87be
00000270: c1a3 d0bd e488 253e baff bfbe 7274 5b3e
00000280: cff3 983e 56a6 94bd ac3f 08bd 9c1d bb3e
00000290: 92d8 653d cd0f da3d 67fb f03d 456a bfbc
000002a0: ea37 1d3f f217 333f 6a36 683e e439 22bd
000002b0: 6d00 1a3f 0479 843f 1081 08be 1f68 95be
000002c0: 6700 b9bd f50b e13d 127d e7bc 9cfc 98bd
000002d0: ae2b 7a3e cebc b1bd 5c15 47be 2992 123e
000002e0: 1d5a 7e3d 607e a7be 05da a73d 71cc 5abd
000002f0: eb2e a03e 1155 d63d 2070 8fbe cf6f a23e
00000300: 2fab b4be 8cf0 b5be e360 4cbc f3df 6f3e
00000310: 0520 9d3e 4798 a93d 3fcd 5ebd c47c d63e
00000320: 90b7 c7bf 3684 debf 07f3 5a3e 91fe ca3e
00000330: b63c aabf 7d9f c3bf 1a57 ec3d 4fb8 133f
00000340: 58a0 1b3f 842a 523e 4c3a 063d 5522 98be
00000350: 6de1 883e 9a8f 94be fbf0 d6bd 16a4 d6be
00000360: df7e 263d 8a0a b23e 5d86 923d a3ba f8bc
00000370: 41dc aabc ec00 cc3b eef6 8f3e 5e22 89be
00000380: d917 2abe fc8d 6cbe 9170 573e 97cf c3bd
00000390: 05a8 403e 2da6 803e 0580 9d3d 2b8e 113e
000003a0: 844f 56c0 065a 88c0 659d d6bc e32b ae3f
000003b0: eeec 71c0 7c5c 84c0 4c07 09be ff2a 9c3f
000003c0: 9217 12be e9b5 043d 1a5c 9c3e 78cf f43e
000003d0: c3eb c93e fd07 60bd a86d 11be 2576 da3e
000003e0: 4304 61be ff97 973e 732f 4b3e 0edf 9e3e
000003f0: fc5b dbbd 4b33 3c3e c6ec 8d3e 404e 51be
0.07005953 0.066723906 0.22541754 0.72137034 0.39261186 -0.15497631 -0.17733584 0.41679674
-0.16216321 -0.17547908 -0.05921542 0.21032803 0.20296142 -0.40834856 -0.086404465 -0.16914596
-0.28151792 -0.4686556 0.14296636 -0.3225176 0.06943664 -0.35455143 0.2818366 -0.0014052043
0.2675379 0.1399288 0.104213856 0.12777676 0.085984126 0.28638932 0.16927212 0.10446443
0.8996931 0.56159353 -0.29871786 0.07599149 0.38459417 0.5497349 -0.25343126 -0.18317528
0.03052352 0.27203223 -0.14685698 -0.17928824 -0.092302434 -0.13761047 0.23649369 0.03162421
0.13460599 -0.31339532 0.17483667 -0.14735611 0.07947879 0.303255 0.156377 0.30424085
-0.17273796 -0.01934139 -0.35924175 -0.1588885 -0.09949252 -0.13283855 -0.109397046 -0.20664985
0.31625202 0.0011820074 0.039726436 -0.19148725 -0.17571583 0.3253516 0.17579497 0.3020833
0.577539 0.44979927 -0.17092839 -0.087262034 0.40500316 0.5382966 -0.13304456 -0.27533537
0.053062294 0.056343574 -0.16652973 -5.607171e-05 0.2193104 0.20210291 0.18474919 0.1944488
-0.21547791 -0.28221038 0.0944856 0.2370972 0.32948747 0.14615361 -0.24518663 0.3719294
-0.15630326 0.13875443 0.15076894 -0.06951206 -0.12738094 -0.36817288 0.21597417 -0.20307343
-0.71709347 -1.0685827 -0.3540552 0.021576382 -0.61646116 -0.81468266 -0.23180705 0.64878255
0.31674013 0.21491389 0.036244273 -0.51330775 0.33254448 -0.036429964 0.17787835 -0.5631974
2.7836454 2.8125014 -0.07548961 -0.39688528 2.347446 2.293485 0.31091508 0.24182218
7.0158324 8.007342 0.42564327 -0.8266888 7.481924 7.2434483 0.4524625 0.59374756
1.8125418 1.5993598 0.3212631 -0.6715457 1.616857 1.7526557 -0.25182924 -0.5907283
-0.520189 -0.35004142 0.10633531 0.154049 -0.148998 -0.5531628 -0.29685637 0.17039058
0.18196797 0.2515737 -0.06298858 -0.26495272 -0.101874836 0.16165501 -0.3749979 0.21431139
0.2987351 -0.072582886 -0.033263847 0.36546028 0.05611474 0.10647545 0.11766701 -0.023366103
0.61413443 0.6995841 0.22677007 -0.03960599 0.601569 1.0349431 -0.13330483 -0.29181
-0.0903328 0.10988609 -0.02825788 -0.074700564 0.24430725 -0.0867859 -0.19441742 0.14313568
0.062097657 -0.32713604 0.08195881 -0.053417627 0.31285796 0.10465444 -0.28015232 0.31725928
-0.35286853 -0.35535085 -0.0124742715 0.23425274 0.3068849 0.08280998 -0.054394957 0.41892064
-1.5602894 -1.7384098 0.2138177 0.39647344 -1.3299778 -1.5283047 0.11540051 0.5770311
0.6079154 0.20524031 0.03277044 -0.29713693 0.26734486 -0.2901581 -0.10495182 -0.41922063
0.040648337 0.34773666 0.07154534 -0.030362433 -0.020856978 0.006225696 0.2811808 -0.26784033
-0.1661066 -0.23101038 0.21039034 -0.09561079 0.18814094 0.25126782 0.076904334 0.14214389
-3.3486032 -4.260989 -0.026198098 1.3607143 -3.780086 -4.1362896 -0.1338169 1.2200621
-0.14266804 0.032400046 0.30539018 0.47814536 0.39437684 -0.05469512 -0.14201987 0.42668262
-0.21974282 0.2960815 0.19842319 0.31029552 -0.10710904 0.18378942 0.27719706 -0.20440006

policy.0.bias f4 [128]
00000000: 7b36 673e 70b9 35bd df05 913c 6d92 adbd
00000010: 6cf0 5b3d 404a bdbd a333 8fbe b696 343e
00000020: 18b6 a7bd ba1a 1ebe 29c0 043d 8ab4 a0be
00000030: fc20 94be 8f00 953e 56ef de3d 461f 76bf
00000040: a1e1 35c0 0866 d4be efe1 5b3e acff 323e
00000050: 681f 9dbe bd03 a0bd 1326 83be 2959 8dbd
00000060: 2022 89be ed1d 743f 49e0 9b3e 3e6b 423e
00000070: 9095 5cba 7906 0340 d0e4 2f3e 7014 c33c
00000080: d78f b53e a5a9 c73f e179 cebd c553 c03d
00000090: 23d0 35c0 c697 76be f1c8 613a ca24 003e
000000a0: dd5e 8dbe d4c5 383f 672c 933f 9591 543c
000000b0: 49d4 463f d06d 663e 8258 9dbe 4e46 913e
000000c0: bb59 c93e c89d b83d 485e 1dbe 0a90 473e
000000d0: 713c e93d a93b c43c bef3 fabd 85ca 9dbe
000000e0: f63b c63e c7da 79be 7fd3 b7bd feb2 b1bd
000000f0: 02ab cc3f 32ca 723e c056 21be 3174 9d3e
00000100: 5dd5 6bbe e524 2d3e 1e23 86be a875 84bd
00000110: 737e 0dbe a162 b3be bfcd 15c0 4e75 04bf
00000120: 782f b3bd 6249 283e a9fb 44bf 2cbc d73e
00000130: b8aa cd3e 8ab9 b13e 2009 893e b8ed 64be
00000140: df2b 213e b934 7b3d c62f 9a3f 0996 44be
00000150: 6914 30be 3e1f c93f 8539 7d3e eeaa 9ebe
00000160: e9d5 1f40 0cb2 85be 786f 25c0 36a8 823f
00000170: 9805 05be 78c7 84bd 154f 0ebe 3f03 2abe
00000180: cae8 2b3c 3cac 253e e7f6 b23e 9337 7c3d
00000190: 0aa5 8ebc 9107 d0bd 8f1d 4f3e 4136 a1be
000001a0: 0cb0 bcbd 95d0 07be eb69 bfbf 3385 893e
000001b0: 20ea 49be a65b bd3f 1381 683d 1504 183d
000001c0: 2c6c 0ebe 1b10 6e3e 215e c13e 8309 c73e
000001d0: 62fc aabe e1cd 0cbe 79a3 a83d 6d83 81be
000001e0: 6389 b4bf a6cc fcbf f17b 91be a299 d6bd
000001f0: dc3f 81bd f921 ddbd 714a eebd d856 253e
0.22579376 -0.0443663 0.017702995 -0.08475194 0.05369608 -0.09242678 -0.27969083 0.17635617
-0.081890285 -0.15439883 0.03240982 -0.3138774 -0.28931415 0.2910199 0.108854935 -0.9614147
-2.8418963 -0.41484094 0.21472906 0.17480344 -0.30688024 -0.07813213 -0.25614986 -0.069017716
-0.26783848 0.95358163 0.30444553 0.18986222 -0.00084146205 2.04727 0.17177129 0.023813456
0.35461304 1.5598646 -0.1008184 0.09390978 -2.8408287 -0.24081334 0.00086130115 0.12514034
-0.27611437 0.7217686 1.1497926 0.012974163 0.7766767 0.22502828 -0.3073159 0.2837395
0.3932627 0.090144694 -0.15367997 0.1948854 0.113884814 0.02395423 -0.122535214 -0.30818573
0.38717622 -0.24399863 -0.089758866 -0.08676718 1.5989687 0.23709944 -0.15755749 0.3075271
-0.2303061 0.16908605 -0.26198667 -0.06467754 -0.13817768 -0.35036185 -2.3406827 -0.5174149
-0.08749288 0.16434243 -0.769465 0.4213575 0.4016931 0.34711868 0.26764774 -0.22356308
0.15739392 0.061329577 1.2045829 -0.19197859 -0.17195286 1.5712659 0.24728973 -0.30989784
2.497431 -0.261124 -2.5849285 1.0207584 -0.12990415 -0.06483358 -0.13897355 -0.16602801
0.010492513 0.16178983 0.34953997 0.061576437 -0.017412681 -0.10157693 0.2022612 -0.31486705
-0.09213266 -0.13263161 -1.4954199 0.26859435 -0.19718218 1.4793594 0.05676372 0.037113268
-0.13908452 0.23248331 0.37767127 0.38874444 -0.33395678 -0.13750412 0.08234305 -0.25295582
-1.4104427 -1.9749954 -0.28414872 -0.10478522 -0.06311008 -0.107974954 -0.11635292 0.1614641

policy.2.weight f4 [64, 128]
00000000: 3b40 70bd d715 9d3d 6031 fd3b cf1d 31bd
00000010: 0a77 1e3d 7804 c5bb 487e 7bbc 9932 39bd
00000020: 700e 8a3b 4cda f53b 517b 563d 23d9 b7bc
00000030: 951f 793d c970 9ebd 575c 9dbd 232c a43d
00000040: 8b53 893d 2bd6 86bc 4eef a93d 1582 953d
00000050: e7fa 12bd 1a01 5f3d 244f 2dbc 244f 6fbd
00000060: aa02 53bd 7247 803d 37fd 3dbd 2171 ab3d
00000070: 51e0 54ba 9b42 02bd cf35 203d d534 15bb
00000080: d72f b83c 3642 ba3d a6ad c0bb 41ba 723c
00000090: 0a2e 2b3d d017 f1bc d53c dbbc ced7 19bd
000000a0: d605 99bc 1da2 8e3b 0ec0 eebb 4b1d bcbc
000000b0: 5b77 e9bc a20e a3bd 57b1 0bbd 17a1 aa3d
000000c0: f96b 24bd 0cbd 83bd 25cf 923d fe63 b5bd
000000d0: 4c84 8f3c 0124 ae3d 6f0b a4bc d09c e13c
000000e0: c851 b3bc 4032 96bb 8005 813c 886f 773c
000000f0: f64e 5f3d ce09 fb3c 2808 8fbd 2522 1cbc
00000100: 7d3a 24bd a447 b3bd 6210 3f3d 6f96 4c3d
00000110: f221 7bbd 6781 02bd f1d3 69bc b7de 203c
00000120: 4401 a93d f7f1 6dbd a67c 9f3a 267e 6e3d
00000130: 40a8 033d a813 803d 9293 3cbd 02be 4e3d
00000140: 7ded 63bd be06 a3bd bb88 6b3d a1d6 90bd
00000150: 46b7 dcbc a965 8b3d 1cb1 69bd 9aca 663d
00000160: 163d 82bd e8f4 963c beac 4a3d 257e 8fbd
00000170: 4266 f8bc 920f 953c b8f0 febc ca07 8e3c
00000180: e04f b03c 3967 c7bc d196 a13d 34e9 4cbd
00000190: a3a6 89bd f6ce 343d 7bfa 99bc 6757 59bd
000001a0: ce6f 9fbd 9525 abbd c707 81bd 4f9e 9cbd
000001b0: 6300 a43d 9f6c 6abd 841e 5d3d 15fb 25bd
000001c0: 66ca 22bd 4666 8f3d 9809 4c3d 8502 86bd
000001d0: 706c a43c faf8 693d c52e 6cbd 74db 0b3d
000001e0: 0319 ddbc 35c4 b3bd d4b5 e1bc b806 f0bc
000001f0: 9111 673d b397 15bc 9e43 983d efb3 823c
00000200: 752e 7a3d ac6e 40bd 766c 453a c4db 22bc
00000210: d67a 3d3c cbb6 dd3c 05e8 8ebb 8468 903b
00000220: 3708 13bc 72fd 3f3d eca9 593b 2018 2dbd
00000230: f800 bbbc 68af f8bc 637f 213d d29e 833d
00000240: d892 44bd 9d25 e8bb d275 ab3b f9ee 9cbd
00000250: 460b 903c b4d1 ee3c ed43 eabc 0f40 4abd
00000260: 04a7 f1bc d984 f53b 6b83 c53d d6bf 23bc
00000270: 13fd 40bd 6671 933c 9a4e a13d 2e30 103d
00000280: fbc4 843d bc6c 4ebd fa49 8e3d c169 3c3d
00000290: 6c10 7cbd db32 7d3d 0aff ad3c 8a7f aabd
000002a0: 2d76 cebc 2ad4 0fbc 36d9 f7bc c787 57bd
000002b0: bc5f 5b3d 397a 56bd 5891 a1bd ca63 92bd
000002c0: bf12 823d dd59 bc3d 8e6d 773c 847a d5bc
000002d0: 6921 5cbd 6f52 f3bc 3f41 09bd 28d6 623d
000002e0: 1e69 833d 7881 9d3d c688 293d c92d 3a3d
000002f0: a54f 7cbd ea94 6e3c eece 53bd 2910 0d3d
00000300: b6e7 39bd 0ac7 953c a3a3 463d df98 a8bd
00000310: 36e0 4e3d 7f2a 52bd adee 3fbc 8ba8 a23c
00000320: a6b2 4d3d 0c6e 60bc 5b1b 22bd 1a6f f3bc
00000330: 7430 923d d8f1 983c e081 f4bc e297 0ebd
00000340: 868f 5e3d bc38 013d 375a 8cbd 9c2e 3abc
00000350: b829 a53d 841a 173d a616 473d 7a30 963d
00000360: 70c8 873d 79bf 9d3d 6630 6f3d a88e 38bd
00000370: 8c8f 99bd 7d56 b33d 07f3 d03c ad48 cdbc
00000380: 63a6 a5bd 7e10 533d 2a70 1d3d 52eb febc
00000390: 28ea 8cbc 9de9 71bd e5f5 513d 0817 83bd
000003a0: 848a 7e3d 1192 6fbc 595a d73c 9c3b ac3d
000003b0: 3c20 7bbd 26d1 56bd 3aef d9bc 75e3 babc
000003c0: d075 f3bc 2b46 8cbc 3ec1 1dbd 79f2 9f3c
000003d0: 657b 0cbc f638 b5bc 4eb0 49bd e650 80bd
000003e0: 7b97 123d 79b9 01bd a105 ab3d f7c7 373d
000003f0: 520c 81bd 38a1 49bd 354f ddbc 731c 783d
-0.058655005 0.07670181 0.007726833 -0.04324132 0.038687743 -0.0060124956 -0.015349932 -0.04521427
0.004213147 0.0075028297 0.052363697 -0.022442406 0.060821135 -0.07736356 -0.07683628 0.08016231
0.06705388 -0.016459545 0.08297597 0.07300202 -0.03588381 0.05444441 -0.010577951 -0.058425084
-0.051516213 0.06263627 -0.046384063 0.08371187 -0.0008120584 -0.0318018 0.039113816 -0.0022767086
0.02248375 0.0909466 -0.0058800755 0.014814914 0.041791953 -0.0294303 -0.026762405 -0.037559323
-0.01867954 0.0043528215 -0.0072860783 -0.022963187 -0.028499296 -0.07961775 -0.03410467 0.08331507
-0.040142033 -0.06432542 0.07168416 -0.088569626 0.017519139 0.08502961 -0.020024983 0.027540594
-0.021889582 -0.004583627 0.015749693 0.015102275 0.054518662 0.030644324 -0.069839776 -0.009529625
-0.04009484 -0.08753899 0.046646483 0.049948152 -0.06131167 -0.03186169 -0.014271722 0.009818724
0.082521945 -0.058092084 0.0012167885 0.058225773 0.032142878 0.06253749 -0.04603917 0.050474174
-0.05564641 -0.0796027 0.057503443 -0.07072187 -0.02694286 0.068064995 -0.05705367 0.05634556
-0.063593075 0.018427327 0.049481146 -0.07006482 -0.030322198 0.018195901 -0.031120643 0.017337698
0.021522462 -0.024341213 0.07890094 -0.050027087 -0.067212366 0.044142686 -0.018796196 -0.05306187
-0.07784997 -0.083567776 -0.063003115 -0.076473825 0.08007886 -0.057232495 0.05398418 -0.040522654
-0.039743803 0.07001929 0.049813837 -0.06543449 0.020071238 0.05712221 -0.05766179 0.034144834
-0.026989466 -0.08777658 -0.027552523 -0.029300079 0.056413237 -0.009130406 0.07434772 0.01595494
0.06107946 -0.046980545 0.00075311156 -0.0099400915 0.011564931 0.027064702 -0.004361155 0.0044069905
-0.008974127 0.046872564 0.0033212854 -0.042259336 -0.02282761 -0.030357078 0.039428126 0.06426777
-0.047991604 -0.007084562 0.005232551 -0.07662768 0.0175835 0.029152729 -0.028596843 -0.049377497
-0.029498585 0.0074926433 0.096442066 -0.009994468 -0.04711635 0.017998409 0.0787632 0.035202198
0.064828835 -0.050396666 0.06947704 0.045999292 -0.0615391 0.061816078 0.021239776 -0.083251074
-0.025202835 -0.008778611 -0.030254941 -0.05261972 0.053558096 -0.052362654 -0.0788905 -0.071479395
0.06351232 0.091968276 0.0151018035 -0.026059397 -0.0537428 -0.029702393 -0.03350949 0.055380017
0.06416534 0.0769071 0.041390203 0.04545382 -0.061599392 0.014561871 -0.051711015 0.03443924
-0.045386992 0.018283386 0.0484959 -0.08232283 0.050506793 -0.05131006 -0.01171462 0.019855758
0.0502192 -0.013698112 -0.03957687 -0.029716063 0.07138148 0.018670008 -0.029847085 -0.034812815
0.054336093 0.031548247 -0.068531446 -0.011363652 0.08064598 0.03689052 0.048605584 0.07333465
0.06630027 0.07702536 0.058395766 -0.045057923 -0.074980825 0.08756731 0.02550651 -0.025059069
-0.080883764 0.0515294 0.038437046 -0.031118069 -0.017201498 -0.05906068 0.051259894 -0.06400877
0.062143818 -0.014622227 0.026288198 0.08409807 -0.061310038 -0.052445553 -0.02660333 -0.022813538
-0.029719263 -0.017123302 -0.03851437 0.0195248 -0.008574341 -0.022121888 -0.049240403 -0.0626543
0.035788994 -0.03167102 0.08350683 0.044868436 -0.06301178 -0.049226016 -0.027015308 0.060574006

policy.2.bias f4 [64]
00000000: e902 bc3b b5fa ce3d d2ef 633e ac05 2a3a
00000010: 2bf0 203d 2512 283d 7e32 983d aa87 603c
00000020: 5320 c7bc b8d8 22bf d9b1 8e3d 0a11 c4be
00000030: bf77 97bd ddc3 76bd 82c0 553d 1d1e 843d
00000040: 5ba9 413e 8fe6 a4be db7b fcbb 4e1e 5bbd
00000050: 8460 80be 1fa3 22be 8d9a c43d 7771 7d3e
00000060: 2759 2bbd 9f77 e2bc ec29 6bbd 2488 923d
00000070: 5787 fd3c 2438 8d3d 0492 863e 0f31 92be
00000080: 97f0 b0bd 6bc6 7ebb 223b 3e3e ec17 89bc
00000090: 508d a9bd 7392 b53b 0065 1fbe b9e4 143e
000000a0: a47b d33d 4d81 63bd bdf3 6e3c 388a 1c3e
000000b0: b67b 9e3d 09b8 05bf e826 923d 7b0a 253e
000000c0: 17ae e13b b280 453d 8066 dfbc 94d9 89b9
000000d0: c0f4 4dbd 625f dcbe a7a2 fb3d 2698 973d
000000e0: b4a8 1cbe e9c5 81bd 6882 443d a0f3 8c3e
000000f0: 1980 b03d a0fa 3bbc 3f63 dd3d 4201 babd
0.0057376516 0.10106412 0.22259453 0.00064858305 0.039291542 0.04103293 0.074315056 0.01370422
-0.024307406 -0.63611937 0.069675155 -0.3829425 -0.07395887 -0.060245384 0.052185543 0.06451056
0.1891226 -0.32207152 -0.0077051944 -0.053495698 -0.25073636 -0.15882538 0.09599791 0.24750315
-0.04183307 -0.02764493 -0.057413027 0.07154873 0.030948324 0.068954736 0.26283276 -0.28553054
-0.08639639 -0.003887559 0.18577245 -0.01673504 -0.08278906 0.0055411397 -0.15565872 0.14540376
0.10326317 -0.055543233 0.014584479 0.15287101 0.0773844 -0.5223394 0.07136327 0.16117279
0.006887208 0.048218437 -0.027270555 -0.00026292785 -0.05028224 -0.4304152 0.12286883 0.07402067
-0.1529873 -0.063365765 0.047975928 0.2752962 0.08618183 -0.011473328 0.10809945 -0.09082271

policy.4.weight f4 [2, 64]
00000000: 1bc9 c43c 31cf a1bd 54eb a9bc 8655 25bb
00000010: 135c e8bd 8306 a93d 20ea b7bd a5c8 853d
00000020: 2386 563d e1b6 923f f420 8bbd 618e 483f
00000030: 431d 003e 24b4 433c b5a2 073f cbfa 9abd
00000040: 06ba 20be 28b0 a23e 5f16 07bd 572b 273d
00000050: 6236 a83e f49f f13d ac8f f53c d2af 95be
00000060: ff23 86bd cd94 1fbd 2621 b3bd 45b1 8e3e
00000070: 1670 2d3c b8e1 973d a044 8ebe ed2a ec3e
00000080: 2049 76bd 41b3 423c 8e68 84be 5e19 cd3d
00000090: 1b3f be3d 2d73 6ebc ced7 c73e 90af 7b3f
000000a0: 5e17 0dbe a57e d73d 46be 6bbd bdd4 67be
000000b0: b6d8 f6bd d9e2 773f 357b f8bd 7dce 01be
000000c0: bcdd 2e3d 1ed2 5bbd f082 233e d0db 933c
000000d0: 9f76 cebc 7f68 773f 65d8 3cbd d22a 32be
000000e0: 3871 a53e f18c 62bd 308d 443d 687c 5bbe
000000f0: 7ee4 15bd 3b89 07bd 1c5f 503f fe1e 313d
00000100: e8bf e83c 62f5 0abe a16b 89be c944 77bc
00000110: 7e42 2a3f fb3c bbbd c19b 863f 105d 583c
00000120: f627 193d dac6 d2bf 6f45 d73f 3e2f 3cbf
00000130: 891f a9bc 2edf b13b 24aa e0be 3811 2a3e
00000140: d267 f63f 0fb8 06bf 1e0a 5e3e d773 3cbd
00000150: 8cd5 bdbe b505 3bbe aee3 82be dcf8 5340
00000160: 58fc cd3d f63a e9bd b9f6 a03b 4c2a e0be
00000170: 7687 a9bd 2bf9 c7ba d7a5 3440 826c 41bf
00000180: 1826 3cbd 0bdb 913c 093e 2c40 ab53 3ebd
00000190: 52fe 44bd f5fd b43b 7892 1dbf 7f77 86bf
000001a0: c353 ac3f 2bf9 913d 837d bd3d 7eb1 0040
000001b0: f708 763f f043 c2bf f7db ea3c 8b49 fc3f
000001c0: 09fd b63d 89cd ce3c 6991 d7bd 8f26 8a3d
000001d0: e990 7b3d 307f 9bbf 6ad6 8c3f 6297 e63f
000001e0: bbb7 d4be ad07 d13d d26f 48bc b3fe 4b40
000001f0: 876d 503f 07b6 2c3d 68c5 74bf dc31 a8bd
0.024021676 -0.07900847 -0.020742096 -0.0025227978 -0.11345687 0.08253195 -0.08980203 0.065324105
0.052374016 1.146206 -0.06793395 0.7834225 0.12511162 0.011944804 0.52982646 -0.07567366
-0.15695962 0.31775022 -0.03298032 0.040812816 0.3285399 0.11798087 0.029975735 -0.29235703
-0.065498345 -0.038960267 -0.08746557 0.2786962 0.010585805 0.07416099 -0.27786732 0.461265
-0.06012833 0.011883558 -0.2586102 0.10014604 0.0928938 -0.014553827 0.39031833 0.9831476
-0.13778445 0.105222024 -0.057554506 -0.22639747 -0.12053053 0.9683052 -0.12132875 -0.12676425
0.04269193 -0.05366718 0.15967917 0.01804915 -0.025203047 0.96643823 -0.046104807 -0.17399147
0.32312942 -0.055310193 0.04798621 -0.21434176 -0.03659486 -0.033089858 0.81395125 0.043242447
0.02841182 -0.13570169 -0.26839927 -0.015092083 0.6650771 -0.091424905 1.0516282 0.013205782
0.037391625 -1.6466935 1.6818064 -0.73509586 -0.02064492 0.0054282164 -0.43879807 0.16608131
1.9250433 -0.526246 0.21683547 -0.04600891 -0.37076986 -0.18263896 -0.2556433 3.3120642
0.100578964 -0.11388199 0.004912224 -0.4378227 -0.0827779 -0.0015256753 2.822622 -0.75556195
-0.045934767 0.017804643 2.6912863 -0.04646651 -0.0480941 0.005523438 -0.6155162 -1.0505217
1.3463062 0.07127603 0.09252455 2.0108333 0.9610743 -1.5176983 0.02866934 1.9709944
0.089349814 0.025244491 -0.10525782 0.06745636 0.061417494 -1.214819 1.1002934 1.8014948
-0.41546425 0.10206542 -0.012233691 3.1874206 0.81417125 0.042165782 -0.9561372 -0.08212635

policy.4.bias f4 [2]
00000000: a71b b4bd 5a34 c8bd
-0.08794337 -0.0977561
