params/old_policy_net.pkl (torch_old, 20530 bytes, 6 tensors)

policy.0.weight f4 [64, 8]
0	0x3e8d7179	0.27625635
1	0xbd93d63d	-0.07218597
2	0x3d1f5b3f	0.03890538
3	0x3e265b91	0.16245867
4	0x3eb2deaa	0.34935504
5	0xbe835f55	-0.2565867
6	0xbc7e124a	-0.01550729
7	0x3eb96b50	0.36214685
8	0xbe2ed755	-0.1707433
9	0xbe8149e9	-0.252517
10	0x3ea6d07c	0.32580936
11	0x3e6f4a5e	0.23368213
12	0x3b918811	0.004441269
13	0x3c9e1749	0.019298213
14	0xbe9e2afc	-0.3089217
15	0xbeb2e9a3	-0.34943876
16	0x3dd2b066	0.102875516
17	0xbe32d0fc	-0.17462534
18	0xbda3cd3f	-0.07998132
19	0x3dafadba	0.085780576
20	0xbdea935b	-0.11453887
21	0xbea5c9bc	-0.32380474
22	0xbdd93371	-0.10605515
23	0xbe1100e8	-0.14160502
24	0x3e1a28ab	0.15054576
25	0xbdccd860	-0.10002208
26	0x3e4944bf	0.19655131
27	0x3e7d6336	0.24744877
28	0x3e25e347	0.1619998
29	0x3ecd0424	0.40042222
30	0x3e3e24ce	0.18568727
31	0xbeef8de2	-0.46787935
32	0x3e49f152	0.19720963
33	0xbdca3417	-0.098732166
34	0x3dcdd1ff	0.10049819
35	0xbe6ee26d	-0.23328562
36	0x3e8a3862	0.26996142
37	0x3e86c564	0.26322472
38	0x3ea0765f	0.3134031
39	0xbea45628	-0.32096982
40	0xbe921ff7	-0.28540012
41	0x3e7c45a6	0.24635944
42	0xbe3fb48b	-0.18721215
43	0xbe88f12c	-0.267465
44	0x3e087e76	0.13329491
45	0xbda894f5	-0.08231536
46	0xbeb33fc6	-0.35009593
47	0x3d9f3560	0.07773852
48	0x3ea1e9b2	0.31623608
49	0x3eba0481	0.3633156
50	0x3e522443	0.20521645
51	0xbd07b736	-0.033133708
52	0xbe1ba699	-0.1520027
53	0xbdaf40f7	-0.08557313
54	0xbdf9279c	-0.12165758
55	0x3e49e08a	0.19714561
56	0xbdc80d8b	-0.09768208
57	0x3e26c4cd	0.16286011
58	0xbc6287d6	-0.013826331
59	0x3e8f8487	0.28030798
60	0xbc5ec15c	-0.013595905
61	0x3d07a8e8	0.033120066
62	0x3d25a86d	0.040443826
63	0xbe5f09dc	-0.21781105
64	0xbe8c9783	-0.27459344
65	0x3d88204c	0.06646785
66	0xbd4a6647	-0.049413946
67	0x3eba2d84	0.3636285
68	0xbd9630f6	-0.07333557
69	0xbde5d78f	-0.11222755
70	0xbe0798cd	-0.13241883
71	0x3e3c9bbd	0.18418784
72	0xbe7c67bf	-0.24648951
73	0xbe1be710	-0.15224862
74	0xbeac2103	-0.33618936
75	0xbeaf13a5	-0.34194675
76	0xbe878878	-0.26471305
77	0xbca9e3aa	-0.020738441
78	0xbe85cb30	-0.26131582
79	0x3e92350d	0.285561
80	0xbe6c8097	-0.23095928
81	0xbe9b5ddb	-0.30345044
82	0xbdd42cd1	-0.103601106
83	0xbe86234d	-0.26198807
84	0x3ea2519e	0.31702894
85	0xbde4422a	-0.11145432
86	0xbe292125	-0.1651655
87	0x3e7a1c81	0.24424936
88	0xbd6f511c	-0.05842696
89	0xbdb18a96	-0.08669011
90	0xbe518afb	-0.20463173
91	0x3e9089be	0.2823009
92	0x3c970be8	0.018438295
93	0xbdd65471	-0.10465325
94	0xbe91c822	-0.28473002
95	0x3ebdc81b	0.3706673
96	0x3e122bd0	0.14274526
97	0xbe6531a6	-0.2238222
98	0xbe66c9ce	-0.2253792
99	0xbde812c0	-0.11331701
100	0xbd4e4b90	-0.05036503
101	0x3dfc7975	0.123278536
102	0x3d7c02cc	0.061526105
103	0x3da5d0a7	0.08096438
104	0xbd4e8faa	-0.050429977
105	0xbc19b348	-0.009381123
106	0x3ecbe7b8	0.39825225
107	0x3f067a9d	0.52530843
108	0x3e119bdc	0.14219612
109	0x3e0eacc5	0.13933094
110	0x3e0a487e	0.13504216
111	0xbe2152d6	-0.15754256
112	0x3e42786a	0.18991247
113	0x3dc05358	0.093908966
114	0xbe949e12	-0.29026848
115	0x3d87bfdf	0.066283934
116	0xbe63ac02	-0.22233585
117	0x3eb6e7e7	0.35723802
118	0x3e50b8c4	0.20382982
119	0xbdfc7ddf	-0.123286955
120	0x3db5ea31	0.08882559
121	0x3d41ecd1	0.047344986
122	0xbce906ca	-0.02844562
123	0xbf178cbf	-0.59199136
124	0xbd284048	-0.04107693
125	0xbedb0879	-0.42779902
126	0xbe4575c2	-0.19283202
127	0xbea4ceb0	-0.3218894
128	0xbe181f0d	-0.14855595
129	0xbdddc5e4	-0.1082876
130	0xbe094b12	-0.13407543
131	0x3e4c4116	0.19946703
132	0xbc7a5799	-0.015279674
133	0xbe32082b	-0.17385928
134	0xbe388bc2	-0.18022063
135	0x3e2e8071	0.17041184
136	0x3d430d1c	0.047619924
137	0x3e19da9f	0.15024804
138	0xbe96e88d	-0.29474297
139	0x3e87e52f	0.2654204
140	0xbe6a38c5	-0.22873218
141	0x3e9d94ef	0.3077769
142	0x3e194f51	0.14971663
143	0xbec967ee	-0.39337105
144	0xbc2936fc	-0.010328051
145	0xbe39b6d2	-0.18136147
146	0xbd4c5bb8	-0.049892157
147	0x3e63ecdd	0.22258325
148	0x3e901e32	0.28148037
149	0xbe83cba3	-0.257413
150	0x3e91e1cb	0.2849258
151	0x3e49e11a	0.19714776
152	0xbd4eac0d	-0.05045705
153	0x3e1b8f59	0.15191402
154	0xbd47f467	-0.048817065
155	0xbe91e15d	-0.2849225
156	0x3e6b7e9a	0.22997513
157	0x3ebea178	0.37232566
158	0xbea5e381	-0.32400134
159	0xbedd9e24	-0.43284714
160	0x3cde846d	0.027162755
161	0xbe668466	-0.22511443
162	0x3d3046bf	0.04303622
163	0xbe2372d5	-0.15961774
164	0x3e09aa5a	0.1344389
165	0xbe9649f8	-0.2935331
166	0x3a2466a4	0.0006271398
167	0x3ed2bcc5	0.41159645
168	0x3ea618e9	0.3244088
169	0xbbf4ef37	-0.0074748057
170	0x3e6c4476	0.23072991
171	0x3da734df	0.08164381
172	0xbe5bff1f	-0.2148404
173	0x3cb2f367	0.021844579
174	0xbc96eb8a	-0.01842286
175	0x3ec32819	0.3811653
176	0x3b5ce5ba	0.0033706264
177	0xbe0f41a1	-0.13989879
178	0xbe0fde1c	-0.14049572
179	0xbef303c9	-0.47463825
180	0x3e84a204	0.25904858
181	0xbd9a794a	-0.07542665
182	0x3e3feb0c	0.18742007
183	0xbe6297fb	-0.22128288
184	0x3dce2a82	0.100667015
185	0x3c64df9c	0.013969328
186	0x3b625e55	0.003454109
187	0xbd9a6d66	-0.07540397
188	0xbdaf8a44	-0.08571294
189	0xbe7a6a83	-0.24454693
190	0xbe164497	-0.14674602
191	0xbee80b7b	-0.4532126
192	0xbe4a3cb7	-0.19749723
193	0xbe94a231	-0.29029992
194	0x3d783428	0.060596615
195	0x3df9e8e7	0.12202626
196	0xbdf66e80	-0.12032795
197	0x3eb3e970	0.35139036
198	0xbe31d662	-0.17366937
199	0xbd764c81	-0.060131554
200	0x3e635806	0.22201547
201	0xbda3ca99	-0.07997627
202	0x3e82a36d	0.2551531
203	0xbeb68789	-0.3565028
204	0xbe7a19b1	-0.24423863
205	0x3e8a9ecc	0.27074277
206	0xbeba1585	-0.36344543
207	0x3d7da6c6	0.061926626
208	0x3e6760e6	0.22595558
209	0xbe009caf	-0.1255977
210	0xbdbd02d6	-0.092290565
211	0xbe87df8a	-0.26537734
212	0xbea0c3d7	-0.31399414
213	0xbe07e17d	-0.1326961
214	0xbe892101	-0.26782992
215	0xbde059fc	-0.10954663
216	0xbe7b91f7	-0.245674
217	0x3e3bb082	0.18329051
218	0x3e933a77	0.28755543
219	0x3e5f109b	0.21783678
220	0xbe9fb6e8	-0.31194234
221	0x3ea97612	0.33097893
222	0x3e17fdf4	0.14842969
223	0xbe75e658	-0.2401365
224	0xbdc654ff	-0.096841805
225	0xbe7a4c2c	-0.2444312
226	0xbd9c30cf	-0.07626497
227	0x3df6f1c7	0.12057834
228	0xbe949d34	-0.29026186
229	0x3e5bfe76	0.21483788
230	0x3e874cd8	0.26425815
231	0x3e60d5ec	0.21956605
232	0x3dca0cd6	0.098657295
233	0xbe8fe308	-0.281029
234	0xbe1b13ae	-0.15144226
235	0xbe5b812a	-0.21435991
236	0x3e54c5bd	0.20778556
237	0xbd0dcca3	-0.034618985
238	0x3e461fe8	0.19348109
239	0xbee08433	-0.4385086
240	0x3e59f985	0.2128659
241	0x3e6092a9	0.21930946
242	0x3c4f6e5f	0.012660592
243	0xbe889b61	-0.26681045
244	0xbc10bc32	-0.008833932
245	0x3ccc2a6d	0.024922574
246	0xbe8ff4bd	-0.28116408
247	0x3e39cbc7	0.18144141
248	0x3dec0f84	0.11526397
249	0x3e084e2c	0.1331107
250	0xbe232109	-0.1593057
251	0x3d00e139	0.03146479
252	0xbea9d39f	-0.33169267
253	0x3d27789d	0.04088651
254	0xbe7aa6b0	-0.24477649
255	0x3e5bc306	0.21461114

policy.0.bias f4 [64]
0	0xbedf0688	-0.4355967
1	0xbe05bcad	-0.13060255
2	0xbe043960	-0.12912512
3	0xbe905ba1	-0.28194907
4	0x3e689283	0.2271214
5	0xbe99ac00	-0.30014038
6	0xbced964e	-0.029002335
7	0xbe346712	-0.17617443
8	0x3e89d38a	0.26919204
9	0x3e2246e2	0.15847352
10	0xbdc58b10	-0.09645665
11	0xbee633d6	-0.44961423
12	0x3e986f46	0.29772395
13	0x3eef0f6f	0.46691462
14	0xbe75d674	-0.24007589
15	0x3ea36d70	0.31919432
16	0xbec5ab79	-0.38607386
17	0xbe96b1c4	-0.294325
18	0xbeb789cd	-0.3584732
19	0xbe95d5dc	-0.29264724
20	0xbedcd963	-0.43134603
21	0xbea82aeb	-0.32845244
22	0x3eb101fa	0.3457182
23	0x3de3d729	0.11125023
24	0xbc5a4868	-0.013322927
25	0xbe4d2a72	-0.20035723
26	0xbea06a0d	-0.3133091
27	0xbde89495	-0.11356465
28	0x3e8725bb	0.26395974
29	0x3e2654fc	0.16243356
30	0xbea73e38	-0.32664657
31	0xbe9058b2	-0.2819267
32	0x3dd4389c	0.1036236
33	0x3e8f0b10	0.27938128
34	0x3eba5d2c	0.3639921
35	0x3e5f6b73	0.21818332
36	0xbda978a3	-0.08274963
37	0x3e522ce1	0.20524932
38	0x3e7954da	0.24348775
39	0x3e8d3dac	0.27586114
40	0x3e83a442	0.25711256
41	0x3e4ca6a7	0.19985448
42	0x3e9967bc	0.29961956
43	0xbe67a1dc	-0.22620338
44	0x3ddbd244	0.10733464
45	0xbe8499e0	-0.25898647
46	0x3e143125	0.14471872
47	0x3e881b49	0.26583317
48	0xbe19d37f	-0.15022086
49	0xbceb0761	-0.028690042
50	0xbd1d6f6a	-0.03843633
51	0xbec1cc43	-0.37851152
52	0x3e5a54bc	0.21321386
53	0x3e93d983	0.28876886
54	0x3e4dc25f	0.20093678
55	0xbe875e88	-0.2643931
56	0x3daa7813	0.083236836
57	0x3e89a2a3	0.26881894
58	0xbe797023	-0.24359183
59	0xbdab3c08	-0.083610594
60	0xbefd0934	-0.49421084
61	0xbdcda48e	-0.10041152
62	0xbe7bca7f	-0.24588965
63	0x3d24ab67	0.040202525

policy.2.weight f4 [64, 64]
0	0x3d7197c2	0.05898262
1	0xbdd3d00e	-0.10342418
2	0xbb690b05	-0.0035559547
3	0xbdfadb8b	-0.12248906
4	0xbd6e44cd	-0.058171082
5	0xbcb55c68	-0.02213879
6	0xbc032ee2	-0.008006783
7	0xbdfd25b1	-0.12360705
8	0xbc2c9931	-0.010534571
9	0x3d49bf23	0.049254548
10	0x3d0ac317	0.03387746
11	0x3bc3db85	0.0059770965
12	0xbba7c247	-0.005119595
13	0x3d18fc69	0.037350092
14	0xb91b3fda	-0.00014805738
15	0x3d9e2399	0.077216335
16	0x3d20e17f	0.03927755
17	0xbdb0a21e	-0.086246714
18	0x3d275b0f	0.040858325
19	0x3dbe9e7b	0.093075715
20	0xbde4103b	-0.11135908
21	0xbacf81b0	-0.0015831497
22	0xbe002e95	-0.1251777
23	0xbd8f16e0	-0.06986785
24	0xbdb61a30	-0.088917136
25	0xbdb79d4a	-0.089655474
26	0x3de576b9	0.11204285
27	0x3d7dd3eb	0.06196968
28	0xbd959cbf	-0.073052876
29	0xbc611379	-0.013737553
30	0xbc070621	-0.008241207
31	0x3d41c2ee	0.04730504
32	0xbdacdb7b	-0.084403
33	0xbddba258	-0.10724324
34	0xbdbf0629	-0.09327347
35	0x3da57c27	0.08080321
36	0x3ddbce6d	0.10732732
37	0xbdd1a226	-0.102360055
38	0x3dd7d0c1	0.105378635
39	0x3d1756cb	0.036948007
40	0x3d97ba5d	0.07408593
41	0xbd6fe039	-0.058563445
42	0x3c916979	0.017750489
43	0x3d0eba11	0.034845416
44	0xbaabb89e	-0.0013101285
45	0xbdbb282b	-0.09138521
46	0x3cc6891b	0.024235299
47	0xbdac1cd6	-0.084039375
48	0x3d651d57	0.055936184
49	0xbda11a91	-0.07866395
50	0x3da2374d	0.07920704
51	0x3cd3218b	0.02577283
52	0xbd8d570d	-0.06901369
53	0xbd932d70	-0.07186401
54	0xbbf5eb74	-0.007504875
55	0xbc7a6c40	-0.015284598
56	0xbdc76cb9	-0.09737534
57	0x3d3e61e8	0.04648009
58	0x3cfd7770	0.030940741
59	0x3de541e1	0.11194206
60	0xbdd79365	-0.1052616
61	0x3ce1f109	0.027580755
62	0x3de0222c	0.10944018
63	0xbdd0e628	-0.10200149
64	0xbe145d5d	-0.1448874
65	0x3d4e31e9	0.050340567
66	0x3c6f307c	0.014598962
67	0x3db2763b	0.08713957
68	0x3dbd2997	0.09236448
69	0x3dc539de	0.09630178
70	0x3db5b6ac	0.088727325
71	0xbdf36136	-0.11883776
72	0x3df36e50	0.11886275
73	0x3cf95b6c	0.030439101
74	0xbdf13557	-0.11777752
75	0xbda7be56	-0.081906006
76	0xbd05017b	-0.032472115
77	0x3cd6d5c4	0.026224978
78	0xbde9584b	-0.11393794
79	0x3d1085c1	0.035283808
80	0xbdc29c6f	-0.095024936
81	0x3d5d7f58	0.054076523
82	0x3caf9b84	0.02143646
83	0xbd94b1ff	-0.072605126
84	0xbd431138	-0.047623843
85	0xbd23c23d	-0.039980162
86	0xbc3d8499	-0.011567258
87	0x3b7656d0	0.0037588365
88	0xbd89b34c	-0.06723651
89	0x3d88ac9b	0.06673547
90	0xbb6d1b89	-0.0036179742
91	0x3cdf3218	0.027245566
92	0x3dfe34c1	0.12412406
93	0x3d82cddb	0.0638692
94	0xbdcf9c19	-0.10137195
95	0x3d829389	0.06375796
96	0x3bb4dcfd	0.005519508
97	0x3d80bb96	0.06285779
98	0xbdc95b92	-0.09831919
99	0x3ce6962e	0.028147783
100	0xbcbd925c	-0.023141079
101	0xbda81a7c	-0.082081765
102	0x3cd53808	0.026027694
103	0x3dab5adc	0.083669394
104	0xbdff60c2	-0.12469627
105	0xbbea148d	-0.007143563
106	0x3df67c16	0.12035386
107	0xbca5b194	-0.020226277
108	0x3deac03d	0.11462448
109	0xbd970674	-0.07374278
110	0xbc4f2e8f	-0.012645378
111	0xbe046e12	-0.12932613
112	0x3d8800ec	0.06640801
113	0x3db108ce	0.086442575
114	0xbdb8434d	-0.089972116
115	0x3dd7cc7a	0.10537048
116	0x3da99c5f	0.082817785
117	0xbdb96a91	-0.09053529
118	0xbdcf004f	-0.10107481
119	0xbdd682e9	-0.10474188
120	0x3e015201	0.12628938
121	0xbe2e3583	-0.170126
122	0x3d402475	0.046909768
123	0xbcd36240	-0.025803685
124	0xbe161841	-0.1465769
125	0xbd043df2	-0.03228564
126	0x3dd7ef74	0.10543719
127	0xbc0a8656	-0.00845488
128	0xbd4393d4	-0.0477484
129	0xbdae5f0a	-0.08514221
130	0xbd104a78	-0.03522727
131	0x3c97da32	0.01853666
132	0xbd0652c4	-0.032793775
133	0x3de0bb27	0.109731965
134	0x3cc88255	0.02447621
135	0x3dbadeca	0.09124525
136	0xbd17dfcc	-0.037078664
137	0xbcc66f6f	-0.024223058
138	0xbd04aa64	-0.03238906
139	0xbd9550e0	-0.07290816
140	0xbda25022	-0.0792544
141	0x3d941dd3	0.07232251
142	0x3da149f5	0.07875434
143	0x3dc61b2d	0.09673152
144	0x3dc88f3c	0.09792945
145	0xbdecd402	-0.11563875
146	0xbd86e416	-0.06586473
147	0x3d3fe9ec	0.046853945
148	0xbdcf1330	-0.101110816
149	0xbdac5ee2	-0.08416535
150	0xbce9e732	-0.028552625
151	0x3db72b1f	0.089437716
152	0xbd8ce36b	-0.06879314
153	0x3d4e4318	0.050356954
154	0xbd718b09	-0.058970485
155	0xbdef8d8b	-0.11696919
156	0xbc437a77	-0.011931053
157	0xbd032c05	-0.032024402
158	0x3cdef9bd	0.027218694
159	0xbdb138b6	-0.08653395
160	0xbd9c9862	-0.07646252
161	0x3be4d1c9	0.006983016
162	0xbce1f533	-0.02758274
163	0xbd86fe79	-0.065915056
164	0x3da25d40	0.07927942
165	0xbdd40b5c	-0.10353729
166	0xbdef0cea	-0.11672385
167	0xbd32dbca	-0.04366664
168	0x3dd09273	0.10184183
169	0xbde960f1	-0.11395443
170	0x3cf53a08	0.029934898
171	0xbc6e7810	-0.014554992
172	0xbd883a78	-0.06651777
173	0x3d711440	0.058857203
174	0xbd0a05e6	-0.03369703
175	0x3d5669c8	0.052346975
176	0xbcac8a78	-0.02106212
177	0x3cb4c1da	0.022065092
178	0xbdbaa6f6	-0.091138765
179	0xbd808886	-0.0627604
180	0xbd9a76c4	-0.07542184
181	0x3d4a8010	0.049438536
182	0x3bfb2002	0.0076637277
183	0x3d61b984	0.055108562
184	0xbcef4cf5	-0.0292115
185	0xbc8b59cf	-0.017010598
186	0xbd6d26c3	-0.057898294
187	0xbd487b36	-0.048945628
188	0x3d24b8bc	0.04021524
189	0x3c57dfa0	0.013175875
190	0xbdcebc1a	-0.10094471
191	0xbda49f2f	-0.08038174
192	0xbdd75ae9	-0.105153866
193	0x3cdd21e6	0.026993703
194	0xbe0185cc	-0.12648696
195	0xbcc4fdd4	-0.024046816
196	0xbdca93c5	-0.09891466
197	0x3d67939a	0.05653725
198	0x3db94e70	0.09048164
199	0xbcb876b0	-0.022517532
200	0x3d65d049	0.05610684
201	0xbca8cf29	-0.020606594
202	0xbc91bf74	-0.017791487
203	0xbd9110c6	-0.070832774
204	0x3c7e5764	0.015523765
205	0x3e4c5f58	0.19958246
206	0xbc390073	-0.011291611
207	0xbe02454a	-0.12721744
208	0xbe4698d7	-0.19394241
209	0xbcc5a3c4	-0.024125941
210	0xbe09c1ea	-0.13452879
211	0x3df294a6	0.11844759
212	0xbe0797ea	-0.13241544
213	0xbdc2a23d	-0.09503601
214	0xbda01ae5	-0.0781763
215	0xbe14c525	-0.1452833
216	0x3d167cda	0.03674016
217	0xbdc21df1	-0.09478367
218	0xbde4e690	-0.11176789
219	0xbda3026f	-0.079594485
220	0x3d81e994	0.063433796
221	0xbe018557	-0.12648521
222	0xbd9f2ff3	-0.077728175
223	0x3bd869da	0.0066044154
224	0x3d369434	0.04457493
225	0x3d015d5a	0.031583168
226	0x3e5a07e9	0.2129208
227	0x3d6d7898	0.057976335
228	0xbd0e38ea	-0.034722246
229	0xbcabaa1f	-0.020955143
230	0xbe20553c	-0.15657514
231	0x3e086dba	0.13323107
232	0xbc423e56	-0.011855682
233	0xbcf39a69	-0.029736714
234	0x3da44629	0.080211945
235	0xbc16a720	-0.009195119
236	0x3c53bd7e	0.012923596
237	0xbcabd141	-0.020973803
238	0x3dbecf1a	0.09316845
239	0xbc280dae	-0.010257168
240	0xbccbcb8e	-0.024877336
241	0x3df6d317	0.12051981
242	0x3d31d0a1	0.043411855
243	0x3bed1659	0.00723533
244	0x3e0e3d42	0.13890556
245	0xbe3a7ecf	-0.18212436
246	0xbde49701	-0.11161614
247	0xbd854c2f	-0.065086715
248	0xbc66558b	-0.014058481
249	0xbe71c17a	-0.23608962
250	0xbd13121a	-0.035905935
251	0x3d0cf302	0.034411438
252	0xbda3c1e0	-0.07995963
253	0xbd63dd32	-0.05563087
254	0xbc89027f	-0.016724823
255	0x3d95325b	0.07284995

policy.2.bias f4 [64]
0	0xbbc8dc83	-0.0061298027
1	0x3d65f2be	0.0561397
2	0xbc6e3f3a	-0.014541442
3	0x3e582dd0	0.21111226
4	0xbd130ead	-0.035902668
5	0x3cd3a34f	0.025834708
6	0xbbd654b6	-0.00654086
7	0x3e512282	0.2042332
8	0x3dd9eeb6	0.106412336
9	0x3e1de094	0.15417701
10	0x3d579b00	0.052638054
11	0x3ddbf750	0.107405305
12	0xbda04ec8	-0.07827526
13	0x3db67d87	0.08910661
14	0x3e06bd96	0.13158259
15	0xbe3c2403	-0.18373112
16	0x3e31c2fb	0.17359535
17	0x3d9e9c15	0.07744614
18	0xbde16302	-0.11005212
19	0x3a044221	0.00050452544
20	0xbe214d14	-0.15752059
21	0x3ecad7be	0.39617723
22	0x3cbe8b00	0.02325964
23	0xbe04a952	-0.12955216
24	0xbd7aefb5	-0.06126376
25	0x3e1df5c1	0.15425779
26	0x3d2283d0	0.039676487
27	0xb988d2a3	-0.00026096878
28	0x3e92a1f4	0.28639185
29	0xbde8a527	-0.11359625
30	0xbc60658a	-0.013696084
31	0xbdbf4f1a	-0.09341259
32	0x3e62ca0d	0.22147389
33	0xbe8521e0	-0.26002407
34	0x3ca125c6	0.019671332
35	0xbd4312dd	-0.04762541
36	0xbdc0e274	-0.094181925
37	0x3d245524	0.04012026
38	0x3db354f1	0.08756436
39	0xb9ecd5b7	-0.00045172658
40	0x3df00398	0.117194355
41	0x3e83eeff	0.25768277
42	0x3e094f43	0.13409142
43	0xbe232f07	-0.15935908
44	0xbd5ed9e5	-0.05440702
45	0x3d974c66	0.07387619
46	0xbe22441c	-0.15846294
47	0xbd4f9077	-0.05067488
48	0x3d9df80a	0.07713325
49	0x3cf141d4	0.029450335
50	0x3e44bda6	0.1921297
51	0x3eb71318	0.35756755
52	0xbdb35b28	-0.08757621
53	0xbda817d1	-0.082076676
54	0x3c8d61da	0.017258573
55	0xbdc7d7b3	-0.09757938
56	0x3e245308	0.16047299
57	0xbe00674e	-0.12539408
58	0x3daeb433	0.08530464
59	0x3c712980	0.014719367
60	0xbd4197c9	-0.047263894
61	0xbdb8bd17	-0.09020441
62	0xbe0c30fd	-0.13690563
63	0x3e57f42b	0.21089236

policy.4.weight f4 [2, 64]
0	0xbd054d09	-0.03254417
1	0xbe55739d	-0.20844884
2	0x3d395ad0	0.04525262
3	0xbea1144a	-0.31460792
4	0xbd85ac62	-0.0652702
5	0xbbc1b11f	-0.005911007
6	0xbd84b817	-0.06480425
7	0x3dc4550d	0.09586535
8	0xbd547e21	-0.0518781
9	0x3e91f04b	0.2850364
10	0x3cbeac69	0.023275571
11	0xbe8bd769	-0.27312782
12	0xbcb842b6	-0.022492748
13	0x3d20a048	0.039215356
14	0x3d9a6e93	0.075406216
15	0xbe6809ac	-0.2265994
16	0xbca46cb9	-0.020071374
17	0x3e50e50f	0.20399879
18	0xbc8e1488	-0.017343774
19	0xbdadc329	-0.084844895
20	0xbd3aa0ae	-0.045563392
21	0xbf29cf0d	-0.6633156
22	0x3e905346	0.28188533
23	0xbcaf096f	-0.021366803
24	0xbdc3530c	-0.09537324
25	0x3e4ab3c8	0.19795144
26	0xbe90ee0d	-0.28306618
27	0xbd97ced5	-0.07412497
28	0x3e57ab47	0.21061431
29	0x3c496eb1	0.012294457
30	0x3cf09131	0.029366108
31	0x3dda6875	0.10664455
32	0xbe873b07	-0.26412222
33	0xbe9bb2a9	-0.30409744
34	0xbd098719	-0.033576105
35	0xbd98c204	-0.074588805
36	0xbdaa3049	-0.08309991
37	0xbd9e8dc3	-0.07741883
38	0xbe64874c	-0.22317237
39	0x3d82c18e	0.06384574
40	0x3e4483a9	0.1919085
41	0x3e64a9c6	0.22330388
42	0xbdf4d8bd	-0.11955402
43	0x3d31bf65	0.04339542
44	0xbd257a8c	-0.040400073
45	0x3debcf3d	0.11514137
46	0x3e2c942f	0.16853403
47	0x3c63743e	0.013882695
48	0xbe6e73bf	-0.23286341
49	0xbbd163b0	-0.0063900575
50	0x3e57c324	0.21070534
51	0xbed55b2f	-0.4167113
52	0xbc2ca042	-0.010536255
53	0x3d1b9e88	0.037992984
54	0xbe23a695	-0.15981515
55	0x3c9107b9	0.017703878
56	0x3e73e5d2	0.23818138
57	0xbdbd71bd	-0.092502095
58	0x3d8f5424	0.069984704
59	0xbdf55c2c	-0.11980471
60	0xbd94d809	-0.07267768
61	0x3cc4a9e2	0.024006788
62	0xbdd2a0a5	-0.10284547
63	0x3e55f99c	0.20896
64	0xbc650630	-0.013978526
65	0x3d78184d	0.06057005
66	0xbc23f860	-0.010007948
67	0x3eb7058b	0.35746416
68	0x3e208f52	0.15679672
69	0xbe5a766a	-0.21334234
70	0x3e0a3d29	0.13499893
71	0xbe4fce18	-0.20293462
72	0x3dcfd5ac	0.101481766
73	0xbdccd334	-0.10001221
74	0xbdb5946b	-0.08866199
75	0x3e33bd5c	0.17552704
76	0xbd9f90a1	-0.07791258
77	0xbd8cddf9	-0.068782754
78	0xbe218400	-0.1577301
79	0x3e0e179f	0.13876198
80	0x3e38644c	0.1800701
81	0xbe13f055	-0.14447148
82	0xbd6c7268	-0.057726294
83	0x3cc5d68c	0.024150155
84	0x3e27328d	0.16327877
85	0x3f309750	0.68980885
86	0xbdeec632	-0.116588965
87	0x3e31636b	0.17323081
88	0x3e4792e1	0.19489624
89	0xbd9ce299	-0.076604076
90	0x3e445439	0.19172753
91	0xbd93361a	-0.071880534
92	0xbe8366ea	-0.25664455
93	0xbd5e0f6e	-0.054213934
94	0x3cfe1743	0.031016951
95	0x3cb5c070	0.022186488
96	0x3e2bb39d	0.16767736
97	0x3e161b7d	0.14658923
98	0x3d83da6b	0.06438144
99	0x3ba6873b	0.0050820387
100	0x3e0c38de	0.13693568
101	0x3b569254	0.0032741027
102	0x3e7ee355	0.24891408
103	0x3da1ea4d	0.079060175
104	0xbe10cb0b	-0.14139955
105	0xbe832055	-0.25610605
106	0x3e6cda7a	0.23130217
107	0xbdadc6e9	-0.08485205
108	0x3cffbd3e	0.031218167
109	0x3c187e14	0.009307403
110	0xbd8847b0	-0.06654298
111	0x3aed9591	0.0018126239
112	0x3e4d4c60	0.20048666
113	0xbe1074d1	-0.14107062
114	0xbe1a1ad7	-0.15049301
115	0x3edcac28	0.43100095
116	0xbd8ea6c5	-0.069654025
117	0x3da410bd	0.08011005
118	0x3e05b0b6	0.13055691
119	0xbd2f4a0f	-0.042795237
120	0xbd46e1b5	-0.048555095
121	0x3cfa1c10	0.03053096
122	0xbe3168e3	-0.17325167
123	0x3dc31f06	0.095274016
124	0x3b61c760	0.0034451112
125	0x3c4ebc1d	0.012618092
126	0x3e3b2a73	0.18277912
127	0xbe10e008	-0.14147961

policy.4.bias f4 [2]
0	0x3ee43b7f	0.44576642
1	0xbea50513	-0.32230434
