params/old_policy_net.pkl (torch_old, 39218 bytes, 6 tensors)

policy.0.weight f4 [128, 8]
000000 3f 31 83 3e 6c b4 ad be a6 c0 a3 3d 9e 4c 49 3e
       0.2562351 -0.33926713 0.07995729 0.19658133
000010 c3 b7 8b 3d a6 4c 54 be ab e0 a5 be cc 68 53 be
       0.06822159 -0.20732364 -0.3239797 -0.20645446
000020 04 50 6e be d3 77 b5 3e 6c 5f 27 3e 28 3c 8f 3e
       -0.23272711 0.3544298 0.16344994 0.27975583
000030 88 2c 17 be 4b 58 46 3e b6 5b a4 be 62 6d b5 be
       -0.14763081 0.19369619 -0.3210122 -0.35435015
000040 f2 90 40 3d fa 5b 30 be a8 dc 84 be 63 fc a1 3e
       0.04701323 -0.17222586 -0.25949597 0.31637868
000050 7d 86 9f 3e 51 22 27 be 42 21 54 be 1c 8d 1d bc
       0.31157294 -0.16321684 -0.20715812 -0.009616163
000060 6e 89 6c 3d 48 55 92 be c4 13 9e 3e 6d 75 a2 3d
       0.05774825 -0.2858069 0.30874455 0.079325534
000070 30 83 02 be 2b 69 1f be 7f aa 39 3d ed dc d8 bd
       -0.12745357 -0.15567462 0.045328613 -0.10589013
000080 f6 3c 82 be ed 20 81 be be fa 92 3e e5 f0 81 3e
       -0.25437135 -0.25220433 0.28706926 0.253791
000090 f6 8d af 3d 1f 53 75 bd 3b a6 21 3e 51 c8 b0 3e
       0.08571999 -0.059893724 0.15786068 0.3452783
0000a0 e6 e3 8d 3e 65 55 b3 be 5f e7 98 3e 77 a0 5d be
       0.27712935 -0.35026088 0.29864022 -0.21643244
0000b0 6d 0d 03 3e 57 93 80 bd e3 0c 12 3e 1e 1e aa 3e
       0.1279809 -0.06278103 0.14262728 0.33226103
0000c0 81 c3 33 be 3f 4a 2f 3e ae e9 6b 3e 44 eb 94 be
       -0.17555048 0.17118166 0.2303836 -0.29085743
0000d0 03 5f c4 3d e3 e6 29 be 88 cb a7 be fb 3b 34 3e
       0.095884345 -0.16591983 -0.3277247 0.17601006
0000e0 a9 40 85 be 4d 34 8c 3d 5f cb 26 be 59 03 70 be
       -0.26025894 0.06845913 -0.16288517 -0.23438777
0000f0 e3 fb 76 be fb 08 c7 3d c4 5d f3 3d fc c7 21 3e
       -0.24119525 0.0971851 0.11883119 0.15798944
000100 49 ad 5d be 72 be 79 be 5f 4c a1 be 60 82 2a 3e
       -0.21648134 -0.24389055 -0.3150358 0.16651297
000110 fc 72 ae 3e 9d af e2 bd ac 81 83 be d4 b1 aa 3e
       0.340721 -0.11068652 -0.2568487 0.33338797
000120 ab 09 48 3e 16 62 51 3d 6e 98 84 3d c1 4f 4f be
       0.19534938 0.051118933 0.06474386 -0.20245267
000130 5f 3d b4 3e 53 e3 58 3e ca f9 9d 3e 1e 83 25 be
       0.35203072 0.21180467 0.30854636 -0.16163298
000140 87 75 b1 3e e8 b0 1e 3e de 71 7c 3e e1 ff ad be
       0.3465998 0.15497172 0.24652812 -0.33984283
000150 2a f8 a4 3e e9 95 cd bc 2d dd 24 3e f9 5a 7d 3d
       0.32220584 -0.025095897 0.16099997 0.061854336
000160 fd 05 8e 3e fd 76 a1 3c e0 85 82 be 05 ad 88 3e
       0.27738944 0.019710058 -0.25492764 0.26694503
000170 31 b6 fc bc 41 0c 68 3e 8a 3f 70 be 98 20 a8 bd
       -0.030848594 0.22660924 -0.23461738 -0.08209342
000180 f3 78 2a 3e 24 e1 3c bd 9c 2b 80 3e 47 1f 2c 3e
       0.16647701 -0.04611315 0.2503327 0.16808806
000190 2e 9b d8 bd 62 2b e6 bd b6 b7 89 be 01 46 47 be
       -0.10576473 -0.11238743 -0.26897973 -0.19460298
0001a0 c1 46 eb 3d 84 a3 62 be c3 8e 87 be 5b f1 34 3d
       0.114881046 -0.22132689 -0.26476106 0.044175487
0001b0 59 27 9e be 07 b8 8a 3e aa bf 94 be 57 99 64 be
       -0.30889395 0.27093527 -0.29052478 -0.2232412
0001c0 ac 28 af 3e ce 7c ea bd fd 74 73 3e b8 8e 4f 3e
       0.34210718 -0.11449586 0.23775096 0.20269287
0001d0 ed eb 25 3e 1a c0 81 be 6b d6 7f bd f7 4f 4c 3e
       0.1620328 -0.25341874 -0.062460344 0.19952379
0001e0 95 44 62 3e e9 be 48 be 8f 6b 9b be 59 30 8c 3e
       0.22096474 -0.19604076 -0.30355498 0.27380636
0001f0 6a 94 da 3d 7f 52 a6 be cc 19 0c be c5 63 da bc
       0.10672839 -0.32484815 -0.13681716 -0.026658902
000200 2f eb 99 be 5c e2 a4 3d 38 80 7f bd 35 2e 82 3e
       -0.30062243 0.08050987 -0.06237814 0.25425878
000210 41 4d 2a be 80 cd 05 bb c8 53 0d 3e d7 14 87 be
       -0.16631033 -0.0020416677 0.13801491 -0.26383087
000220 33 32 a2 3e a0 de 83 3e a3 11 3d be 85 86 10 3e
       0.31678924 0.25755787 -0.18463759 0.14113815
000230 04 c3 37 be 6f 24 3e be 8f 6f 3c 3e 44 c1 87 be
       -0.17945486 -0.18568586 0.18401931 -0.26514637
000240 15 18 ad be 2b a0 8f be 8a 89 96 be 94 4a 95 bd
       -0.33807436 -0.28051886 -0.2940181 -0.07289615
000250 59 2f 04 3e 76 b0 6c 3d 23 28 42 bd 5b 32 40 be
       0.12908687 0.057785474 -0.04740156 -0.18769209
000260 ac bf 18 be 2e d0 aa 3d cb 73 81 3e d3 d7 35 3e
       -0.14916867 0.083404884 0.25283656 0.17758112
000270 74 94 72 bd 3a dc d8 3d 90 b7 cf 3d 8b d7 c0 be
       -0.059223607 0.1058888 0.10142434 -0.37664446
000280 56 33 18 3d 15 e5 00 3e df 91 32 be 2e c0 53 be
       0.037158333 0.12587388 -0.17438458 -0.2067878
000290 45 c3 b3 be 2c a5 31 bd c8 3f d3 3d 6c b7 5a be
       -0.35109916 -0.04337041 0.103149 -0.21359032
0002a0 f4 9e 43 3e 3b 09 6d be bc e3 a3 bd 44 40 c2 3e
       0.19103605 -0.23148052 -0.08002421 0.37939656
0002b0 ae aa d4 3c e9 20 81 be dc 11 53 bd 64 75 4d 3e
       0.025960293 -0.2522042 -0.051530704 0.20064312
0002c0 f4 8c 98 3e 0c de b3 3e 28 91 e9 bd 27 49 75 be
       0.2979504 0.35130346 -0.114046395 -0.23953687
0002d0 9c 2d c5 3d 69 68 0d bc 9d 13 93 bc a0 a6 6d 3e
       0.0962784 -0.00863085 -0.017953688 0.23208094
0002e0 32 7d 3f 3e e9 e0 af be f6 a4 41 be 58 63 8b be
       0.18700102 -0.3435128 -0.18910584 -0.2722423
0002f0 cc 9c 85 3e 5e 1e 77 be 19 6b 82 3e da 6f f5 bd
       0.2609619 -0.24132678 0.25472334 -0.119842246
000300 68 94 4d 3e 7c 30 ce 3d 45 ac b1 3e c4 4a 6d be
       0.20076144 0.100678414 0.34701744 -0.23173052
000310 a0 30 80 be be 03 1b 3e eb 39 cd bb b0 6f 7a be
       -0.25037098 0.15138146 -0.006263008 -0.24456668
000320 d4 ba 41 3e a7 a5 6b be 18 23 90 bd dc 7a 2f 3e
       0.18918926 -0.2301241 -0.070379436 0.17136711
000330 59 af 0e 3e f0 47 2b 3e 8b 3f ab be ea 6d b3 bd
       0.13934077 0.1672666 -0.33446917 -0.08761199
000340 ad 1e 1c be 04 b4 0a be 22 0a a1 3e 8f 68 46 be
       -0.15246077 -0.13545233 0.31453043 -0.19375823
000350 6d e3 b2 be 7a 22 08 be f4 1c 30 be 8b d5 2b be
       -0.34939137 -0.13294402 -0.17198545 -0.16780679
000360 4f c6 57 be 0d 51 8c 3d 8c 50 a6 be ed c8 18 be
       -0.21071742 0.06851397 -0.32483327 -0.14920397
000370 6f c8 39 be 31 a0 03 be 9e c5 2e 3e a0 40 50 3e
       -0.18142866 -0.12854077 0.17067572 0.20337152
000380 1d d0 01 be f2 dd 1c 3e 8a 27 06 3e 2b c2 17 be
       -0.12677045 0.1531904 0.1310102 -0.14820163
000390 64 f7 e6 bd f3 04 1d bc df 26 80 be e2 f5 2d be
       -0.11277655 -0.0095836995 -0.25029656 -0.16988328
0003a0 7f d3 a8 3d cb 58 3b be 61 65 3f be af 22 20 bd
       0.08243465 -0.1829559 -0.18691017 -0.039095577
0003b0 50 77 a0 3e 89 db 55 be eb 1c 9d be 8c 9a 63 bd
       0.31341028 -0.20884527 -0.30686125 -0.05556731
0003c0 2f 3d 16 be e3 8b 68 3e 58 8a bb bd 48 4f 9c 3d
       -0.14671777 0.22709613 -0.09157246 0.07632309
0003d0 cd 48 a9 bd 11 d5 ff 3d b1 59 37 3e 0d ac c2 be
       -0.08265839 0.12491811 0.17905308 -0.3802189
0003e0 fe b0 ae be db 3c 20 3e 29 76 b7 3d 4f 5b b1 be
       -0.3411941 0.15648215 0.08958084 -0.34639975
0003f0 ce b3 b1 3e 06 b1 07 3e 06 71 71 3e 2b 1f 41 be
       0.34707493 0.13251123 0.23578271 -0.18859546

policy.0.bias f4 [128]
000000 00 fa 83 be 77 8e 10 3e 6a 9c 97 be 89 4f be bc
       -0.25776672 0.14116846 -0.29611522 -0.023231285
000010 f7 72 ae bc 3a 1d cd bc 52 f0 58 3c 78 3b 49 bd
       -0.021295054 -0.02503835 0.013240891 -0.04912898
000020 17 81 c6 bd 16 3b 2d bc 14 bf 2e bd d2 7f 9b be
       -0.09692591 -0.010573169 -0.042662695 -0.30370957
000030 f9 1f 40 3e 47 df 48 3c 22 59 0e 3e ea b0 0e 3e
       0.18762197 0.012260265 0.13901189 0.13934675
000040 42 86 a3 be 85 fc 7e bc 98 32 2b bd 06 3c 72 3e
       -0.31938368 -0.015563135 -0.041796297 0.2365571
000050 d7 8d 2b be e2 b6 cb 3e 6c f6 e7 3d 92 62 cf bd
       -0.16753326 0.39787966 0.11326298 -0.10126223
000060 1a 07 0e 3e 66 f9 0b be c1 52 58 3e 7b fe 87 bc
       0.13869897 -0.13669357 0.21125318 -0.016600838
000070 7d 53 df 3d 96 3a 80 be 5b c3 7c 3e 4a 31 9e 3e
       0.10904596 -0.25044698 0.24683897 0.3089698
000080 8e f3 2c be 4c a3 44 bd 56 f2 4b bc 8e 26 71 be
       -0.16889784 -0.048007295 -0.012447914 -0.23549864
000090 c6 65 0c bd 34 b2 c4 bc 85 56 eb bd cb 54 6a 3e
       -0.034276746 -0.024010755 -0.11491112 0.22883908
0000a0 d5 1b 7b be 76 e5 f1 bd dd ae 98 be ae 95 c0 3d
       -0.24522336 -0.11811344 -0.2982091 0.09403549
0000b0 d1 c6 cc bc ff 06 7b be 98 51 a3 3d 0c 51 bf 3e
       -0.024997147 -0.24514388 0.07974547 0.3736652
0000c0 8a 99 46 bd f0 6c b4 be 03 a9 ac 3d 0d c2 3b be
       -0.04848627 -0.35239363 0.08430674 -0.18335743
0000d0 8b 47 d9 bd 93 43 c6 bc 2b 78 9b 3e d0 03 8c be
       -0.10609349 -0.024202144 0.30365118 -0.2734666
0000e0 9d 0f 91 be bd 44 9e 3e a3 7e 70 3e 94 02 a4 3e
       -0.28332224 0.30911818 0.23485808 0.32033217
0000f0 a3 8d 01 3e 27 32 2d 3e cc 9f 85 bd 3b e9 9c 3d
       0.12651686 0.16913663 -0.065246195 0.07661673
000100 f4 e6 d4 3c 92 a6 14 be 36 18 95 bc 66 b9 9d bd
       0.025989033 -0.14516667 -0.018200021 -0.077013776
000110 eb c7 3f 3e cc 9a c2 bd 29 71 a8 be 37 28 3c 3e
       0.18728606 -0.095021814 -0.32898834 0.18374716
000120 8e ba ae 3e c3 ba 95 bc 6c 48 02 be db be aa be
       0.34126705 -0.018277531 -0.12722939 -0.33348736
000130 8d 23 2f 3e 9b 5d 5e be da 50 3b 3d 09 fc ae be
       0.17103405 -0.21715395 0.045731403 -0.34176663
000140 97 f1 7b 3e 6d b4 aa 3e bf af 86 be cd e9 37 be
       0.24603878 0.3334078 -0.2630596 -0.17960282
000150 b6 94 ab be ea d1 06 3e 76 0d be 3e e7 d0 04 be
       -0.33511895 0.13166013 0.37119645 -0.12970315
000160 bb 80 13 3e 40 3b ee 3d 35 a2 2e 3e ef 69 95 be
       0.14404576 0.11632395 0.17054065 -0.29182383
000170 f4 58 87 3e e8 6b bf 3e 8a ce 5b 3e aa 82 80 be
       0.26435053 0.37387013 0.21465507 -0.2509969
000180 2a e7 7e 3e f9 55 31 3e 0f d7 53 3e 1c 3f ed 3d
       0.2489287 0.17317952 0.20687507 0.11584303
000190 82 8d 5c 3e f2 af 2e be 10 e1 92 be 30 d8 4f ba
       0.21538356 -0.17059305 -0.28687334 -0.0007928638
0001a0 fa 96 17 3b cd e7 98 3e 13 2b 9d bc ef 27 70 3d
       0.002313076 0.2986435 -0.019185578 0.058631834
0001b0 b9 20 95 be 85 da 4b be ae 2d 59 3d 00 c1 7b be
       -0.29126528 -0.19907577 0.05302208 -0.24585342
0001c0 11 99 78 3e eb 70 95 3d 1d 6f 6f be 31 d0 3e 3e
       0.2427714 0.07296928 -0.2338223 0.18634106
0001d0 ba 4b 93 3e 63 33 20 be 60 e8 9c be d2 6d 59 bc
       0.28768712 -0.15644602 -0.30646038 -0.013270812
0001e0 01 51 a6 3d 1c 33 4b be d2 01 84 3e 15 20 23 3e
       0.08120919 -0.19843715 0.2578264 0.15930207
0001f0 05 cc 91 be c0 49 21 3c f4 db 88 be 2a f1 48 be
       -0.28475967 0.0098442435 -0.2673031 -0.19623247

policy.2.weight f4 [64, 128]
000000 d4 f2 97 3d 45 d8 d6 3d d8 21 a5 bd 7f 50 a1 3d
       0.07419363 0.10490469 -0.08063096 0.078766815
000010 d8 e6 ab 3d 49 8f cf bc e4 e2 86 3d 40 7e 97 3d
       0.08393639 -0.025336878 0.06586245 0.07397127
000020 7a 07 fc bc 91 5e 97 3d 6b be 0e bc 0a d6 5e bd
       -0.030765284 0.07391084 -0.008712391 -0.054403342
000030 e1 5f ac 3d 15 a7 1a 3d 77 f8 1a bd cd 94 26 bd
       0.08416725 0.037756998 -0.03783461 -0.04066925
000040 b3 55 8f bd 3e 1c 23 3d 1f f8 09 bd 92 5d c2 3d
       -0.06998768 0.039821856 -0.033683892 0.09490503
000050 5a 95 7e bd e7 f7 19 3c 0a df bd 3d 0a 52 1c bd
       -0.06215415 0.009397483 0.09271057 -0.038164176
000060 42 f3 5d 3d e8 eb 9d bc db 2f ba bb 71 85 81 bd
       0.054187067 -0.019277528 -0.0056819743 -0.0632428
000070 e3 33 91 bc ea ad 10 3d 0b dc 47 bd 91 c0 27 3d
       -0.017724937 0.035322107 -0.048793834 0.04095513
000080 d7 13 99 bd d5 33 9f bb 81 db a7 bd ee 0b 9b 3d
       -0.07474487 -0.004858474 -0.08196164 0.07570635
000090 02 dc ff 3c e5 34 43 3c eb ba 80 bd 96 b1 e8 3d
       0.031232838 0.0119144665 -0.06285652 0.11361997
0000a0 3c e4 25 3b 51 dc ae bd 30 f0 48 3c 1b e1 79 3d
       0.002531304 -0.08538116 0.012264296 0.061005693
0000b0 b2 c5 67 bd 71 d6 d7 3b 69 35 15 3b 49 9a 7a bc
       -0.05658502 0.0065868427 0.002276743 -0.0152955735
0000c0 8f c9 79 3d 5a 2d a3 bd 52 c6 34 3d 21 d0 3e 3d
       0.060983237 -0.079676345 0.044134445 0.046585206
0000d0 84 b7 2e bd b8 1b 8f bc b5 6b 46 bd e8 c8 12 bd
       -0.042655483 -0.017469272 -0.04844256 -0.03583613
0000e0 9d 8c 76 bc 18 8d 95 3d dc a7 86 3c a4 68 90 bd
       -0.015048173 0.07302302 0.016437463 -0.070512086
0000f0 b2 ac a2 bd 91 f5 29 bc 23 70 22 bd 54 35 4f 3d
       -0.07943095 -0.010373489 -0.039657723 0.050587967
000100 fa 01 c5 bc 9a 48 cb 3c 42 b1 54 bd 58 0e 60 bc
       -0.024048794 0.024814893 -0.05192686 -0.013675295
000110 98 3e da bc 8f 26 3c 3d 38 eb 98 bd 57 57 b3 3d
       -0.026641175 0.04593521 -0.074667394 0.08756893
000120 60 8b 93 bc 98 5f 4d bd 32 8f 65 bc e4 7f 84 bd
       -0.018010795 -0.050139993 -0.014011191 -0.06469706
000130 07 52 9a 3d 78 d5 5b 3b 9a 87 fb bc 58 f1 3b 3c
       0.07535177 0.0033543985 -0.030704308 0.011471115
000140 a6 ac 12 3e 17 1a 28 bd 95 8b 72 3d ec ed aa bd
       0.14323673 -0.041040506 0.059215147 -0.08346161
000150 7f e7 a5 bd 80 ed e1 3d b8 6a d1 bc d1 ae 42 bd
       -0.08100795 0.11031628 -0.025563583 -0.04753
000160 d8 1f b1 bd c2 b6 0b 3a 1f a4 bd ba c7 66 38 bd
       -0.08648652 0.0005329662 -0.0014468468 -0.04501989
000170 0f 3c 49 bd 36 c7 4e 3d 4a 74 ce bc 0e 9f 52 3d
       -0.049129542 0.05048295 -0.025201935 0.051421218
000180 a8 98 d1 bc 4f ab 8d 3d 32 a0 a7 3d 09 b1 d7 3d
       -0.025585487 0.0691744 0.08184852 0.10531814
000190 53 bc 7b bd d1 b4 d4 bc 7c e1 3a bd 0a d0 ec 3c
       -0.061458897 -0.025965126 -0.045625195 0.028907795
0001a0 0b 6b a0 3d e3 62 b4 bd 49 89 76 bc 06 62 ac ba
       0.07832917 -0.08807924 -0.01504738 -0.0013151772
0001b0 92 b7 84 3d a1 18 8c bd 7a fd 60 bc 8d 00 3b bd
       0.06480326 -0.06840635 -0.0137323085 -0.045654822
0001c0 d0 6a 56 bd 21 fd db 3c 60 f6 78 bd 2c 04 22 3d
       -0.052347958 0.0268541 -0.060781837 0.03955476
0001d0 91 63 89 bd 57 2a 28 bd 41 91 3e bd 03 5f 42 3c
       -0.06708444 -0.041056003 -0.046525244 0.011863473
0001e0 90 83 c5 3a a6 33 a1 3d 8b d7 a3 bd 3e 29 b6 3d
       0.0015069116 0.07871179 -0.08000096 0.08894585
0001f0 d6 a6 8a bd a0 23 d7 3c 23 dd 9c 3a 96 34 3d 3d
       -0.06770103 0.026262105 0.0011967759 0.046192728
000200 84 98 bf bc 09 43 1b bd ee c8 9c bd cd b0 81 3d
       -0.023388155 -0.037905727 -0.07655512 0.0633255
000210 21 2d a9 bd af 83 2d 3d 16 d5 9e 3d 05 78 94 bd
       -0.08260561 0.04236191 0.07755487 -0.072494544
000220 e4 67 cf 3b ba d5 5b bd b8 d5 c3 3c 9f ff b1 3d
       0.0063295234 -0.053670622 0.02390562 0.08691334
000230 0d d7 67 bd 03 29 a2 3d 23 8b b0 bb 2f b3 89 bd
       -0.056601573 0.079179786 -0.00538768 -0.0672363
000240 68 63 15 bd 2c cf 2c bd 83 a1 2b bd 48 c4 88 bd
       -0.036471754 -0.042189762 -0.041902076 -0.06678063
000250 0f b1 97 bd 53 81 83 bd 1d e1 4c bd 4d 1a 51 bc
       -0.07406818 -0.06421151 -0.050019372 -0.012762618
000260 a5 f0 9d bc 7a 20 d7 bc 27 9c a9 3d 68 93 e7 bc
       -0.019279787 -0.026260603 0.08281737 -0.028268531
000270 2c e8 af bc f2 c9 96 3d 3c ae 2c 3d 47 18 65 3d
       -0.021473013 0.07362737 0.04215835 0.055931356
000280 a0 7f 5e 3d c5 f4 93 bd b9 05 1c 3c 4c 40 6f 3d
       0.05432093 -0.072244205 0.009522849 0.058410928
000290 cc 55 e8 3c ab b7 f0 3c 86 c7 9b 3d a7 c0 e6 3c
       0.028361224 0.029384455 0.076064155 0.028168036
0002a0 18 cd 82 3d f0 eb 8f 3d c0 e5 12 bd 72 18 1c 3d
       0.06386775 0.070274234 -0.035863638 0.03810925
0002b0 f8 27 b4 3c 3d bb 8c 3c 2a 7e a5 bd d3 98 7d 3d
       0.021991715 0.017179126 -0.080807045 0.061913323
0002c0 17 b3 e0 3c 5a d1 4f bd 15 47 74 3d 63 d7 8d 3d
       0.027429147 -0.050736763 0.0596381 0.069258474
0002d0 45 e9 5d 3d 76 cb 0e 3d cb f8 c4 3b 8d f4 3d 3d
       0.05417754 0.034862004 0.0060111037 0.0463758
0002e0 fd 65 a1 3a ee 92 5f 3d 1a 33 70 bd 8f 09 0f bc
       0.001231372 0.054583482 -0.058642484 -0.008730306
0002f0 e1 f3 80 bd 72 8a 6a 3d 02 8a 91 bc 19 16 b4 3c
       -0.06296516 0.057260938 -0.017766003 0.021983193
000300 f0 1b a6 3d bd a4 ad bd 62 6c 49 3d 29 37 11 bd
       0.081107974 -0.08478687 0.049175628 -0.035452995
000310 fc 09 8e bc bd 58 a4 bc e1 fa 90 bd 01 b7 19 3d
       -0.017338745 -0.020061845 -0.07079101 0.03752804
000320 c8 97 0b 3d 85 c8 1b bc 33 d5 29 3d 4a a4 31 3d
       0.034080297 -0.009508257 0.04146309 0.04336957
000330 ac 92 76 bd 8a 54 78 bc d5 a1 38 bd ce 2f 22 3d
       -0.06019847 -0.015156874 -0.04507621 0.03959637
000340 b0 de 3f 3d f0 c4 83 bd 94 96 95 3c 9b e7 1f 3d
       0.04684323 -0.06434047 0.018260278 0.039039236
000350 1c 20 93 bd 00 63 9d bd 3c af 41 bb d2 a2 06 bd
       -0.07183859 -0.076848984 -0.002955391 -0.03287012
000360 d8 cf cc 3c 7f ac 22 3d 49 4e a6 bd 71 f9 12 3d
       0.025001451 0.039715286 -0.081204005 0.035882417
000370 43 91 9b bd 8f f4 5d 3b 0b 2b b9 3d 3f 89 a0 3d
       -0.07596066 0.0033867692 0.09041413 0.078386776
000380 f0 e4 75 bd 0d d2 e9 bc 9a 4b a4 3d df 8f 6d bd
       -0.060032785 -0.028542543 0.08022232 -0.057998534
000390 23 4d 8a 3d 38 f3 bc 3a 51 2c 81 bc c2 53 b1 bc
       0.06752994 0.0014415747 -0.015768202 -0.021646384
0003a0 e4 27 31 3b 8d e8 ba bd 55 48 ce 3c fd 43 a0 3d
       0.0027031833 -0.09126387 0.025180975 0.07825468
0003b0 a4 e1 b1 bb cd b4 92 bd b2 51 04 3d 59 3c 90 3d
       -0.00542851 -0.07163391 0.032304473 0.070427604
0003c0 c6 88 8b 3b b0 9f b3 3c ae 06 43 3d c9 58 87 ba
       0.004258248 0.02192673 0.047613792 -0.0010326143
0003d0 47 8d 1c 3d d7 d3 88 3d bb 84 71 3d 42 ec 4e bc
       0.03822067 0.0668103 0.058964472 -0.01262957
0003e0 3d cc e7 3b ea 60 4e 3c d7 e0 74 3d 82 02 2e bd
       0.0070739076 0.012596348 0.059784736 -0.04248286
0003f0 0d 27 49 bd d4 fb 8f bd 17 01 a5 bc 9f d9 91 3d
       -0.049109507 -0.07030454 -0.020142121 0.07121586

policy.2.bias f4 [64]
000000 68 0c 24 3d 30 3d 18 3d 28 8c 0e 3d c7 54 c0 3d
       0.040050894 0.037167728 0.034801632 0.0939117
000010 41 47 52 bc 99 c3 a8 bc c3 e3 95 3d 34 2c 27 bd
       -0.012834371 -0.02060108 0.07318833 -0.04081364
000020 56 24 49 3d 58 a9 aa bc 40 7a 1f 3d 27 05 a5 3d
       0.04910692 -0.020832703 0.038934946 0.08057623
000030 67 5d 37 bd 92 ba 25 bc 96 d3 97 bc 55 12 e6 3d
       -0.04476681 -0.010115283 -0.01853351 0.11233965
000040 58 19 19 bd a1 ee 7a 3d bf 62 e8 3c 58 18 36 bd
       -0.037377685 0.06126273 0.028367398 -0.04445681
000050 00 3e 9e 3d 74 e3 90 bd 8f e9 7c 3c 1e aa 29 3d
       0.07726669 -0.07074633 0.015436544 0.041422002
000060 72 b1 a9 3d 54 dd 89 3d a8 8d 89 3d 66 ea b2 bd
       0.08285798 0.06731668 0.06716472 -0.08736114
000070 d0 df 62 3c 80 d7 69 3d af fa 06 3e d7 f4 09 3d
       0.013847306 0.057090282 0.13181566 0.033680763
000080 78 55 eb bc 71 4e eb 3d 0b f1 b1 bd 42 a1 26 3d
       -0.028727278 0.11489571 -0.086885534 0.04068113
000090 bb f7 84 bc 9f b4 2e 3e 01 f3 24 3d 58 1d 91 3c
       -0.016231408 0.17061089 0.04027081 0.017714188
0000a0 bd d3 7b bd 8d 94 08 3e 5b 59 59 bd 9a 2c f3 bc
       -0.061481226 0.13337918 -0.05306373 -0.029684354
0000b0 26 90 22 3e b2 b3 c0 3d d6 6b 29 3d ae 1b 79 3c
       0.15875301 0.09409274 0.041362606 0.015204353
0000c0 99 dd 5c bc ab 8c a0 3c 03 e2 9c bd 3f a8 3f bc
       -0.013480567 0.019598326 -0.07660296 -0.011697828
0000d0 47 b8 4c 3d 80 86 a5 3d 8a 80 a1 bc 96 d5 77 bc
       0.049980428 0.080822945 -0.019714613 -0.015126606
0000e0 a5 3f 92 3c 59 b1 9f 3d 96 e1 ad 3c 3c 78 cd 3d
       0.017852614 0.07797498 0.021225732 0.100326985
0000f0 d2 c9 6f bd a5 48 00 3c 90 da 69 3d e4 53 ea 3c
       -0.05854208 0.00782982 0.057093203 0.028604455

policy.4.weight f4 [2, 64]
000000 da 64 08 3e 64 f7 b2 3d 85 a1 fd 3d 2b 8d 18 3e
       0.13319722 0.08738592 0.12384323 0.14897601
000010 03 31 13 3d c2 a7 a7 bd bb 3d da 3d 34 e7 1c bd
       0.035935413 -0.08186294 0.106563054 -0.03830643
000020 bd 33 74 bd 9a 6b 1a be fa 6f 74 bd 90 92 af 3d
       -0.059619654 -0.15080109 -0.0596771 0.085728765
000030 d4 1d 72 bb 91 78 24 3c f8 ef 5c bd a2 26 fe 3d
       -0.0036944048 0.010038511 -0.05393979 0.124097124
000040 df 58 2d 3e 61 13 85 bd 55 44 b8 bc c0 4a 25 bd
       0.16928433 -0.06497837 -0.02249352 -0.04035449
000050 9c 6f 15 be 82 59 7d 3d f0 a6 22 3b ce 44 58 3d
       -0.14593357 0.06185294 0.002481874 0.052799992
000060 63 6d 0f be c4 57 3c 3c 6a 22 a6 3e 08 35 2f bd
       -0.14006571 0.011495534 0.3244813 -0.042775184
000070 d4 49 79 bd 03 31 2c 3c f4 7a 7d be 7e 97 bf bb
       -0.060861424 0.010509732 -0.24753934 -0.0058469167
000080 85 cc 91 bd 61 bb 8c 3e 68 67 e5 3c e0 55 79 bd
       -0.07119087 0.2748671 0.02800341 -0.060872912
000090 74 37 1c 3c cc 30 ec be 92 15 a6 b9 ce 9b ed bc
       0.009534705 -0.4613098 -0.00031678058 -0.029004958
0000a0 1b 4a 14 3d 3f 79 2e be 1d 9a 8f bc 20 18 56 bd
       0.036203485 -0.17038439 -0.017529542 -0.0522691
0000b0 19 06 9a be 3b 51 64 be 40 cc 39 bb 0c b3 69 3d
       -0.30082777 -0.22296612 -0.0028350502 0.057055518
0000c0 47 da a0 3d 86 e6 1c bd 10 d2 fd bd 33 09 54 be
       0.07854133 -0.03830578 -0.12393582 -0.20706634
0000d0 7c 31 65 be 42 92 f3 3d 90 b1 fe 3d 33 30 e4 3d
       -0.22382158 0.11893131 0.12436211 0.11142006
0000e0 6f 58 32 bc 90 16 30 3d d0 27 c4 3d 0b f9 5f bd
       -0.010885342 0.042990267 0.09577906 -0.054680865
0000f0 5a 35 03 3d d1 05 ea 3c 3a a9 a1 bd 49 84 26 3e
       0.032033302 0.028567227 -0.078936055 0.162614
000100 ec f4 3b be 10 fa 8f bd 23 f6 2b bd 29 c4 76 be
       -0.18355149 -0.070301175 -0.04198278 -0.24098267
000110 b7 36 1b be 3c b3 8c 3d 2f 8d 9e 3d 8c 66 e2 bd
       -0.15157591 0.06870124 0.077417724 -0.110547155
000120 7d 2f ac bd ce 81 43 3d fc 31 13 3c 65 43 07 3c
       -0.08407495 0.047731213 0.008984085 0.008255814
000130 bf 75 8d bd 2c 5c 36 bd 80 a3 b7 bc c6 c0 01 be
       -0.06907224 -0.044521496 -0.02241683 -0.12671193
000140 4e b1 f5 bd 0e e7 be bd cf c4 8d 3d 77 c0 00 3e
       -0.11996709 -0.09321414 0.06922304 0.1257342
000150 4a ad 72 3b 81 9e 01 bd c7 27 93 bd d7 44 04 be
       0.0037029558 -0.0316453 -0.07185321 -0.12916885
000160 55 98 84 3e 85 a6 ba bb a9 fd a0 be e0 77 f1 3b
       0.2589747 -0.00569612 -0.31443527 0.0073690265
000170 a4 0e 80 3d 12 ae 21 bd 50 d3 77 3e c4 6f af 3d
       0.062527925 -0.039472647 0.24201703 0.085662395
000180 b6 12 51 3c e1 63 a1 be e4 42 21 3d f1 db f6 bc
       0.012760809 -0.31521514 0.039370432 -0.030134173
000190 12 85 7d bd 06 28 e2 3e 8c f2 8d bd 1f c9 aa 3d
       -0.061894484 0.4417116 -0.06931028 0.08339142
0001a0 8a d9 12 3e eb cb e0 3d 27 0d 8d 3d 49 bc b9 3d
       0.14340797 0.10976394 0.06887274 0.09069116
0001b0 49 c4 60 3e ff 9e 80 3d fc bd cd 3d 5b d1 55 be
       0.21949877 0.06280326 0.10046002 -0.20880644
0001c0 64 fb 05 3e cf 13 d6 bd 00 2d fe 3b 36 c1 67 3e
       0.13084179 -0.10452997 0.0077568293 0.22632298
0001d0 9d db 4e 3d 82 9c 6d 3d af 5c 8f 3c 87 24 83 bd
       0.05050241 0.058010586 0.01750025 -0.064034514
0001e0 a3 e0 f8 3d 1c 2e bd bd 50 82 d8 bd 39 70 f1 3d
       0.12152221 -0.0923731 -0.1057173 0.11788983
0001f0 3b 7f 90 bd bc 18 80 3d a1 b4 79 3d 90 dc 34 bd
       -0.07055517 0.06254718 0.060963277 -0.044155657

policy.4.bias f4 [2]
000000 fc 62 99 bd 24 78 03 bd
       -0.07489583 -0.032096997
