params/old_policy_net.pkl (torch_old, 39218 bytes, 6 tensors)

policy.0.weight f4 [128, 8]
00000000: b947 78be 9f16 93be f411 95be 9c1f ac3c
00000010: 20a8 97be 974c 2cbd 9f79 ae3e 0285 c03e
00000020: b9f5 39be 4a5c 95be 292f b0bd 7d27 e13d
00000030: 9b77 cd3c dd15 533d c7b7 02bd 7e0c 35be
00000040: 3f8a 93be d7bc 9abc 7963 0f3c 7ffe 983e
00000050: 8f78 80be fe76 543c f328 e03d 3baf f8bd
00000060: 00ba b23d dd87 803d 9adc 203e 421f e0bb
00000070: 6e22 eb3d 895b a3ba 5d29 703e 55f0 833d
00000080: 142e a5be f38c 0cbc 8077 4d3c 43f2 ae3e
00000090: f163 a1be 9020 873d d056 12bd b2cb 303e
000000a0: af00 e7bd 3baf 22be e046 a9be f694 b9be
000000b0: 319c 323e c885 11be 7d8f 98be ab4a 28be
000000c0: de87 7f3c 7d5c 46be 497f 023e a27a aabd
000000d0: c9d6 6f3e 175d 963e 66b7 9e3d 4273 d23c
000000e0: 9b3e 39bc 852d ffbd ddd7 b6be 5ad6 84bb
000000f0: 1e0c b13e 4a60 9ebe 1913 52bd d9d3 1cbe
00000100: 35ac 84be 4410 4d3e 84d5 b8bd b613 393d
00000110: 71c7 a33e d8df 36be bd65 93be b9d8 b23e
00000120: cf3d 54bc 32c3 84be b089 9b3e 999b 71be
00000130: 2c54 a7bd 2340 dcbc dabc f1bd 128e 54bd
00000140: a9d9 913e 3d8a 853d 3436 61bd 16b4 4dbe
00000150: 43fd 223e b405 5a3e bd85 c0bd b83d c7bd
00000160: 5b63 04be 8b74 753e fad3 debd c4dd c3be
00000170: 66e1 8f3d 191f 95be e665 45be 5ddf 61be
00000180: 38c7 a33e 0c79 b0be f56e 4a3e 5f8b 97bb
00000190: 3393 09bd 494f 96be 20f6 023e c5f6 ad3d
000001a0: 561b f5bc affe 63bd 8f8d 883e ca87 ac3b
000001b0: 9eb3 aabe 2526 633e 3d94 a33e fbef b9bd
000001c0: 8f0b 43be 5c15 55bd d6d8 b83e 56d8 b83e
000001d0: 65d7 2d3e ba87 743e cb10 b93e 1126 063d
000001e0: 8ca3 45be 0a58 edbd 1dd6 0abe 96a4 98ba
000001f0: c78c 8e3e 111c 913e 8ae1 ab3e a05a 0dbe
00000200: 3819 09be 44b8 b33e 4746 fd3d f5aa e3ba
00000210: 21f7 7fbe a26e 9f3e 1f59 5abe 4668 6b3d
00000220: 0f08 5f3e 5bce bb3d faec fe3d 230e 75be
00000230: e12d 783e 8e0c 973d 9f62 58be eeee 7d3e
00000240: faf9 a23e bc68 5f3e 4175 1c3e 19a6 7e3d
00000250: fc44 c43c b625 e73d 4c7e 8bbe e717 9ebe
00000260: f169 5abd cd34 f33d c82b 0dbe ff11 0abe
00000270: c8cb 94bd 2de1 153e f5e2 14be 7dbf fd3c
00000280: 2968 68be 9d67 843e 1c9b 4dbe 6462 813e
00000290: 2935 a43e f5bd b43e 2d88 a2be 86df e9bd
000002a0: 9adf 693d 4abd 0c3c 5aad 5fbe 5026 afbe
000002b0: 0e76 7fbe d613 323e 001b 3bbe f81a bcbe
000002c0: e44f 1b3e 4897 83be d938 463d e325 5dbe
000002d0: dcf7 96be f203 9e3e 807a e73d 4e70 01bd
000002e0: 767f 47be 01c7 51be 9b48 b4be 5bad 4e3e
000002f0: 1efc ddbd 03a0 e6bc 819c 9bbe f2e1 163c
00000300: 7edc e93d 885a 95be 1bae 8ebe 1f23 8cbe
00000310: 2db2 1fbc 4f70 4d3e 204a a73c 3652 813e
00000320: 0f3f a5bc 7e32 1fbd 30b9 003e a610 02be
00000330: c83b 08be 8b70 71be 33cc 0bbe 46a9 34be
00000340: 8b01 873e 06c0 a23e 5958 89be faa0 a1be
00000350: 14b5 09be 4045 93be e4cf ab3e 6d63 97ba
00000360: 820c 8abe b941 453e 3ded 273e 465e 093e
00000370: 7085 a6be d7e8 063e 0be3 b93b 59e2 263d
00000380: d4c8 9abe af51 57bd 4696 fbbc dbe0 393e
00000390: aa29 aabe 0c8a 97be d7fc 9e3e d367 f93c
000003a0: 97e6 8fbe 4488 a33e 80b4 3cbe 7109 7fbd
000003b0: 8d82 acbe 0690 933e 1d00 053e 15f6 8dbe
000003c0: 2f64 30be 8f46 08be 5a85 81be 700d 94be
000003d0: c6c7 553e 8160 20be ce20 07be 6ff1 763e
000003e0: 3349 aabe a968 fc3d 27ca c6bd 66a9 a23e
000003f0: 88fd 8e3d fd3d 8cbe a86a 25be cad0 b5be
-0.2424611 -0.28728196 -0.2911526 0.021011166 -0.29620457 -0.04206523 0.34077165 0.37601477
-0.18160142 -0.29171973 -0.08602745 0.1099386 0.025081446 0.051534522 -0.031913545 -0.17680547
-0.2881641 -0.018888874 0.0087517435 0.29881665 -0.2509198 0.012967823 0.109453104 -0.121427976
0.08726883 0.06275914 0.15709153 -0.0068396637 0.11481176 -0.0012463193 0.23453279 0.06442324
-0.32261717 -0.008578527 0.012540698 0.34169206 -0.31521562 0.06598008 -0.035727322 0.17265204
-0.11279427 -0.15887158 -0.33061886 -0.3624646 0.17442395 -0.1421119 -0.29796973 -0.16434734
0.015596358 -0.19371219 0.12743868 -0.083241716 0.23421778 0.29367897 0.07749824 0.025689725
-0.01130643 -0.12459854 -0.35711566 -0.004053873 0.34579557 -0.30932838 -0.051287744 -0.15315188
-0.25912634 0.20025736 -0.090251 0.045184813 0.319881 -0.17858827 -0.28788558 0.3493097
-0.012954189 -0.25930172 0.30378485 -0.23594512 -0.081703514 -0.026886052 -0.11803599 -0.0518933
0.28486374 0.065205075 -0.054983333 -0.20088229 0.15916924 0.21291238 -0.094005086 -0.09728569
-0.12928526 0.23970239 -0.10880275 -0.3825513 0.07025413 -0.29125288 -0.19277152 -0.22057863
0.3198793 -0.3446735 0.19768889 -0.0046247686 -0.033587646 -0.29357365 0.12789202 0.08494333
-0.029920261 -0.055662807 0.266705 0.0052652108 -0.33340162 0.2218252 0.31949034 -0.09078976
-0.19047378 -0.052022323 0.36102933 0.3610255 0.16976698 0.238799 0.36145625 0.032751147
-0.1930067 -0.11589058 -0.1355824 -0.001164573 0.2784178 0.28341725 0.3357051 -0.13804102
-0.13388526 0.3510152 0.1236692 -0.0017369675 -0.24996616 0.31139094 -0.2132306 0.05747249
0.21780418 0.091702186 0.124475434 -0.23931174 0.24236251 0.073754415 -0.21131371 0.24798176
0.31831342 0.21817297 0.15279104 0.06217012 0.023958676 0.1128649 -0.27244794 -0.3087761
-0.05332369 0.11875305 -0.13786232 -0.13483427 -0.07265431 0.14636679 -0.14539702 0.030975098
-0.22695984 0.258603 -0.20078701 0.2527038 0.32071808 0.35301176 -0.3174452 -0.11419587
0.05709801 0.008590052 -0.21843472 -0.34208918 -0.24947378 0.1739038 -0.18272018 -0.36739326
0.15167195 -0.25701356 0.048394058 -0.21596484 -0.29485977 0.30862385 0.11302662 -0.031601243
-0.19482216 -0.2048607 -0.35211644 0.20183317 -0.10839103 -0.028152471 -0.3039284 0.009209143
0.11419009 -0.29170632 -0.27867207 -0.27370545 -0.00974707 0.20062374 0.020421088 0.25258034
-0.02017167 -0.038866512 0.12570643 -0.12701663 -0.13304055 -0.23578088 -0.13652115 -0.17642698
0.26368365 0.31787127 -0.26825216 -0.31568128 -0.13447982 -0.2876377 0.33557045 -0.0011550017
-0.26962668 0.19263352 0.16399093 0.13414869 -0.3252368 0.13174759 0.0056728176 0.040743206
-0.30231345 -0.052568134 -0.030711304 0.18152182 -0.33234912 -0.2959751 0.31052276 0.030445015
-0.28105614 0.319399 -0.1842823 -0.062264863 -0.33693352 0.2882082 0.12988324 -0.27726808
-0.17225717 -0.13308166 -0.25297052 -0.28916502 0.20876989 -0.15661813 -0.13196108 0.24115537
-0.33258972 0.1232465 -0.09706526 0.31769866 0.06981951 -0.27391043 -0.16153967 -0.35510856

policy.0.bias f4 [128]
00000000: 11c8 853e e4c3 e3bd 8c23 9d3e 1035 98be
00000010: d19d 50be 5437 883e 3f3f 45be 6fa3 143e
00000020: efff 333b 2b3b 833d 8794 b13e b3dd 9e3e
00000030: 6937 b4bc 60b8 9dbc 1f9d a93e f668 33be
00000040: 2d8f a6be a920 a6be e090 593e a795 963e
00000050: f7d3 21be 88ea 263e d8e8 d13d a71e a43e
00000060: 7ccb 663d 17f2 b3be e9ae 93be a764 adbe
00000070: 6c0a d93d 5ef4 75bd 6d46 13bd 7c11 a53d
00000080: fc9b b83e 48d1 7e3e 777e bb3e 87d0 20be
00000090: 08cb 2abe 121e 3fbe 47a3 49be 7eee d13d
000000a0: f1ee 7dbd 7269 9abe 15e6 aebd 5190 02be
000000b0: a9a7 ffbd 0b57 6dbe a3eb a33e d811 01be
000000c0: 7df1 333d fa02 823e 2df7 933e eac3 2e3e
000000d0: 7fda e83d 19f0 6e3e a1f8 863e 4e13 a0be
000000e0: 630f 97bd afaa 9bbe 986f bf3d 095c c33c
000000f0: c7a0 4c3e 571b b13d d79a 213d 6c05 673e
00000100: b833 f23d 0986 88be 6dcb 973e 1280 b3be
00000110: 1ef4 893e 7e24 0a3e d0a0 463e 3a7f 8d3e
00000120: efa4 df3c cb80 a93e 45c1 b0be 5b31 b0be
00000130: 1303 1abd 0e24 a2bd 9130 8ebe 8316 1ebe
00000140: b3a1 20be 7146 2d3d fa50 b23e 8bf6 63be
00000150: 9f5f 75be d8ea f6bd 2d75 acbe da84 0a3e
00000160: 3a7d 063e 68aa 52bd 1602 90bb 59a6 8abe
00000170: da9a e6bd e05a c83c 9654 643d 7164 9fbe
00000180: 2d9b 973e 6ac9 a0be 86b5 94be 417e ac3e
00000190: b179 933e 1c56 853e f376 b23e bfea b43e
000001a0: 8f9a c5bd 8b29 92be 2091 253e 7227 b0be
000001b0: 9a35 ccbc d30b 97bc 021d bcbd 58c2 903c
000001c0: af1f 8bbd 59d4 3bbe 57dd 5fbc 5427 25be
000001d0: bf63 50be ea2e 143e 176b a73e 9a84 64bd
000001e0: 676b 503e ce2f c63e 98f5 bd3e ba9d 9fbe
000001f0: ace3 cd3d a284 60bd ce9e d53d db91 7f3d
0.261292 -0.111213475 0.30691183 -0.29727983 -0.20372702 0.26604712 -0.19262408 0.1451547
0.002746578 0.0640777 0.3468363 0.31028518 -0.021999078 -0.019252956 0.33127686 -0.17520508
-0.3253111 -0.32446793 0.21246672 0.2941105 -0.15803514 0.16300404 0.102494895 0.32054636
0.0563464 -0.35145637 -0.28844383 -0.33865854 0.10597691 -0.0600475 -0.035955835 0.080599755
0.36056507 0.24884522 0.36619923 -0.15704547 -0.16679013 -0.18663815 -0.19691192 0.10250567
-0.06199545 -0.30158573 -0.085399784 -0.12750365 -0.124831505 -0.23177736 0.32015714 -0.12604463
0.043931473 0.25392896 0.28899518 0.17066923 0.113698 0.23333777 0.26361564 -0.31264728
-0.07375982 -0.3040366 0.09347457 0.023847597 0.19983207 0.08647793 0.039454307 0.22560662
0.11826271 -0.2666476 0.2964739 -0.35058647 0.2694406 0.13490483 0.19397283 0.2763613
0.027300326 0.33106074 -0.34522453 -0.34412655 -0.037600588 -0.07917033 -0.27771428 -0.15438275
-0.15686683 0.042303506 0.34827405 -0.22262017 -0.23962258 -0.12056512 -0.33683148 0.13527241
0.13133708 -0.051432043 -0.00439478 -0.27080038 -0.11260004 0.024457395 0.05574473 -0.31131318
0.29610577 -0.31403667 -0.2904474 0.33690074 0.2880378 0.2604226 0.34856376 0.35335347
-0.0964862 -0.2854732 0.16168642 -0.34405094 -0.024927903 -0.018438255 -0.0918522 0.017670795
-0.067931525 -0.18342723 -0.013663611 -0.16128284 -0.2035055 0.14471021 0.3269889 -0.05579052
0.2035347 0.38708347 0.37101436 -0.31175023 0.100531906 -0.05481399 0.1043068 0.062394958

policy.2.weight f4 [64, 128]
00000000: 4ec5 83bd d712 92bd 0495 ebbc c5a8 c7bc
00000010: 8848 673d ec99 0b3d 4ba3 54bd ed7c 003d
00000020: c671 f13c b20e 433d f6d5 aabd e7d9 a1bd
00000030: ed85 6d3d 5d46 a03d 40d5 703d 58cf a6bd
00000040: 47f5 943b 0ffd 6ebd 8651 59bd e43c ab3c
00000050: 28bb 3c3d b072 d7bc 1bf2 4fbd 3c1a 00bd
00000060: a7e6 f5bc 197e 5fbc 326d d23b 0b75 a23b
00000070: 67de 513d 6854 983d 4956 9a3b 8a58 89bd
00000080: ba53 a5bd 5ef3 753d e37b 403c 0c88 853c
00000090: a285 2dbd 953e ad3c f295 663d a36b 9f3d
000000a0: 55d8 05bd fc70 a63c d131 8fbd 2235 aabd
000000b0: f978 c2bc 28db 9ebc d3bd 9f3d 1a65 6cbd
000000c0: e4f1 683d 61e8 3d3c 587b 23bc 7df6 993d
000000d0: e158 783d eb16 ad3d 3ee9 7ebd dda5 cd3c
000000e0: ea85 9abd 70ed 353d 2dcc babd 619e 793d
000000f0: ba2e 6abb 8940 663c e0cb d5bc cd8e b5bb
00000100: 4a58 0f3d 58e4 a2bd 90d9 8e3d 0f4e 193c
00000110: 9e85 e6ba 095a 5cbd 2d2f 993d 068e 9a3d
00000120: 78e5 4c3c cb20 343d 2e8e 8e3d 7ab7 32bc
00000130: 4960 863c 2591 60bb 9ef2 963c bdfd 29bd
00000140: ec33 073d 0662 a43d 1e0b 553d 5058 863d
00000150: 9740 873d ac1b a6bd 3c54 50bd fcbe 3cbd
00000160: 12f7 bf3c fb1b fbbc afef 40bd 0358 29bc
00000170: 145f 493b 2067 463c 71ed a9bb 1dde 913a
00000180: 7f64 80bc f3ef 943c 4364 f33c e71b 703d
00000190: 8fad 57bc de30 f53c 3758 bb3d 4323 c53c
000001a0: b09c f8bc 0881 43bb 9c67 063c 3e20 2f3d
000001b0: e4af 043d 2403 d23c 668c 9b3c 21f5 ca3b
000001c0: ebcc 21bd ffa8 913c c8bc 9b3c e3e7 4d3d
000001d0: 51c8 d73b 5c75 5a3d 52eb 0abc 8efc 8abd
000001e0: ccdd 5e3c 8953 31bd 6391 bb3d d51f 293d
000001f0: 88e0 803d 31bc 373d e3ae 13bd 4cb2 f8bc
00000200: 2f2d f23d 1a2e 8a3d f8b8 cb3d db8b 8ebc
00000210: a818 83bd 5f86 4abd b5b3 8bbd 8ef1 70bd
00000220: 083b 8bbd 5bff 66bd ba3c 4d3d 0d60 ebbd
00000230: 34d2 423b 1d9e 8fbc 7680 a93c 6a09 e4ba
00000240: da46 ab3d 1633 71bb 30ff f7bc 0290 95bd
00000250: da04 79bc 9614 ae3c e81f eebc 67f7 c3bc
00000260: cdf8 93bd 74ba b23d f367 0c3d 00eb 3b3d
00000270: c263 4e3c 7990 2a3d c37d 00bd dad4 73bd
00000280: e1ee 70bd da49 ae3d b269 af3d e09f 983d
00000290: b4d8 15bc 2ad2 8dbc e39a 993d b898 89bd
000002a0: 3b6b 013d f5e0 e2bc 5f13 a53d 4141 643d
000002b0: 41c8 8a3d 29fc bcbc 700d 8b3d dfdd c5bc
000002c0: 2094 cebd ac6c 86bd ebf0 123d a3f3 8f3d
000002d0: 8546 85bd 2b2e 963d 69af 56bd 9dda 7abd
000002e0: 744c 823a 2ff8 92bd 0b86 6f3d 27f1 c83b
000002f0: bae3 1abd 11ee b13d 50ab dfbc a4d5 e3bc
00000300: 4122 3d3d f331 6d3d 4004 a83d bc11 903c
00000310: bd45 90bd 1f21 91bd c6e0 debb 06b8 69bc
00000320: ae9c 6c3d 1b64 a23c b56c 6cbc d00f aa3d
00000330: 23da 483d 6ab6 16bd 0f68 5abd c562 9abd
00000340: 6b24 1dbd 278a 113d 9398 a4bd 5f12 813d
00000350: 67c6 d3bc e2a2 82bd 7696 e6bc d88b 9b3d
00000360: 6017 02bd ba1b a33c ee03 36bc fb99 f93c
00000370: e1e4 9a3d 5bf0 8fbb e437 32bc 162b 2cbd
00000380: d4e5 6dbc 61d9 563d 6110 96bc 4192 c03b
00000390: a3d1 9d3d e8cf 4dbc bd33 9c3c 6a9d de3c
000003a0: 324c a73d 9690 8b3c 95ac 9d3d 589e f93b
000003b0: 657a 833d 4932 7e3d bbad 673d 7ff3 983d
000003c0: 22f3 9cbd 0178 a33d 7d51 66bd 0b1f 913c
000003d0: c672 813c 98c4 df3a 2213 8e3d 6c13 ccbc
000003e0: 8dee d0bd cfdd 823d 901c 9a3d 1b5a a93d
000003f0: 15a9 06bd d030 eb3c b836 4e3d 980a 9c3d
-0.06434117 -0.071325 -0.02875758 -0.024372468 0.056465656 0.03408234 -0.05191354 0.03136914
0.029473197 0.047621436 -0.08341591 -0.0790289 0.05798905 0.07825921 0.05879712 -0.081450164
0.004545841 -0.058346804 -0.053056262 0.020903058 0.046076924 -0.026299804 -0.050768 -0.03127502
-0.03001721 -0.013640904 0.0064217085 0.0049578003 0.05123749 0.07437974 0.004709993 -0.067063406
-0.0807261 0.060046546 0.011748287 0.016300224 -0.04236377 0.021148006 0.056295343 0.07784202
-0.032677013 0.020317547 -0.069919236 -0.083109155 -0.023739325 -0.019391611 0.07799878 -0.057713605
0.05687131 0.011591048 -0.009978138 0.07517717 0.060631637 0.08451637 -0.062234156 0.025103504
-0.07545073 0.04441589 -0.09120975 0.060942058 -0.0035733418 0.014053472 -0.026098192 -0.005540705
0.03499631 -0.07953709 0.069750905 0.0093569895 -0.0017587428 -0.0537968 0.07479701 0.0754662
0.0125058815 0.043976586 0.069607124 -0.010908002 0.016403334 -0.00342662 0.018426236 -0.04150175
0.0330085 0.08026509 0.052012555 0.06559813 0.066041164 -0.08110747 -0.050861582 -0.046080574
0.023433242 -0.03065299 -0.04710358 -0.010335925 0.0030726837 0.012109548 -0.005185776 0.0011128817
-0.01567292 0.018180823 0.029710894 0.05862036 -0.013163938 0.029930528 0.09147685 0.024064666
-0.030348152 -0.0029831547 0.008203413 0.042755358 0.032394305 0.025636263 0.018987846 0.0061937724
-0.039502066 0.017780779 0.019010916 0.050269973 0.006585159 0.05333458 -0.008478956 -0.06786452
0.013602685 -0.043292556 0.0915859 0.041290123 0.06292826 0.044857208 -0.036055457 -0.030358456
0.11825024 0.067470744 0.09947389 -0.017400673 -0.06401187 -0.049444553 -0.06821386 -0.058824115
-0.06798369 -0.05639587 0.05010674 -0.114929296 0.0029727342 -0.017531449 0.020691138 -0.0017397825
0.08363123 -0.0036804131 -0.03027305 -0.07302858 -0.015198911 0.02125005 -0.029067948 -0.023921682
-0.07225189 0.08726969 0.03427882 0.04587841 0.012597026 0.041641686 -0.031369936 -0.059529163
-0.058821563 0.0851018 0.08565082 0.07452369 -0.009145904 -0.017312128 0.075002454 -0.06718582
0.031596404 -0.027695158 0.08060335 0.055726293 0.06776477 -0.023069458 0.067896724 -0.024153648
-0.10086846 -0.06563696 0.03587429 0.07028892 -0.06507591 0.073330246 -0.052413378 -0.061243642
0.0009940998 -0.071762435 0.058477443 0.006132263 -0.037814833 0.08687986 -0.027303368 -0.027811833
0.046175245 0.057908963 0.082039356 0.017586581 -0.070445515 -0.070863955 -0.0068016974 -0.014265066
0.05776661 0.019823125 -0.014430215 0.08303797 0.049036156 -0.036795057 -0.053321894 -0.0753837
-0.03836481 0.035532143 -0.08036914 0.06302332 -0.025851442 -0.06378724 -0.028147917 0.075950325
-0.031760573 0.019910682 -0.011109335 0.030468931 0.075631864 -0.0043926663 -0.010877583 -0.042033277
-0.014520127 0.052453402 -0.018318357 0.00587681 0.07706001 -0.012561776 0.01906764 0.02717467
0.0816883 0.017036717 0.07698933 0.007617753 0.06419829 0.062059674 0.056562167 0.07468318
-0.076635614 0.07981873 -0.056230057 0.017714998 0.015801799 0.0017072139 0.06937243 -0.024911605
-0.1020175 0.06389963 0.07524979 0.082691394 -0.032876093 0.028709799 0.050345153 0.07619208

policy.2.bias f4 [64]
00000000: 008f 15b9 4a66 c63d cb84 293d 0d43 163d
00000010: 3ec4 e9bc 8c59 303d 59a2 293d 8da7 7abd
00000020: a363 433d 78b2 603c 74f6 55bc 1eb4 af3c
00000030: 4a5f fe3c 2050 89bd 487b 25bd 8f82 67bd
00000040: 9465 5b3c 1c88 843b 7345 dabc aeb7 f73d
00000050: 9c89 b1bd f634 1b3c 7a9c 96bd d962 a63d
00000060: 5504 773d 6ca4 13bd 856f 923c a3a9 573d
00000070: ef70 be3d d610 16bd 02a4 3dbc 4137 62bb
00000080: 0751 2fbd 4746 77bd 725c b73d c54c a7bd
00000090: 2fc7 cf3c 1b56 a1bd 27bf 473d bbaa a2bd
000000a0: d32f 833d a60c 913c 0416 8f3d fde7 c93d
000000b0: c286 64bd 824a 8f3d c4a1 a03d 9d4d 223d
000000c0: c665 643c 0ff1 6c3c 5815 45bd 5af4 4abd
000000d0: 92b8 173d e898 3c3c 8dd5 503d d1fe b2bd
000000e0: ceef f73c 13a6 3a3d b540 a73d 0637 8bbd
000000f0: 30c0 193d f8bf a93d b72c b9bd 0389 4c3d
-0.00014263019 0.09687479 0.041386407 0.03668504 -0.028535958 0.04305415 0.041414592 -0.061194945
0.047702443 0.013714425 -0.013059247 0.021448191 0.031051297 -0.06704736 -0.040400773 -0.056520995
0.013390917 0.004044546 -0.026644444 0.12095581 -0.08668825 0.009473076 -0.07354064 0.081243224
0.060306866 -0.036045477 0.017875442 0.052652013 0.09298884 -0.03663715 -0.011574747 -0.0034517797
-0.042801883 -0.060369756 0.089531794 -0.081689395 0.025363533 -0.078777514 0.04876628 -0.079427205
0.06405606 0.017706227 0.06986621 0.098587014 -0.055792578 0.06996633 0.07843354 0.0396248
0.01394028 0.01446177 -0.048116058 -0.049549438 0.037041254 0.011511065 0.050984908 -0.087400086
0.030265715 0.045568537 0.08166639 -0.06797604 0.0375368 0.08288568 -0.09041732 0.049935352

policy.4.weight f4 [2, 64]
00000000: 61b2 a4bd 1c8b 6ebe 3e17 41be a2fc 11bc
00000010: 386a 9ebc 9e43 70bd 6e70 89be a887 f8bd
00000020: 8736 23bd 6f93 f53d d587 24bd 6625 a4bd
00000030: 9bc6 42be ae21 093d df44 863e 2177 ae3c
00000040: 436a 6b3c d40c b13d f66a b13d f8e1 18be
00000050: f96f 03be 950a 09be d9ff edbd fd25 cebc
00000060: 7dac 303d 1681 893e 92ce 3b3b 64cc 76be
00000070: f720 5abe ae30 d7bd aadc b5bd e0aa ba3d
00000080: 0b80 bf3d f198 79bd 5ebd 68be c9c9 d63d
00000090: 2432 2d3e cf4c 3ebc f588 2dbd 420c 59bd
000000a0: f448 3bbe ba08 4f3d 5ae2 3b3c f201 2e3e
000000b0: 0315 a8bd ce80 05bd bd92 143d 96f5 c43d
000000c0: 3210 7f3d e3f2 a03d aad9 263d 5a13 923d
000000d0: 6aea 803e e942 2a3e e741 a3be 9835 d0bd
000000e0: 1836 5fbc 0f44 2b3e b525 e53d b01d 5bbc
000000f0: 8fb8 113d 44cd ebbd 9644 933b 8d3d 383e
00000100: 61a5 853d e78b 163e f7d1 d73d d1e3 7d3e
00000110: 785d dcbd ad31 be3d 413b 753e 78c7 b13d
00000120: a0f5 dbbd f2dd 10be d28d 8ebd 2883 753d
00000130: 6f80 d23d b12a 20bd 88ef 71be f7ff 993d
00000140: 4630 9b3d de7e 3b3c a9f9 bf3c 6d38 083e
00000150: 9a87 3f3d 4bb5 483e 45c8 c43d 1a08 e83d
00000160: b029 a83d d329 93be aeae a43d 0347 483e
00000170: 556f 9b3d 0882 aeba dd2a 573e 5077 16be
00000180: e9c7 06be f45b 00be 7e47 683e 0af7 023e
00000190: f59a 14be 6767 453d db4c e0bd 2847 8a3c
000001a0: 9892 083e 6991 96bd 7aea 263e c88a 44be
000001b0: 1b7c 14be a61a aa3d a99f d6bd 4bf1 a3bd
000001c0: 3972 7ebc bdf6 e13d bfd2 93bd c49e e63c
000001d0: f96d 94be 78a2 2bbe de20 833e dfe7 09bd
000001e0: 7646 413e e2d6 2bbe fab6 2fbe f6c3 f6bd
000001f0: 0fc2 bcbd bc10 483e 63b6 923d 7e1b 56be
-0.080418356 -0.23295254 -0.18856522 -0.00891033 -0.019337758 -0.058658235 -0.2684359 -0.121352494
-0.039846923 0.11991011 -0.040168602 -0.08014946 -0.19021074 0.033479385 0.2622442 0.02129704
0.0143685965 0.08645025 0.08662979 -0.1492995 -0.12835683 -0.13382943 -0.11621065 -0.025164599
0.043133248 0.26856297 0.002865706 -0.24101406 -0.21301638 -0.10507332 -0.08879979 0.09114623
0.09350594 -0.060936872 -0.22728488 0.10487706 0.16913658 -0.011614992 -0.04236694 -0.052990206
-0.18289548 0.05054543 0.011467541 0.1699293 -0.08207133 -0.03259354 0.036272753 0.09617154
0.062271304 0.07858827 0.040734924 0.07132597 0.25178844 0.16627087 -0.31886217 -0.10166472
-0.013623737 0.16725181 0.11188833 -0.013373777 0.0355764 -0.11513761 0.00449426 0.1799223
0.06525684 0.14701806 0.105380945 0.24793936 -0.10760015 0.09286819 0.23948385 0.08680624
-0.107402086 -0.14147165 -0.06960644 0.059939533 0.10278403 -0.039103214 -0.2362653 0.075195245
0.07577567 0.011443822 0.023434477 0.13302775 0.04676018 0.19600408 0.09608511 0.1132967
0.08211076 -0.28742847 0.0804113 0.19558339 0.07589594 -0.0013313899 0.21012445 -0.14693952
-0.13162197 -0.12535077 0.22683522 0.1278955 -0.14512236 0.048194315 -0.10952159 0.016879633
0.13337171 -0.073519535 0.16300383 -0.19193566 -0.14500467 0.08305864 -0.104796715 -0.08005007
-0.0155301625 0.1103339 -0.07217931 0.028151877 -0.28990152 -0.16761196 0.25611013 -0.033668395
0.18874535 -0.1678119 -0.17159644 -0.12049095 -0.09216701 0.19537634 0.07163694 -0.20908925

policy.4.bias f4 [2]
00000000: 6685 bfbd c0e8 92bd
-0.093516156 -0.071733
