backup/ppo_net.pkl (torch_old, 32978 bytes, 15 tensors)

weight f4 [64, 4]
000000 b9 47 84 be c0 83 19 3e 69 7c d5 be 93 9b a9 be
       -0.2583597 0.14991665 -0.4169648 -0.33126506
000010 82 5d f3 3e ba 27 18 bf 20 fd c7 3d 6e 6d ee be
       0.47532278 -0.5943562 0.09765077 -0.46567863
000020 29 d0 1a bc d9 d2 fb 3d be 21 d1 3e 96 73 9c 3e
       -0.009449043 0.122960754 0.40846056 0.30556935
000030 e9 85 6d bd 8d 89 ce be d8 1b 62 be 25 b1 b3 3e
       -0.057989035 -0.40339318 -0.22080934 0.35096088
000040 1c 8d a5 3e 13 35 a1 be 24 da 8e be 53 77 80 be
       0.3233422 -0.31485805 -0.27900803 -0.25091037
000050 f5 ac 3f 3e 08 8e bb bd b7 1f ee 3e 59 72 ae 3d
       0.18718322 -0.0915795 0.46508572 0.08517904
000060 c8 40 a6 3e 82 c9 d9 3b cc b4 c5 3e 13 fe 76 3e
       0.324713 0.006646336 0.386145 0.24120359
000070 4a 96 f7 3d 96 90 66 bd 05 63 db be e7 f1 76 be
       0.12089212 -0.05629023 -0.42848983 -0.24115716
000080 54 08 15 3d d9 32 b3 3e df 40 95 be 14 4d c9 be
       0.036384895 0.3499973 -0.29151055 -0.39316618
000090 46 b7 25 3f c8 43 71 3e 11 71 28 be 8c c5 a6 be
       0.6473278 0.23561013 -0.16449381 -0.3257259
0000a0 cf 00 f1 3d 1c c5 94 bd 08 e2 98 be ec 48 2f 3e
       0.11767732 -0.07264158 -0.29859948 0.17117661
0000b0 e7 21 62 3e 04 0a d0 be 46 c3 15 3e 0b d4 03 bc
       0.22083245 -0.4063264 0.14625272 -0.00804616
0000c0 cd c1 f7 be 1a 77 86 3e 2c 25 38 bf f0 cc 95 3d
       -0.48390046 0.26262742 -0.7193172 0.07314479
0000d0 3f da 62 3e 3d e2 a0 be d4 15 72 3e 46 b8 56 bd
       0.22153567 -0.31422606 0.2364114 -0.05242183
0000e0 ca e5 3b 3e 93 97 78 be f8 62 c1 3e 5c ce 42 be
       0.18349376 -0.24276571 0.3777082 -0.19024032
0000f0 74 91 7d 3e b5 b3 d4 be 0b bd 68 bd fb 37 50 be
       0.24762517 -0.41543356 -0.05682091 -0.20333855
000100 45 5c d0 3c 83 ff 13 be c7 09 92 3e 8a 6b 8f 3c
       0.025434623 -0.14452939 0.28523085 0.017507333
000110 2b 0c c6 3e cb 86 07 bf d5 f4 e7 3d ff 61 33 be
       0.38681158 -0.5294005 0.11325995 -0.17517851
000120 69 c6 df be b9 89 b6 be d8 74 8a 3e f1 24 47 bd
       -0.43706062 -0.3565195 0.2704227 -0.048619214
000130 ef 31 20 3e 0f bc 49 be 96 b3 f9 3e 60 bf af bd
       0.15644048 -0.19700645 0.48769826 -0.08581424
000140 dc 40 2d be 87 86 e0 3e ec fa 81 be eb d9 e6 3e
       -0.16919273 0.43852636 -0.2538675 0.45088133
000150 37 d4 6c be 81 e5 8e bd 4c dd 0a 3f 82 2c 04 be
       -0.23127829 -0.06977368 0.5424392 -0.12907603
000160 2d 50 e1 be cb 63 9b be 84 fa d7 be dc 7c ad 3e
       -0.44006482 -0.30349573 -0.42183316 0.33884323
000170 d4 ff f5 3e c4 70 9f 3e 7f ad 0c 3e 51 28 97 3e
       0.48046744 0.3114072 0.13738059 0.29522946
000180 66 fc 72 be 91 e5 33 3e 6c fd 2a 3e 53 24 8d 3e
       -0.23729095 0.17568041 0.16698235 0.27566776
000190 93 77 5d bd e8 4b e6 bd f9 cb eb 3e f4 3f e2 be
       -0.054069113 -0.11244947 0.46054056 -0.44189417
0001a0 2a 21 87 be cd 6f 19 3d 78 b2 3b be 46 b2 2f be
       -0.2639249 0.037460137 -0.18329799 -0.1715785
0001b0 25 fa 67 be 9d 71 67 bd 2d e8 2c 3d db 08 b5 3e
       -0.22654016 -0.056504834 0.042213608 0.3535832
0001c0 f0 86 7d be 83 05 8a 3e 08 ad 17 bf a5 c2 40 be
       -0.24758506 0.2695733 -0.592484 -0.18824251
0001d0 61 5a 91 be 2f 30 1f 3f 53 3e 54 be 69 f2 43 bd
       -0.28389266 0.621829 -0.207269 -0.047838602
0001e0 3c 02 95 be 92 f7 a0 bd 92 53 e3 3e 66 fa 9d be
       -0.29103267 -0.0785972 0.44399697 -0.308551
0001f0 cc 79 90 be 7e d7 87 3d 02 35 25 be 33 0c 89 3d
       -0.28217924 0.06632899 -0.16133502 0.0669178
000200 db ee b8 bd d0 f8 75 3e 35 a5 ef bb 9e 88 e2 bd
       -0.09029933 0.24020696 -0.0073133954 -0.11061214
000210 ab 17 6d 3e 89 4f 63 be 50 21 0e be 5a 7e d0 bd
       0.2315356 -0.22198309 -0.13879895 -0.1018035
000220 a2 7f bd 3e c7 12 0e be d6 df c6 3e 07 7d cc 3e
       0.3701144 -0.1387435 0.38842648 0.39939138
000230 8f 15 13 3e 59 e8 ed bd 95 eb 3c 3e 0f d2 7e bc
       0.14363693 -0.116165824 0.18449242 -0.015553012
000240 d8 57 8e 3e 76 3d bd 3e dc af 8b 3d 37 22 d1 bd
       0.27801394 0.36960953 0.06820652 -0.10211604
000250 e8 81 a4 be 53 fd 15 3c 5b 3e 1c be b2 53 39 bd
       -0.3213036 0.0091546355 -0.15258162 -0.045245834
000260 12 bf 64 3e 0a 0b 7c be 28 c3 69 3c 4a ce 33 be
       0.22338513 -0.24613586 0.01426772 -0.17559162
000270 d4 83 82 3e aa ba 8e bd 0d 9f 92 3e 13 95 97 3d
       0.25491202 -0.06969197 0.2863697 0.074014805
000280 64 f1 05 bf bf c1 2a 3f 22 1d ae 3e 55 77 cc 3e
       -0.5232146 0.66701883 0.34006602 0.39934793
000290 a8 b3 0b 3f 64 d4 89 be 9c a6 58 3e 6e 9b 3b bc
       0.5457101 -0.26919854 0.21157306 -0.011450632
0002a0 de 38 23 3e 4b b6 11 be ea 38 4d be bd c7 d3 3e
       0.15939662 -0.14229695 -0.20041242 0.41363326
0002b0 9d a5 ae 3b 72 77 28 bd f1 30 a8 be 20 5c bf be
       0.0053298012 -0.041129537 -0.3284984 -0.37374973
0002c0 ee 2a a7 3b 71 8e c2 3d 33 9e 93 3e 42 a9 94 3e
       0.005101553 0.09499825 0.28831634 0.29035383
0002d0 ca ad c3 be 5a f8 d6 bd cd c4 30 bd 66 84 9d be
       -0.38218528 -0.10496588 -0.043156434 -0.30765074
0002e0 4e 67 7e 3e 54 95 ef 3e 34 35 cd bd b6 c7 2d 3e
       0.24844095 0.46793616 -0.10019913 0.16970715
0002f0 d7 ee 99 3e 3f 94 0c be 29 94 b9 bd 6e 23 ab bd
       0.30065033 -0.13728426 -0.090614624 -0.08356367
000300 23 2e c6 3e 10 7e 7e 3e 8b 70 c3 3e c8 57 88 be
       0.38707075 0.24852777 0.381718 -0.26629472
000310 2e ec 23 3f 1a e3 f5 3e f2 96 88 be 46 80 d8 3e
       0.64032257 0.48024827 -0.26677662 0.42285365
000320 03 b3 72 3e 5d 36 3f be 17 b6 6b 3e 51 7d f4 3d
       0.237011 -0.18673082 0.2301868 0.11937965
000330 b5 1d e9 be 98 15 b2 be 7c 40 fa 3c ad 33 ed be
       -0.45530477 -0.347821 0.030548327 -0.46328488
000340 89 9d 8d be 21 8e 87 3e 75 2f 8c be 41 4b ef bd
       -0.27659252 0.26475623 -0.27379957 -0.116842754
000350 12 c7 9e bd dd 5f 79 3d 92 61 bf 3c 84 94 a8 3e
       -0.077528134 0.060882438 0.023361955 0.32925808
000360 f9 e4 6b bc f4 9f 2b be 3d e0 98 bd 9b 7d 9f 3e
       -0.014397853 -0.16760236 -0.07464645 0.31150517
000370 eb 46 95 be a1 10 b6 3e 26 a8 f2 3e c2 5e 90 3d
       -0.2915567 0.35559562 0.47393912 0.070493236
000380 70 0a b2 3c 12 9d a5 3e fe 01 27 3e 13 84 91 3e
       0.021733493 0.32346398 0.16309354 0.28421077
000390 c2 93 8b 3b 78 25 f6 3d ed 0f 81 3e 1f 36 0f bc
       0.0042595575 0.12018865 0.25207463 -0.008740931
0003a0 de 45 ac be f5 4e 9d be bf fc 08 bd 1b 12 f9 bd
       -0.33647054 -0.30724302 -0.033444162 -0.121616565
0003b0 96 2e 19 3d 27 4c 37 3d cc f8 4b be f6 3e 3c bd
       0.037397943 0.04475036 -0.19919127 -0.04595848
0003c0 d2 6d 2a bf 04 bc 84 be 2e 38 8b bd 74 dd 57 3e
       -0.6657382 -0.25924695 -0.06797825 0.21080571
0003d0 47 30 61 be 6a 64 01 3d e2 ec 69 3e 19 55 13 3e
       -0.21991073 0.031589903 0.2284427 0.14387931
0003e0 6a 0f 9f 3d be 49 56 be dc e4 c6 be 7d 6d de 3e
       0.07766612 -0.20926568 -0.3884648 0.43442908
0003f0 b9 00 c5 bd a1 e3 dc 3d e3 bc a3 bb 52 bb 59 3e
       -0.096192785 0.10785604 -0.0049968823 0.21262863

bias f4 [64]
000000 49 65 36 3f 05 da ce be 6d 19 07 3f f5 27 3b be
       0.712483 -0.4040071 0.5277317 -0.18276961
000010 e2 fc 05 3f 25 3e 90 3d 03 d7 92 3d d2 1f ed 3e
       0.52338994 0.07043103 0.071699165 0.4631334
000020 f0 45 a8 3e b9 99 f6 3b 6c e8 e3 3e 86 fa 2b 3f
       0.32865858 0.0075256494 0.4451326 0.67179143
000030 c3 25 1e be e6 cf f8 3e d9 4a a2 3e 9c ac fe 3d
       -0.15444092 0.48596114 0.3169773 0.124352664
000040 af a2 c7 3e d2 56 ab be 51 8e 7b be 12 26 8b 3e
       0.38991305 -0.33464676 -0.24566008 0.27177483
000050 e5 3c a3 3e b4 8d 38 3f 23 5c d4 be 2f 49 48 be
       0.31882396 0.7209122 -0.41476545 -0.19559167
000060 00 37 0a 3f 6a 17 09 3f be f1 7f bd d4 73 50 3f
       0.53990173 0.5355135 -0.062486403 0.8142674
000070 36 bd 1e 3f 71 c4 55 be d6 4e cd be 55 13 14 bf
       0.6200746 -0.20875718 -0.4009921 -0.57842
000080 ac fe 30 3f 6d 1a 02 3f dd 9d 01 bf bd c9 9b 3e
       0.691386 0.5082157 -0.50631505 0.30427352
000090 11 f8 ba be 24 e3 63 bd ec 96 ec 3e 95 64 1b 3f
       -0.36517385 -0.05563654 0.46208894 0.6070035
0000a0 39 6c c5 3d 12 68 a5 be 68 c2 ee be 9b 2c b3 3e
       0.096397825 -0.32305962 -0.46632695 0.3499497
0000b0 f8 a1 ef 3e ec 7d d6 bd ae 26 74 3e 6d 4e d2 be
       0.4680326 -0.104732364 0.2384288 -0.4107546
0000c0 3e 1e 07 3e 49 c7 b0 bd 9f 56 83 3e 84 b5 ae be
       0.1319513 -0.086317606 0.25652024 -0.3412286
0000d0 cf 7f 2b 3f 0c 68 fd 3e d8 95 07 bf 06 10 1a 3f
       0.66991895 0.49493444 -0.5296302 0.601807
0000e0 c3 48 06 3f 39 10 17 3f 37 45 5c 3e 4b 1a fb 3e
       0.52454776 0.5900913 0.21510778 0.49043497
0000f0 c1 cc c6 bd 1a 79 0c 3f 2e a2 25 3f 59 80 67 3e
       -0.097070225 0.54872286 0.6470059 0.22607554

weight f4 [32, 64]
000000 94 83 70 3f 4b 26 38 bd 64 f9 da 3e d0 99 6d 3d
       0.9395077 -0.044958394 0.42768395 0.058008015
000010 a6 a3 b9 bd 70 1f 1d 3f b3 b4 93 3e 05 c3 3e 3e
       -0.090644166 0.61376095 0.288488 0.18629082
000020 59 47 c8 3e af 57 98 3d 68 03 da 3e 50 6f 1c 3f
       0.39116934 0.07438599 0.42580724 0.6110735
000030 1c 3a d1 bc f0 c0 98 3e 22 b1 4d 3e 98 89 8f 3e
       -0.025540404 0.298347 0.20087102 0.28034663
000040 9a 4c eb 3e 92 c8 1b be b8 9d 2c 3d 30 ee 5c 3e
       0.4595688 -0.1521323 0.0421426 0.21575236
000050 b5 2e 04 3f 67 d9 dc 3e 96 52 46 bd 00 3e e9 3d
       0.5163377 0.43134615 -0.048418604 0.11388779
000060 cd 78 b6 3e 4b 6e 58 3f c9 c3 da bd 4a c7 4d 3f
       0.3563904 0.84543294 -0.10681874 0.80382216
000070 5c ca 7a 3f bf 98 cf bb 85 b4 f2 bd ba ef 80 3e
       0.97965026 -0.0063353474 -0.118508376 0.25182897
000080 84 d3 bb 3e 4e aa 37 3e 9c 93 ec bc 5b f5 10 3e
       0.3668481 0.1793606 -0.02887898 0.14156096
000090 b9 67 eb bd 2b 17 cb bd b7 8a 76 3d aa 9d c3 3e
       -0.11494393 -0.09916528 0.060190883 0.38206226
0000a0 44 e5 42 be 9d 09 10 3e 3d a4 a2 bd 82 f5 92 3f
       -0.1903277 0.14066167 -0.07941482 1.1481173
0000b0 a8 16 ca 3e d1 af 90 3d e5 3a 9a 3d 35 33 00 bf
       0.3947041 0.07064784 0.075307645 -0.50078136
0000c0 6f 79 e1 3d 0a f1 03 3e d7 d7 10 3f e4 c3 af 3d
       0.1100949 0.12884918 0.56579345 0.08582285
0000d0 83 ce 34 3f bc cf 2a 3f 91 08 bf bd b7 dd 24 3f
       0.7062761 0.6672323 -0.09327806 0.6440081
0000e0 ad b3 88 3e c4 9d 8a 3e a2 df 1a 3e 02 a7 3c 3e
       0.26699582 0.2707349 0.15124372 0.18423083
0000f0 de 8e 11 be 68 4d bd 3e 1c 5f a0 3f a5 d6 48 3f
       -0.14214656 0.3697312 1.2529025 0.7845252
000100 88 8b 63 3f 77 fb b8 bd 03 aa e9 3e af 0c 6a 3d
       0.8888478 -0.09032338 0.4563752 0.057141002
000110 01 54 78 3e ed 9b e7 3e 9b 23 b3 3e 15 76 b6 3e
       0.24250795 0.4523615 0.34988102 0.35636964
000120 99 03 e7 3e cf 01 73 3e 0f f0 15 3f 4c 99 f9 3e
       0.45119932 0.23731159 0.58569425 0.4874977
000130 eb f9 35 bc a6 5c 87 3e 60 e4 a1 3d ae 3d 47 3e
       -0.011106948 0.26437873 0.07904887 0.19457123
000140 a1 70 0f 3f 6b 02 ad bc b2 e4 1b 3d 0d 9d 90 3d
       0.56031233 -0.021119317 0.038059898 0.07061205
000150 7f 18 ce 3e ae a1 c9 3e f0 36 c8 bd e6 28 28 3e
       0.40253064 0.39381164 -0.097761035 0.16421852
000160 90 05 16 3f f0 ab 78 3f 0a 57 11 be 35 63 83 3f
       0.5860224 0.97137356 -0.14193359 1.026465
000170 c5 59 5d 3f 8c ca a0 bd 28 d1 4e be 0d 4f d2 3d
       0.864651 -0.07851133 -0.20196974 0.10268984
000180 98 c7 d7 3e a2 a9 4c 3e 17 c3 cc ba ef 3b 50 3d
       0.42144465 0.19986585 -0.0015622106 0.050838407
000190 7d 13 71 3d d2 2b d5 3d 40 83 16 3e 37 28 d1 3e
       0.058856476 0.10408749 0.14698505 0.40850994
0001a0 84 0d a3 be 59 75 ee 3d b6 9b 76 3d bf 26 88 3f
       -0.3184625 0.11643476 0.06020709 1.0636824
0001b0 aa fd 0e 3f b1 18 e8 3c f3 88 2b 3d f7 80 25 bf
       0.5585581 0.028332086 0.04187865 -0.6464991
0001c0 d2 ec 34 3e 1e 4a 15 3e 0a fd 20 3f 3f 14 ec ba
       0.17668465 0.14579055 0.62886107 -0.0018011405
0001d0 e5 64 27 3f c4 c9 0b 3f df 42 c4 3d 83 2f 0a 3f
       0.6538833 0.54604745 0.09583067 0.5397875
0001e0 2f 60 7b 3e 4d e1 6c 3e fa 74 ed 3d 35 36 4c 3e
       0.2454841 0.2313282 0.11594577 0.19942553
0001f0 a3 8a 80 bc 2a f3 07 3f b9 d1 9e 3f 2b c8 1f 3f
       -0.015691107 0.53105414 1.2407752 0.6241481
000200 6b 69 01 be a9 87 ac 3d 32 f4 29 bd b7 ce 77 3d
       -0.1263787 0.084243126 -0.04149265 0.060499873
000210 9f 1a 12 be b1 ce 53 3d 3f 04 b3 3d 1b 7d 97 bb
       -0.14267968 0.05171079 0.08741044 -0.004623068
000220 f4 fb e0 3d 78 29 f9 bc ae 50 8a 3d 53 ee 59 3d
       0.10985556 -0.030415282 0.0675367 0.0532058
000230 3f 17 93 3c 3b 4c a7 3d 4c e7 b9 3d ff 3a 31 bd
       0.01795542 0.08168837 0.090773195 -0.043269154
000240 a8 1c 70 bd 98 8d 86 bd bb 2c c9 3d c0 0c 90 3c
       -0.05862108 -0.065699756 0.09822985 0.017584205
000250 09 32 06 bd 09 95 77 3d 32 ec a5 3d 2a 67 84 bb
       -0.03276256 0.060444865 0.08101691 -0.0040406184
000260 76 7e 12 3d 15 fb 6d bd 04 c4 06 be 73 5c c5 3d
       0.035765134 -0.05810078 -0.13160712 0.09636774
000270 a6 09 8b be 06 11 92 bd cf ed d0 3c 5f a4 90 bc
       -0.271558 -0.07132153 0.025504021 -0.017656503
000280 52 19 0a be f2 9d 61 bd b3 b7 e6 3d a8 63 d1 3d
       -0.13486221 -0.05508227 0.112655066 0.10224086
000290 ce 06 27 bd 69 b2 5c 3b d9 02 f5 bc 03 56 b8 3d
       -0.040777974 0.0033675677 -0.029908584 0.090007804
0002a0 f1 fb 1a bd 19 b3 ca 3d 52 5f e4 3d 72 3a b7 bd
       -0.037837926 0.098974414 0.111509934 -0.089466944
0002b0 37 6d bb 3d 48 9b db 3c 42 6e 50 3d 22 2c 9c bd
       0.091516905 0.026807442 0.0508864 -0.07625605
0002c0 dd 4d 91 3d a4 3b 4b bc a8 09 00 be 1c 1d fb bc
       0.07094929 -0.012404356 -0.12503684 -0.030653529
0002d0 8b 2b 0c bd 4c eb 26 be af 66 2a 3d b4 35 21 be
       -0.034221213 -0.16300696 0.041601833 -0.15743142
0002e0 f2 6d 45 bc 21 4f 30 be fe cb ac 3d e4 5f 21 be
       -0.012050139 -0.17217685 0.08437346 -0.15759236
0002f0 8d 1c 84 bb e1 13 ca bd 4f 98 0a be 23 9b 33 be
       -0.004031724 -0.09867073 -0.13534664 -0.17539649
000300 70 88 43 3c a0 45 03 bd 00 9e 33 be f8 cd bb bd
       0.011934385 -0.03204882 -0.17540741 -0.09170145
000310 01 09 01 3a 05 80 b9 bd 74 f2 2f 3d f0 b0 dd 3c
       0.0004922301 -0.09057621 0.04295583 0.02706191
000320 0b 20 0e 3e 02 6b 85 3d 65 82 96 bd e6 9b 14 be
       0.13879411 0.06514551 -0.073490895 -0.14512596
000330 2d ca eb 3c 58 90 0d be 77 3d f3 3d cf 68 1e bc
       0.028782928 -0.13824594 0.11876958 -0.009668543
000340 c8 4b 24 bd b4 56 81 3d ed c8 07 3d e0 98 9f bc
       -0.040111333 0.063153654 0.033150602 -0.019482076
000350 73 33 76 bd 10 16 d6 bd b3 44 9b bd 4c fa 64 bd
       -0.06010766 -0.10453427 -0.07581463 -0.055902764
000360 a6 e8 51 be 3a 87 09 3e 5d 62 4b 3e 81 5f dd bd
       -0.20498905 0.13430491 0.19861741 -0.108092315
000370 76 da 0c 3e d7 6d ad bc ac be ed 3d 15 d7 52 bc
       0.13755211 -0.02117054 0.116086334 -0.012868662
000380 a1 18 ce bd dd 0a 32 3e be 81 df bc 0e 79 16 be
       -0.10063291 0.17386957 -0.027283546 -0.14694616
000390 ba b5 58 3d 1b b2 86 bd d1 a2 21 3d 0a e1 af bc
       0.052907683 -0.0657694 0.039461914 -0.021469612
0003a0 3d 2b 91 bd 80 24 d1 3d 4f 7e eb bc 43 9f c6 3d
       -0.07088325 0.1021204 -0.028746752 0.096983455
0003b0 2f 7a 65 be 6b a7 a5 bd 2a 7b 65 bd a5 72 2b 3e
       -0.2240989 -0.08088573 -0.05602566 0.16742952
0003c0 30 a7 a7 bd 9a d0 a8 3d a6 85 a2 3d 18 b1 8b bb
       -0.08186185 0.082429126 0.07935648 -0.0042630546
0003d0 a7 15 2b 3e 50 fa 30 be e0 f0 24 bc a0 98 3c bd
       0.16707478 -0.17282987 -0.010067195 -0.046043992
0003e0 75 cf a1 bd 5e 73 50 3c 44 c6 e9 bd ce 2e d2 3d
       -0.079008974 0.012722818 -0.11414769 0.102628335
0003f0 76 fb 25 bd ce 79 0f be 12 2e ae bd 1c cf cb bd
       -0.040523015 -0.14011309 -0.08504881 -0.09951612

bias f4 [32]
000000 a1 65 91 3e 53 a9 8b 3e 4f 08 fb bd 03 b9 cb bd
       0.2839785 0.27277622 -0.12257444 -0.099473976
000010 28 e3 0e 3d ef c2 df bd 5b 60 8f 3d 96 97 8e 3d
       0.0348846 -0.109258525 0.070008 0.069625065
000020 3d 37 71 3e 1e b1 0d 3d 6a fd 4f 3e 64 81 de bd
       0.23556228 0.03459274 0.20311514 -0.10864523
000030 e3 b3 05 3d f3 11 76 3e f2 e4 2d 3e f4 f5 2b 3e
       0.032642256 0.24030285 0.16981867 0.16793042
000040 76 b5 04 be 53 14 5b bd b2 71 c9 bd 40 d8 2f bd
       -0.12959847 -0.05348618 -0.09836139 -0.04293084
000050 ca 6e 4f 3e 55 6e 6d 3e 4b da 63 3e 87 c9 74 3e
       0.20257106 0.2318662 0.22251241 0.23905002
000060 c0 e8 7a bd 74 43 d0 3d 91 96 33 bd 9e 41 89 3e
       -0.061257124 0.10169116 -0.043844763 0.26807874
000070 c4 eb 62 3e 61 b4 a3 bd 2a e3 31 3e c0 66 e9 3d
       0.2216025 -0.07993389 0.17371812 0.11396551

weight f4 [8, 32]
000000 fe 7d fd 3c bc f1 19 be 06 a0 18 bd 77 09 50 bd
       0.030943867 -0.1503362 -0.037261985 -0.050790276
000010 dc 42 42 bd dc 84 24 be e6 ab 82 bd da 98 1c 3d
       -0.047427043 -0.16066307 -0.06380443 0.038231708
000020 d3 98 98 bd 3a 7a c0 3d d3 15 4e bc ec 5a c9 bd
       -0.07451024 0.09398313 -0.0125784455 -0.09831795
000030 61 49 03 be fe 9c 96 bd 19 25 9b 3c e0 b7 14 3e
       -0.1282096 -0.07354163 0.018938588 0.14523268
000040 d2 32 e4 3c c8 86 25 be 09 49 0f be ae 0e ac bd
       0.027856264 -0.16164696 -0.13992704 -0.084012374
000050 80 22 11 be 8d 93 0f be e5 9d 0a 3e 92 08 14 3e
       -0.14173317 -0.1402113 0.13536794 0.14456394
000060 78 bf fb 3c 30 85 86 3c bd f6 92 3c 28 92 9a 3d
       0.030730948 0.01642093 0.01793992 0.07547408
000070 63 a5 72 3d d5 35 1f be bc 8b 86 3c ea 26 83 3c
       0.059239756 -0.15547879 0.016424052 0.016009767
000080 02 f6 34 3e ad 06 5e 3e 43 e1 3d be 6c 6f 32 be
       0.1767197 0.21682234 -0.18542962 -0.17425317
000090 b0 60 40 bd d5 51 27 3e 9e 61 45 3e 5f a7 8d 3e
       -0.04696721 0.1633981 0.19275519 0.27666757
0000a0 ad fb 82 bc 7e d4 87 bd 60 c2 5f 3e d9 87 33 3e
       -0.015989149 -0.066323265 0.21851492 0.1753229
0000b0 fc 7b 61 bd e4 8e 77 3e e2 3d f5 ba 84 86 69 3d
       -0.05504988 0.24175602 -0.0018710459 0.05701305
0000c0 f5 51 1b be b9 37 3c be d3 16 9a bd eb 59 52 3e
       -0.15167983 -0.18380632 -0.075238846 0.20542113
0000d0 60 0b 36 3e 24 f1 e7 3d 1d bd f7 3d 42 c3 13 3e
       0.17777777 0.11325291 0.12096617 0.14429954
0000e0 3a 3f ce 3d bb 53 87 3d 6d a3 18 be ec 56 1b 3d
       0.10070653 0.06607767 -0.14906092 0.037924692
0000f0 35 53 7e 3e 74 40 d2 bc e2 59 29 bf 93 8a 3b 3d
       0.24836428 -0.0256655 -0.66152775 0.04578645
000100 aa 91 b8 3d 3e 44 eb 3d 90 a1 12 bd 5a f0 f6 3d
       0.09012158 0.114876255 -0.03579861 0.12057562
000110 6c 08 6b bd 03 d2 e9 bd 40 9a 6f bb a0 8c fc bc
       -0.05738108 -0.1141701 -0.0036560446 -0.030828774
000120 e0 9c db bc a8 22 ec bc 73 df 0c be 2a 80 c5 3d
       -0.026808202 -0.02882512 -0.13757114 0.09643586
000130 78 25 c7 bd 0a ee 09 be e0 f0 e5 bc 86 9a 87 bd
       -0.097239435 -0.13469711 -0.02806896 -0.0662127
000140 8a 34 a9 3d a8 a5 f0 3c fc eb 2a bd 9f a2 22 3e
       0.08261974 0.029375866 -0.04172896 0.15882348
000150 7c 99 f6 bd 07 99 30 be 4a 66 f2 3d 70 e9 0c be
       -0.120409936 -0.17245875 0.11835916 -0.13760924
000160 ce 6c a1 3d 8e b0 f8 bd 2a c9 20 be 37 36 33 be
       0.07882081 -0.1214305 -0.15701738 -0.1750115
000170 d4 e5 ad bd e4 15 31 bd eb d5 30 3e 2d 3c 22 3e
       -0.08491102 -0.043233767 0.17269103 0.15843268
000180 25 ca 38 be bc 5c d5 3b f1 ad 11 bb 77 1c 51 3d
       -0.18045862 0.006511299 -0.0022228921 0.051052537
000190 f7 0e b2 bd 80 47 f9 3a cb dd 40 be 5a cf 25 3e
       -0.086942606 0.0019018501 -0.18834607 0.1619238
0001a0 b7 00 26 3e f5 33 b8 3d 76 dd 90 bd 68 bd 2b be
       0.1621121 0.08994285 -0.0707349 -0.16771472
0001b0 43 e8 23 3e dc 8d 36 be 47 0c 05 3e 86 5b bb bd
       0.1600657 -0.17827553 0.12992965 -0.09148316
0001c0 b2 1f d3 3d be 4f 2a 3e 53 1a 08 3e 03 4a 0b be
       0.1030878 0.16631982 0.13291292 -0.13602452
0001d0 bb 7b eb bd c2 8e 46 be 7e 89 c7 bd 13 b9 82 3d
       -0.11498209 -0.19390395 -0.097430214 0.06382956
0001e0 c1 c4 0b 3e df 1c 29 bd d4 68 57 3e 3f 1b a6 bd
       0.13649274 -0.0412873 0.21036083 -0.081106655
0001f0 cf 55 e5 3d 52 bb 82 3c a4 b5 ba 3c c0 f7 fd bc
       0.11198007 0.015958462 0.022791691 -0.031001925
000200 b3 0b 1a be e3 fa 3b bd c2 34 2b be a0 8d 29 3e
       -0.15043525 -0.04589356 -0.16719344 0.16557932
000210 3b 21 09 3e 33 3c c0 bd 52 24 27 be 63 7c 4b bd
       0.13391583 -0.09386482 -0.16322449 -0.04967917
000220 36 10 4d 3e 3a ff ec bb ec 36 bf bc 7c 02 7b bd
       0.20025715 -0.007232574 -0.023341618 -0.061281666
000230 e2 9a d1 3d 3b 65 c6 bd 68 40 c9 bd e9 fa f8 bd
       0.1023462 -0.09687277 -0.09826738 -0.12157232
000240 10 c3 0f 3e 3a 05 3e 3e de 77 e8 3d 4a 1a 1a 3e
       0.14039254 0.18556681 0.11350988 0.15049091
000250 02 42 02 be 89 23 22 bd c3 3e 85 bc 7b c1 d6 bd
       -0.12720492 -0.03958467 -0.016265279 -0.10486122
000260 b6 97 b9 3d a4 b2 c0 3d 0f 79 35 3e f3 1a 50 3e
       0.0906214 0.09409073 0.17721961 0.2032278
000270 f0 97 99 3d d0 00 e2 bd 83 a6 24 3d 0a d2 d3 3c
       0.07499683 -0.11035311 0.04019786 0.02585699
000280 f2 fc 7b 3d 47 64 6c 3e 01 0f 74 be 0a 9f 9f 3c
       0.061520524 0.23085128 -0.23833849 0.019485015
000290 8a f7 e1 3d 33 48 03 3e f8 aa 33 3e ce 88 4a 3e
       0.110335425 0.1282051 0.17545688 0.1977875
0002a0 38 bb 6b 3e b6 04 19 3d 3f 9d a8 3d 9b 2d 10 3e
       0.23020637 0.03735801 0.08233117 0.14079897
0002b0 35 d9 76 3d b8 47 97 3e 62 5b be 3d da a4 75 3e
       0.06026574 0.29546905 0.09294774 0.23988667
0002c0 6c e3 1e be 23 a8 b8 bd 0e 99 9b 3d e8 9c 06 be
       -0.15516442 -0.090164445 0.07597552 -0.13145792
0002d0 a7 53 d6 3d 91 74 5d 3e 68 3d 30 3d 09 45 b9 3d
       0.10465174 0.21626498 0.04302731 0.090463705
0002e0 af ff d5 bd ba 45 32 be d9 43 f3 bb 91 e0 23 3e
       -0.104491584 -0.17409411 -0.0074238596 0.16003634
0002f0 c7 65 7c 3e d2 8a 9d bd 4f 44 26 bf a7 ef 5d 3e
       0.246482 -0.076924935 -0.6494798 0.21673451
000300 e9 d1 73 3e 48 20 81 3e 82 7b 85 3d eb 8a 34 be
       0.23810543 0.2521994 0.06517698 -0.17631118
000310 32 7a eb 3d 92 1b 9e bd 64 ad 42 3e 3f 15 7c 3e
       0.11497916 -0.07720102 0.19011456 0.2461748
000320 8d 57 16 3e 7b 8f 22 bd d5 fc 3b 3e 5d 65 e9 bd
       0.14681835 -0.039687615 0.18358167 -0.11396287
000330 58 1d 4f be 1d f8 72 3e 2e de f0 3d 6e 82 92 bc
       -0.20226038 0.2372746 0.117611274 -0.01788446
000340 6a d0 c7 3d 3c c0 c0 3d c4 ef 05 3d aa e7 b2 bc
       0.09756549 0.09411666 0.03269936 -0.021838982
000350 8c 16 b6 bc 76 3f 1e bd 8f 76 8c 3e 53 e9 8d 3e
       -0.022227548 -0.03863474 0.27434203 0.27717075
000360 48 c5 a0 bd da 01 60 be 17 c1 f6 bd 0b 1e 5a 3e
       -0.078501284 -0.21875706 -0.12048548 0.21300523
000370 84 e0 53 3d 00 79 da 3d d9 20 02 bf 4b 57 2e 3e
       0.051727787 0.1066761 -0.5083137 0.17025487
000380 40 d1 e3 3b 96 56 a9 3d 4c a8 00 3d 44 5b 3b bd
       0.006952435 0.08268468 0.0314105 -0.045741335
000390 c0 40 26 bc ec 3f 74 3d f4 66 77 bd 00 2f da ba
       -0.010147274 0.059631273 -0.060400918 -0.0016646087
0003a0 2a a6 11 be 80 8a fb bd b8 2e 4e 3d 46 48 f4 3d
       -0.14223543 -0.12282276 0.050337523 0.119278476
0003b0 55 cb 1c 3e 68 eb c6 bc 7b b0 02 3e 03 3b 11 3e
       0.1531194 -0.024282172 0.12762634 0.14182667
0003c0 90 2a 4e 3d 50 e0 52 bd 38 d2 8d 3d 07 9a 23 3e
       0.05033356 -0.051483452 0.06924862 0.15976726
0003d0 6e 16 c6 3d 29 83 34 be 12 20 05 be 36 97 8f bd
       0.09672247 -0.17628159 -0.13000515 -0.07011263
0003e0 07 99 21 3e f1 21 bb bd 13 e1 03 3e 11 57 da bd
       0.15781032 -0.09137333 0.12878828 -0.10661138
0003f0 6d 60 12 be 22 13 da 3d a1 5e 12 3e fa 7a cb bd
       -0.14294596 0.106481805 0.1429391 -0.09935565

bias f4 [8]
000000 44 98 ff bd f0 6a 64 3e b3 09 19 be 35 34 22 3e
       -0.12480214 0.22306418 -0.14945106 0.15840228
000010 e6 5f 2c 3d 4f 80 af 3e 50 42 84 3e 34 58 2b be
       0.042083643 0.3427758 0.25831842 -0.16732866

weight f4 [1, 8]
000000 54 bd 62 ba 02 f0 b6 3e e6 4a 5f be 86 a4 86 be
       -0.0008649428 0.35729986 -0.21805915 -0.26297396
000010 09 82 e4 bd b4 32 80 3e ff 14 87 3e 41 9f 8f be
       -0.11157615 0.25038683 0.26383206 -0.2805119

weight f4 [64, 4]
000000 26 01 a0 3e d0 ae 36 bf 18 f5 ca bf 24 ba 34 bf
       0.31250876 -0.7136049 -1.5856047 -0.7059653
000010 a7 2c 03 3e 2b 3a 49 3e da 0e 37 bf 3a b3 0e bf
       0.12810002 0.19651096 -0.71507037 -0.5574223
000020 c2 9a db 3b 6b 99 0f 3f a3 6e e6 3e c0 70 05 3f
       0.006701798 0.5609347 0.45006284 0.5212517
000030 1b 1d 80 3e 94 7b 8f 3e 32 13 1b 3f f7 79 36 3f
       0.25022206 0.2802397 0.60576165 0.71279854
000040 bd f9 49 3e 08 a7 a3 3e 32 87 ae 3e 4b d9 ae 3e
       0.19724174 0.31963372 0.3408752 0.34150156
000050 9f a3 9a be 66 65 ce 3e 99 b5 90 3f dd c9 36 3f
       -0.30202958 0.40311736 1.1305419 0.7140177
000060 ae 10 08 3f c7 1a b3 3d c8 10 b4 3f a4 78 9f 3e
       0.5315045 0.08745342 1.4067621 0.3114673
000070 2f 68 5c 3e e9 c7 ca 3e 54 61 91 3f 62 e7 01 3f
       0.21524118 0.39605644 1.1357827 0.5074369
000080 6d 86 92 be 47 78 10 bf ea 0b 91 be 93 d5 0b 3e
       -0.28618184 -0.5643353 -0.28329402 0.13655691
000090 f7 38 90 3e 23 95 92 3e 05 08 95 bf 31 6b 20 bf
       0.2816846 0.28629407 -1.1643072 -0.6266356
0000a0 32 7d 30 be 4f 91 cf 3e ac c6 a0 3f f0 8c 3b 3f
       -0.17235258 0.4054055 1.256063 0.7326193
0000b0 0c 65 56 be 4b b3 1f 3f 2a 84 be 3f a1 04 43 3f
       -0.20936984 0.62382954 1.4884083 0.7617894
0000c0 2b ec b1 3e f1 f6 80 3e 30 eb c3 3f d6 15 49 3f
       0.34750494 0.251884 1.5306149 0.78548944
0000d0 53 bb bd bd 9f 19 a0 be 37 32 c5 bf d6 a0 3c bf
       -0.09264245 -0.31269547 -1.5405949 -0.73682916
0000e0 70 12 b7 3e b0 cf 37 3e 07 44 c9 3f 3d c0 1f 3f
       0.35756254 0.1795032 1.5723885 0.6240271
0000f0 52 63 01 3f 38 7d 67 bd 8c 94 b8 3f 45 2f ec 3d
       0.50542176 -0.056515902 1.4420333 0.115324534
000100 24 74 8a 3e db be dd be c9 d2 47 3e 13 dd 89 3d
       0.27041733 -0.43309674 0.19514002 0.0673162
000110 0d 79 78 be d9 fe b7 3e 35 ec 41 be 4c 89 84 be
       -0.24264927 0.3593662 -0.18937762 -0.25886
000120 86 22 a4 be 28 84 38 bf 37 a1 8d bf 91 8a b8 be
       -0.3205759 -0.72076654 -1.1064824 -0.36043218
000130 c4 ff cb 3d 76 c2 fc 3e 37 9a 61 3f b3 f1 25 3f
       0.09960893 0.49367112 0.8812594 0.6482193
000140 ab 3c 9a 3e 27 41 22 bf 3a a6 c0 be a8 62 54 3e
       0.3012441 -0.63380665 -0.3762682 0.2074076
000150 48 14 70 3e 66 7d d4 be 76 11 9c 3e c8 bf d7 bd
       0.23445237 -0.4150192 0.30482072 -0.10534626
000160 8b cd ec 3d 43 ed 7d be 22 d3 c1 3e 2c 20 d5 3d
       0.11562642 -0.2479754 0.37856394 0.10406527
000170 cc 3d 07 3d a0 d9 a3 be 33 08 8f bf 76 b7 b5 be
       0.03301792 -0.32001972 -1.1174377 -0.35491532
000180 1d fa 14 3e 16 13 01 be d9 65 23 bf 41 d1 51 bd
       0.14548536 -0.12604937 -0.6382728 -0.05122495
000190 ea 40 3b be 60 0b 0c 3e 19 7e ac bf 88 a1 6c be
       -0.18286481 0.13676214 -1.3475982 -0.23108494
0001a0 26 9f 9b 3e f4 ab 06 bf 8b 76 25 bf e7 2a ef be
       0.30394858 -0.5260613 -0.6463401 -0.4671242
0001b0 57 dc 89 be ce 42 85 3d 32 c0 f3 bd ae 04 12 bf
       -0.26925918 0.065068826 -0.11901893 -0.5703839
0001c0 51 23 ef bd 3a f7 7e be a4 88 b3 bf 86 fb ad be
       -0.11676658 -0.24898997 -1.4026074 -0.3398096
0001d0 87 86 0e 3e 3b ac c3 be 04 f1 a7 bf 17 46 14 bf
       0.13918506 -0.3821734 -1.3120427 -0.5791945
0001e0 a8 15 34 be d3 c5 25 bf fd ab 23 bf 76 6b c6 be
       -0.17586386 -0.6475498 -0.6393431 -0.3875386
0001f0 15 b7 d1 bd 28 3b 2b 3f 60 b1 81 3f f8 22 f5 3e
       -0.10239998 0.6688714 1.0132256 0.47878242
000200 bb 4d 91 3e e2 d8 da bd e4 74 b4 3f 22 1d 1d 3f
       0.28379616 -0.10685898 1.4098172 0.6137258
000210 32 29 8f 3d 7d ef eb be 2b c0 5e bf 26 3d 3e bf
       0.06990279 -0.46081153 -0.87011975 -0.74312055
000220 74 c0 fa 3d 0c 14 87 3e c6 ec 51 3e 01 11 54 bd
       0.12243739 0.26382482 0.20500478 -0.05177403
000230 7d 08 92 3e 6a 8b 8d 3e fc 71 b1 3f 2e 9a 22 3f
       0.285221 0.27645427 1.386291 0.6351651
000240 25 e2 d1 3e 07 69 af bd c4 65 95 3f a2 4e f1 3d
       0.40992847 -0.08564954 1.1671681 0.11782576
000250 ed c2 94 be 8a 59 48 be 6e 72 87 3e 5d 16 9c 3d
       -0.29054967 -0.19565406 0.2645449 0.07621453
000260 21 0d c4 bd f3 a6 80 be ee e9 f2 bc 22 a2 a1 3e
       -0.09572817 -0.25127372 -0.029652562 0.3156901
000270 a4 9f ee 3e 4e 0a fc 3d 76 86 c1 3f 7e ff 22 3f
       0.4660617 0.12306653 1.5119159 0.636711
000280 d1 f3 d5 3d ac 59 c1 bd 21 9d 87 bf c5 0e 78 be
       0.10446895 -0.09440932 -1.0594827 -0.24224384
000290 a0 40 0c bf ae 6b 47 3e 7a b0 40 bf 08 38 52 be
       -0.5478611 0.1947467 -0.7526928 -0.20529187
0002a0 6b e0 73 be f3 70 f5 be 26 18 5d bf 9f 71 d9 be
       -0.23816077 -0.47937736 -0.8636497 -0.424695
0002b0 d1 73 0a bf 68 12 2b bf ad 45 87 be 0d d5 d8 be
       -0.5408297 -0.6682496 -0.26420346 -0.42350045
0002c0 44 2c 96 be 54 6c df bd 69 57 c1 be 75 84 33 bf
       -0.29330647 -0.10909334 -0.37762 -0.7012399
0002d0 97 a0 11 3c 8b 2c 40 bf 51 ef 49 bf 01 42 a7 bc
       0.008888385 -0.7506797 -0.7888079 -0.020417215
0002e0 2f 4d 50 be 83 47 0a 3e 29 55 16 bf eb e4 50 bc
       -0.20341943 0.13503842 -0.58723694 -0.012749891
0002f0 a2 38 4d be 8f d4 0e 3f 9a 32 f0 be 34 03 1c bf
       -0.20041135 0.5579309 -0.46913606 -0.6094239
000300 38 78 91 be de 9d e6 be 36 8b 47 be 94 b2 24 bf
       -0.28412032 -0.45042318 -0.19486699 -0.6433499
000310 e1 76 38 be 8a 38 70 be cf 92 66 bf 38 64 2a bf
       -0.18014099 -0.23459068 -0.9006776 -0.6655917
000320 1a 6f ff be 7a 92 a0 be 67 8f 33 3f 31 af e1 3e
       -0.4988945 -0.31361753 0.7014069 0.44078973
000330 a3 a5 f2 be 2e 9a 8a bc 4d 3e 9c 3e 1e ca d6 be
       -0.47391996 -0.016919222 0.30516282 -0.41951078
000340 27 dc 1e be 7a 7a 93 3e 1e 6e 51 3f 97 7d 2e 3f
       -0.15513669 0.2880438 0.8180865 0.68160385
000350 8b ea 9a bd d5 70 e9 bd 5c 1b 83 bf 08 5e 05 be
       -0.07564267 -0.11398474 -1.0242724 -0.13024151
000360 d6 39 a9 3e 5a ce cb 3d 17 ef 9e 3f d2 d1 eb 3e
       0.33051938 0.09951468 1.2416714 0.46058518
000370 ab e2 09 be 4e 78 34 3e 14 39 38 3e fa f1 20 3e
       -0.13465373 0.17624018 0.17990524 0.15717307
000380 f6 97 21 3e 00 83 2d be d7 c5 38 be ea e3 8a 3e
       0.15780625 -0.16944504 -0.1804422 0.2712701
000390 ef 53 ab be 71 75 02 bf e2 31 6d bf 71 a9 35 bf
       -0.33462474 -0.5096045 -0.9265424 -0.7096167
0003a0 09 b8 8e be 6d ee 0f 3f f2 5e 35 3f 3f e1 20 3f
       -0.27874783 0.56223184 0.70848 0.628437
0003b0 a8 5d 9e 3e c5 6c df be 9d de 42 bf a1 ef 34 bf
       0.3093083 -0.43637672 -0.7612093 -0.70678145
0003c0 d4 fc 1b be f3 83 29 3e 65 d7 9a 3f 3c 78 37 3f
       -0.15233165 0.16554241 1.2096983 0.7166784
0003d0 a9 88 88 be 16 f5 66 3d 2d d1 dc bf b4 4b 86 be
       -0.26666763 0.056386076 -1.7251335 -0.26229632
0003e0 be a3 a7 3e 7a 55 f0 bb 25 a2 3e bf 10 a4 b4 be
       0.32742113 -0.0073344084 -0.7446616 -0.3528142
0003f0 2d e9 73 be 2f 45 de be 5c e0 88 be fe f7 24 be
       -0.23819418 -0.43412158 -0.26733673 -0.16110227

bias f4 [64]
000000 14 28 13 3f b3 14 8e be 90 bf 64 3c 3c c2 c4 3d
       0.5748303 -0.27750167 0.013961688 0.0960736
000010 fa 43 42 bd 33 03 8e 3e 52 c1 8c 3e 6c 10 74 3e
       -0.04742811 0.27736816 0.27491242 0.2383439
000020 a1 1c 0d bd d3 88 89 be 94 04 92 3e 42 fc b0 3e
       -0.03445113 -0.268622 0.28519118 0.34567457
000030 17 48 87 3e 00 9e 13 3f 7d a9 50 3e 6a 6e af 3e
       0.26422188 0.57662964 0.20377155 0.34263927
000040 d5 0c da be 73 98 ab be 99 c7 d8 3e b4 c8 93 3e
       -0.42587915 -0.33514747 0.4233978 0.28864062
000050 a8 53 63 bb b2 92 ea be f2 8b bc be ac d0 14 3f
       -0.0034687314 -0.45815045 -0.3682552 0.5813091
000060 3f 99 11 3f 38 e3 81 3e be 83 65 3e 8c 58 eb bd
       0.5687446 0.25368667 0.22413537 -0.11491498
000070 f5 fa b4 3e 50 f5 67 3e 06 d7 01 3f f2 80 67 3e
       0.35347715 0.22652173 0.50718725 0.22607782
000080 09 4a 2e 3b ed ab 91 3e 12 f2 ee be a8 04 8e 3e
       0.0026594421 0.2845148 -0.4666906 0.27737927
000090 ac 4e d2 3e 11 85 1e be d4 64 98 be fe 32 64 3e
       0.41075647 -0.15480448 -0.29764426 0.22285077
0000a0 69 26 23 3e 1f 1a 5c bc 5a d5 0d 3f 4c e3 fb 3d
       0.15932621 -0.013433962 0.55403674 0.12299213
0000b0 2c 64 b3 3e 0c 3e 3a 3e 5c 3c 7b 3d 76 62 83 be
       0.35037363 0.18187732 0.06133686 -0.25661057
0000c0 f0 e5 8a 3e 8d 92 88 3e 1a 45 87 3e 23 31 e8 be
       0.27128553 0.2667431 0.26419908 -0.45349988
0000d0 5c dd e8 3e 20 e2 d5 3e 6d f6 94 3c 38 77 3f be
       0.45481384 0.41774082 0.018183911 -0.18697822
0000e0 da 1f 04 bf 1e 87 ef 3e 6a 33 06 bd 9b 1d 13 3f
       -0.516111 0.46782774 -0.032763876 0.5746705
0000f0 dd 1f 00 3f 98 46 d4 3e d4 25 30 be ae fe 9c 3e
       0.5004862 0.4146011 -0.1720193 0.30663055

weight f4 [32, 64]
000000 2e 9b 8e be 3b f7 19 be 43 26 ac 3e 26 e9 a2 3e
       -0.27852768 -0.15035717 0.3362294 0.31818503
000010 d3 72 d8 3d 72 1b 86 3e a5 d4 ca 3d b4 c1 cf 3e
       0.10568776 0.26192814 0.0990384 0.4057747
000020 08 92 32 bd 5f b3 fc bc 0d 85 94 3e 0f 8b 00 3f
       -0.043596298 -0.03084725 0.2900776 0.50212187
000030 64 5b 02 3f 5f 2e f5 bd 1e d8 b3 3e e3 a4 54 bd
       0.509207 -0.11971735 0.35125822 -0.05191506
000040 14 44 19 bc 79 c7 23 3d c9 90 76 be bb c7 80 3e
       -0.00935461 0.039985154 -0.24078669 0.25152382
000050 27 50 85 bd d7 c9 90 bd 42 f6 72 3d 5f 4a 1f be
       -0.065094285 -0.07069748 0.05931688 -0.15555714
000060 2f e7 ee 3c 46 e4 96 bc e4 52 2c be 17 fa 73 be
       0.029162971 -0.018419396 -0.16828495 -0.2382587
000070 1c 60 c6 bb 4c 1c d2 be 64 9c 10 3b 3f 6e 99 3e
       -0.0060539376 -0.41037214 0.0022065872 0.29966924
000080 1e d8 43 3e 1e 78 c3 be bb 73 90 3d c4 31 a3 3e
       0.19125411 -0.3817758 0.07053324 0.31873906
000090 6d 2d 7f 39 fb d7 d4 3c 16 eb 98 3b 37 36 95 3e
       0.00024335617 0.025981894 0.0046666963 0.29142925
0000a0 35 ec 53 be be ed 3b be 30 e3 d3 bd 58 1f 90 be
       -0.20695575 -0.1835241 -0.10346067 -0.28148913
0000b0 82 37 ae be 7c 6c 97 be 6e ac 28 3e ad 89 55 be
       -0.34026724 -0.29574955 0.16472027 -0.208533
0000c0 ce 58 c7 be 09 d3 bb be fa 44 0c be 7b d5 e2 bd
       -0.3893494 -0.36684445 -0.13698187 -0.110758744
0000d0 b9 e9 63 3e 22 a6 89 3d 28 d6 c7 3e 36 76 26 3e
       0.22257127 0.067211404 0.39030576 0.16256031
0000e0 3c f9 c7 3d d3 f7 a0 be f7 09 76 3e 0c 64 85 be
       0.097643346 -0.31439075 0.24027239 -0.26052892
0000f0 0a 76 a9 3e 89 59 b8 bc 2e 56 57 be 8e 91 83 be
       0.3309787 -0.022503631 -0.21028969 -0.25696987
000100 5c 11 6e bc 6a b6 23 bc a0 c8 e0 bd 5e ce e8 3d
       -0.014530506 -0.009992221 -0.10975766 0.113674864
000110 a0 1a 8e 3c 3f 51 12 be 1e bd 7e bd 13 c1 30 bb
       0.01734668 -0.14288805 -0.062192075 -0.002697055
000120 f0 15 b2 3d 9b e8 86 3d f5 0c d1 bd 3a 1e 48 bd
       0.086955905 0.06587335 -0.102075495 -0.04885695
000130 0c 98 ce bb 9c b0 77 3c ce d5 1a bd c7 a2 d2 bd
       -0.0063047465 0.015117791 -0.037801556 -0.102849536
000140 1c d5 7c 3d 47 53 ae bd 17 39 49 bd 7d 7c 1c be
       0.061726674 -0.08511978 -0.04912671 -0.15281864
000150 3a 3f e9 bc e9 e9 88 3d c8 e8 8b bd 7d c2 9f bd
       -0.028472532 0.0668524 -0.06831509 -0.078007676
000160 a8 20 60 bd 2f 56 31 bc 65 b8 64 bd d8 e3 2c bc
       -0.054718643 -0.01082377 -0.055839915 -0.010552369
000170 1c 3f 35 bd 55 a0 71 3d f0 6f ec 3b 32 8e 02 be
       -0.04424964 0.058990795 0.0072154924 -0.12749556
000180 04 36 e5 3d c9 3f 80 bb 19 96 b2 bd 8e 02 d0 bd
       0.11191943 -0.003913854 -0.08720035 -0.10156737
000190 31 58 d0 bb cd be b7 bc 29 95 73 3d f9 07 e4 3d
       -0.0063581695 -0.022429848 0.059468422 0.11134333
0001a0 bb bd df bd b1 19 91 3d a1 fc b8 3d b6 a2 dd bc
       -0.1092486 0.07084978 0.0903256 -0.027055126
0001b0 92 bb 08 bd 03 3f bf 3a 86 3e 7e 3d 4a 3c f9 3d
       -0.033382006 0.0014590923 0.062071346 0.12169702
0001c0 49 45 00 3c e9 e6 a0 3d fc 2c 4a 3d d1 86 0f be
       0.007829019 0.078565426 0.049359307 -0.14016272
0001d0 9a b8 ee bc 76 1e d1 bb 78 a9 f7 bd 28 4b 49 3b
       -0.02914076 -0.006381805 -0.120928705 0.0030714963
0001e0 20 0f ea 3b c3 70 33 bc 9a 13 f1 bd 7c ae af 3d
       0.0071429163 -0.010952177 -0.11771317 0.08578202
0001f0 5f 50 2c be 4f f4 4d bd cb a1 97 3d 73 4b 28 3d
       -0.16827534 -0.05028182 0.074039064 0.04108758
000200 8a ee c6 bd a2 53 87 bd e5 b4 9f 3c f1 7d 11 3e
       -0.097134665 -0.066077486 0.019495437 0.14208199
000210 85 fc ac bd db 7f d7 3c a4 0b 9b 3d 00 97 b9 3c
       -0.08446602 0.026306083 0.0757058 0.02265501
000220 c5 10 52 bd 71 01 45 3d 0b ed 21 3d fc cb 0c be
       -0.051285524 0.048097078 0.039532702 -0.13749689
000230 35 0a c9 bb 74 8b e0 bc f3 40 cb bd e6 4c c3 3d
       -0.00613525 -0.027410246 -0.099244975 0.095361516
000240 94 d0 78 bb 39 69 21 bb 98 ff 46 bc 02 8e 8e bd
       -0.003796612 -0.0024629368 -0.012145899 -0.069606796
000250 72 9a a2 bd 01 9f aa 3d 67 c7 f4 bd b9 e7 cc 3c
       -0.07939614 0.08331109 -0.119520955 0.025012838
000260 99 c1 7e bc 47 48 0d be 07 31 eb 3d 9f 7d 93 bd
       -0.015549087 -0.13797103 0.114839606 -0.07201695
000270 89 86 86 3c 81 a6 71 3d 74 ff e4 bd c1 0d 6f 3d
       0.016421573 0.05899668 -0.11181536 0.058362726
000280 f3 6a c2 3d 81 6b ca bc fd 1d 9f bd 45 7a fb bd
       0.09493055 -0.024709465 -0.07769392 -0.122791804
000290 00 ec 8a 3d a3 aa 9a 3c 73 d9 40 bd 9a 5a d1 bd
       0.06783295 0.018880194 -0.047082376 -0.10222359
0002a0 e5 1a a0 3c a5 35 87 3d cf 2f 3b b9 6b 61 0c be
       0.019544074 0.06602029 -0.0001785152 -0.13709037
0002b0 7f ef 28 bd 01 18 bb 3d 62 07 9d 3c cb a0 c2 bd
       -0.041244026 0.09135438 0.01916856 -0.09503325
0002c0 4c 7d a2 3d 07 04 95 bd bf 1b 1a 3d d1 0d ef 3d
       0.07934055 -0.07276159 0.037624117 0.11672557
0002d0 84 70 90 bd 4b 23 85 bc 7a 11 bb 3d 04 0a a8 3d
       -0.07052711 -0.01625218 0.09134193 0.08205035
0002e0 84 15 d2 bd 46 51 b6 bd 04 21 df bd 38 e4 28 bd
       -0.1025801 -0.089022204 -0.10894969 -0.04123327
0002f0 3a 00 db 3d de ae 7d 3d 90 86 d3 bd 45 1b c0 bd
       0.106934026 0.061934344 -0.103284 -0.09380201
000300 29 8e 3a be 16 c0 34 bd 99 39 ab 3e 27 c3 15 3f
       -0.18218292 -0.0441285 0.3344238 0.58500904
000310 f8 19 a7 3e f8 0c f8 3e 2e 18 38 3e 77 64 03 3f
       0.32637 0.48447394 0.17977974 0.5132517
000320 5f ec 03 be b2 14 ac bd 97 bf ac 3e a7 0e 08 3f
       -0.12883137 -0.08402385 0.3373992 0.5314736
000330 96 63 ea 3e f4 df 12 be e3 53 a1 3e fb 21 6e 3e
       0.45779103 -0.14343244 0.31509313 0.2325515
000340 82 21 bb 3d b6 18 eb 3d 1f 0e 4f be f5 47 fa 3e
       0.091372505 0.114793226 -0.2022023 0.48883024
000350 4a fb 64 3d 47 41 01 3d d8 67 87 3d ed 6e ee bc
       0.05590371 0.031556394 0.066116035 -0.029105628
000360 18 d2 6e bc cd 48 66 bd c5 81 a1 bd 18 55 89 be
       -0.014576457 -0.056221772 -0.0788608 -0.26822734
000370 8c 21 24 be 22 23 e4 be 91 ef c3 3c 43 7f d9 3e
       -0.16028422 -0.44558054 0.023917945 0.42479905
000380 8a 9f f5 3d d7 00 c0 be cf b3 ee bc 52 fb 12 3f
       0.1199332 -0.3750064 -0.029138474 0.57414734
000390 a7 da 67 3e 76 36 fc 3c e5 e1 96 3d fa 59 21 3f
       0.22642003 0.030787688 0.07367305 0.6302792
0003a0 a7 db 73 be 5a 02 7a be 32 43 ed bd dd 38 76 be
       -0.2381426 -0.2441496 -0.11585082 -0.24045129
0003b0 e8 f7 97 be 33 3f 1a be ed a4 24 3e 1e 30 47 bd
       -0.29681325 -0.15063171 0.16078539 -0.048629873
0003c0 dd a8 da be ea d3 ba be de 0d 5c 3c 95 d7 7a bd
       -0.42706957 -0.36489803 0.013431041 -0.06124075
0003d0 0e 6e ad 3e 49 71 b1 3d 05 48 e3 3e 78 38 e4 bc
       0.33873028 0.086641856 0.44390884 -0.027858958
0003e0 6a c5 7c 3d f3 84 bc be e4 9f e4 3e b1 21 f3 bd
       0.061711706 -0.36820182 0.44653237 -0.118716605
0003f0 7b 5b e9 3e 5d 39 29 be ee a7 2a be cb 11 5c be
       0.45577607 -0.16525789 -0.16665623 -0.21491162

bias f4 [32]
000000 56 54 09 3e ba 54 06 be db 0f 2c bd 78 2a e4 3d
       0.13411078 -0.13118258 -0.04200731 0.11140913
000010 36 00 f4 3d 3a ab d0 bd 15 0d 11 3e 05 55 65 3d
       0.11914103 -0.10188909 0.14165147 0.055989284
000020 76 ef 27 bd 02 e3 aa 3d 16 78 d5 3d 2f a9 fa bd
       -0.040999852 0.083440796 0.10423295 -0.122393005
000030 9a c5 49 bc b5 e4 48 3d 06 e3 45 3d dc 02 ff 3d
       -0.012315178 0.049046237 0.04831221 0.12451717
000040 65 2c 59 3d 6c 8c 17 bc 62 31 25 3e 80 fb c8 3d
       0.053020854 -0.009249788 0.1613212 0.09813595
000050 dc 70 c6 bc 5d a7 3b 3d 0f e9 88 3d 45 d9 d1 3d
       -0.024223737 0.045813907 0.066850774 0.10246519
000060 0f 55 31 bb 81 5b 0b 3e 98 b8 26 3d 7d a4 64 3e
       -0.0027058756 0.13609125 0.040703386 0.22328372
000070 c4 ff da bd 4e d4 c5 3d 9d 5e a4 3d 23 09 f7 bd
       -0.10693315 0.096596345 0.080258586 -0.120622896

weight f4 [8, 32]
000000 f1 61 2d be 40 8d 04 be 64 60 01 3e d4 50 a4 be
       -0.16931893 -0.12944508 0.12634426 -0.32092917
000010 d7 60 8d be 08 fc 38 bf 97 e8 b8 be a7 76 03 3e
       -0.27612945 -0.7225957 -0.36114952 0.12838231
000020 97 36 11 be fd c0 d2 be 26 4e 0a 3f d5 d9 92 3c
       -0.1418098 -0.41162863 0.54025495 0.017926136
000030 e5 a0 f6 3e 7e e4 cd be c2 f2 88 bc df 0a 96 3e
       0.48169628 -0.40213388 -0.016717318 0.2930517
000040 c7 10 de bd 05 29 89 be ce d0 8e 3c e6 b8 04 bf
       -0.10843044 -0.26789108 0.01743355 -0.5184463
000050 2c 46 3d 3e 21 0e 26 3f 98 b4 05 3f ad 34 07 3f
       0.184838 0.6486531 0.5222869 0.5281475
000060 27 ea 8e be 29 a8 a1 3e 5f 45 30 be c0 b7 0a 3f
       -0.2791302 0.3157361 -0.17213963 0.5418663
000070 eb 2e 19 3e 84 c1 17 3f 7d 55 ba bd 9b 46 7d bd
       0.14959304 0.59279656 -0.09098337 -0.061834913
000080 24 44 09 3f 19 d5 f2 3d 31 7b 77 3d da a9 ff 3e
       0.536196 0.118570514 0.06042022 0.49934274
000090 95 f2 aa 3e 34 c2 03 3f 5c 6e f7 3e 42 1f 11 be
       0.333882 0.51468205 0.48326385 -0.1417208
0000a0 fc 93 b4 bd 2c 9a a3 3e c6 6c a3 be f4 6a b4 bd
       -0.08817288 0.3195356 -0.31918925 -0.08809462
0000b0 13 12 c8 be e1 09 8d 3e 7d c0 15 3d 9e 28 91 be
       -0.3907629 0.275466 0.036560524 -0.283513
0000c0 2a cf fa bc ff eb f0 3e bd bf d5 3e 18 18 c3 3e
       -0.030616362 0.4705505 0.41747847 0.3810432
0000d0 c9 ba 2d 3e aa 3b d5 be be f1 d9 be 35 f5 00 bf
       0.16965784 -0.41647083 -0.42567247 -0.50374156
0000e0 e1 85 e6 3e 6f f3 e9 be 98 21 63 3d bd b3 27 bd
       0.45024016 -0.45693538 0.05545196 -0.040942896
0000f0 9b 4b 1f 3e b2 bf fa be 08 4e d1 bd 94 be 07 be
       0.15556185 -0.48974377 -0.102199614 -0.13256294
000100 7d c3 d5 3d 4f e8 3f bd 62 31 93 3d 43 15 8b 3a
       0.10437677 -0.046852406 0.071871534 0.0010611195
000110 40 d9 2f be 12 bc 76 3d bc 44 43 3d 26 6f 0d be
       -0.17172718 0.06023795 0.047672972 -0.13811931
000120 d7 e3 c5 3d c8 ab b8 bd b6 5b 71 bd f9 78 22 3e
       0.096625976 -0.0901714 -0.058925353 0.1586646
000130 cf ef 9e bd c9 99 11 be bb 6a 01 3e 41 dd 8e bd
       -0.077605836 -0.1421882 0.1263837 -0.069757946
000140 40 fa 08 3d 2f e0 1e bc 91 67 64 bd 67 43 7a bd
       0.033441782 -0.009697004 -0.05576283 -0.061099436
000150 72 8e 1a 3c ad f0 39 be 94 d6 b2 bd 85 76 17 be
       0.009433376 -0.18158217 -0.08732334 -0.14791305
000160 85 4a 15 bd db 7b ca 3d 90 60 0f be 00 e0 9d bb
       -0.03644802 0.09886905 -0.1400168 -0.0048179626
000170 b1 58 bf 3c ad 83 fc 3b 37 29 06 3d a0 48 1c 3d
       0.023357721 0.0077061267 0.03275415 0.038155198
000180 79 da e7 be a3 38 6c 3e 91 50 1b 3e 3b 79 5c be
       -0.4528387 0.2306848 0.15167452 -0.21530621
000190 e4 cb a4 be 13 d4 28 bf af 8c 50 be 23 86 11 be
       -0.32186806 -0.659486 -0.20366167 -0.14211325
0001a0 84 3f 17 3e 41 e9 e0 be f8 9c 24 3f e9 09 95 3d
       0.14770323 -0.4392796 0.64302015 0.07277281
0001b0 81 53 1c 3f 42 07 c9 be 33 38 5d bd cc 46 13 3f
       0.61064917 -0.3926335 -0.054008674 0.575299
0001c0 3b ae 1c 3e f0 f5 aa be f9 c6 40 be 3f 71 db be
       0.15300839 -0.3339076 -0.18825902 -0.42859837
0001d0 d9 a6 ee 3d d1 52 27 3f 0b ff ca 3e 63 92 37 3f
       0.116529174 0.6536074 0.39647707 0.71707743
0001e0 12 0a c7 be 7f f1 22 3f b6 f3 fc bd 24 0f 05 3f
       -0.3887487 0.63649744 -0.12351172 0.5197623
0001f0 ef 9a 7b 39 5f f0 d4 3e 9d 53 1a 3d 8d f4 30 3e
       0.00023994943 0.4158964 0.037677396 0.17280789
000200 73 e5 d9 3e 04 d8 3f be 16 f1 88 3d 79 07 f4 3e
       0.42557868 -0.18734747 0.066866085 0.4766195
000210 cb bb 0c 3f 44 48 c5 3e 50 79 cb 3e 86 4d 26 be
       0.5497405 0.38531697 0.39740992 -0.1624051
000220 44 0d 84 3d 91 ef 2f 3f 0e ae c2 be a9 fb 0e 3e
       0.06447843 0.68724924 -0.38023418 0.13963188
000230 28 9e 21 bf 4a 6a 0e 3f d8 55 96 bd 6e 7b fe be
       -0.6313195 0.55630934 -0.07340592 -0.49703544
000240 cd e6 6f 3c 0e 8b ba 3e d4 e1 92 3e 46 0f f3 3e
       0.01464243 0.36434215 0.28687918 0.4747259
000250 13 ed 91 3e 68 15 0c bf 8e 3d dd be 56 7b fe be
       0.28501186 -0.54720163 -0.43211025 -0.49703473
000260 2d 8a 08 3f cf 8b 18 bf 22 21 9a bd dc 4c 31 be
       0.5333584 -0.5958833 -0.07525851 -0.17314476
000270 fd 54 64 bd 71 e4 96 be 0a b0 fd 3d 85 72 91 bd
       -0.055745114 -0.29471162 0.123870924 -0.07101921
000280 4f 14 c0 3e 82 62 26 be 88 73 9c 3c 00 d9 09 3f
       0.37515494 -0.16248515 0.019098058 0.5384674
000290 82 e6 e8 3e 41 a0 d4 3e 71 22 03 3f 4a 0e 2e bd
       0.45488364 0.41528514 0.5122443 -0.042494096
0002a0 dd cc 31 bd cf 86 e8 3e 28 d9 e4 be b1 a3 dc bd
       -0.043408263 0.4541535 -0.44696927 -0.10773409
0002b0 07 79 02 bf db 36 f3 3e a0 05 d0 bd 86 35 99 be
       -0.50965923 0.4750279 -0.10157323 -0.29923648
0002c0 bd 9e 75 3d 23 15 e3 3e 48 d0 a6 3e 53 17 f1 3e
       0.059965838 0.44352064 0.3258078 0.47088107
0002d0 f8 81 fd 3d 30 e6 b9 be ed 30 ad be 4f 02 ed be
       0.12378305 -0.36308432 -0.3382639 -0.46290824
0002e0 91 88 03 3f 96 d1 06 bf 9b 25 13 be 27 07 6e be
       0.5138026 -0.5266355 -0.14369814 -0.23244916
0002f0 ea 1f 49 3c 92 88 02 bf c5 00 1a be 1d 58 15 3d
       0.012275675 -0.5098964 -0.15039356 0.036460984
000300 48 80 cf be da 16 29 bd 47 2c ff 3c 30 b9 4d be
       -0.40527558 -0.04128156 0.031149043 -0.20090175
000310 bc 05 06 bf a9 aa 44 bf 42 4d 34 be f3 65 8a 3b
       -0.523525 -0.76822907 -0.17607597 0.004223579
000320 0f bb 20 bd 51 89 b9 be ef 6e fc 3e d6 bf 1d 3e
       -0.039240893 -0.36237577 0.49303386 0.15405211
000330 6a 25 03 3f 52 37 6c be d0 a2 c0 3d 18 62 b1 3e
       0.51228964 -0.23067978 0.09406054 0.34645152
000340 1c 4a a3 bd f9 5b e6 be 5f 48 b2 be a0 a9 89 be
       -0.079731196 -0.44992045 -0.3482084 -0.26887226
000350 dd 78 0d 3e e9 43 d1 3e a2 84 26 3f 67 d3 0a 3f
       0.13815637 0.40872124 0.6504613 0.54228824
000360 fe f7 89 be 89 55 cd 3e 06 eb ee bd fe 45 1b 3f
       -0.26947016 0.4010432 -0.11665921 0.60653675
000370 e9 9a cc bd e5 ff 02 3f 80 1a ae 3d 66 7f 55 bd
       -0.09990484 0.51171714 0.08501148 -0.05212345
000380 44 7e 92 3c 84 1c a4 bd 36 53 9d 3d 79 08 58 bd
       0.017882474 -0.080132514 0.07681887 -0.052742455
000390 7c 61 a0 bd 0b 75 9c 3d 20 95 0e 3e 50 40 43 3c
       -0.07831094 0.07639512 0.13924074 0.011917189
0003a0 05 81 21 3e 9e 8f 13 bd 28 5c 34 be b9 86 2d be
       0.15771873 -0.036025636 -0.1761328 -0.16945924
0003b0 9f be a4 bd 0d fd 3f 3c 28 c1 d8 3c 68 31 c7 bc
       -0.080441706 0.011718047 0.026459292 -0.02431555
0003c0 e2 df fa 3d bd 8f b2 3d 78 57 b1 bd 87 e6 bd 3d
       0.122497335 0.08718822 -0.086592615 0.09272485
0003d0 cb 55 33 be 5c 21 92 3d 22 09 03 3e 39 ef ef bc
       -0.17513196 0.07135269 0.12796453 -0.029288875
0003e0 90 a7 a1 3c 15 0e a9 bd f8 15 96 bc c8 90 c0 bd
       0.01973322 -0.08254639 -0.018321022 -0.09402615
0003f0 0b 54 ba bd b7 f2 74 3d b1 13 1d be 0c c3 29 be
       -0.09098061 0.059801783 -0.15339543 -0.1657831

bias f4 [8]
000000 b5 94 0b 3d 84 5f 81 3d 40 70 ea 3d 30 26 6e 3e
       0.034077365 0.06317046 0.11447191 0.23256755
000010 ab 82 11 3e 34 22 b7 3e 3d cf f9 3d 8d a6 96 bd
       0.14210002 0.35768282 0.12197731 -0.07355986

weight f4 [2, 8]
000000 a5 29 81 3f e5 17 fb be 01 06 6a be d7 74 82 3f
       1.0090834 -0.49041668 -0.22853853 1.0191907
000010 48 fa 47 bf 75 fd 70 bf 3e 86 44 3f 81 85 43 3e
       -0.78116274 -0.94136745 0.7676734 0.19093896
000020 fe 8a 5d bf b5 b8 6a 3f 96 9c 8f be a4 7c 29 bf
       -0.8654021 0.9168809 -0.28049153 -0.6620581
000030 18 e6 38 3f 07 ca 09 3f 44 1e 70 bf 06 9b 0a be
       0.72226095 0.53823894 -0.9379618 -0.13535699

bias f4 [2]
000000 cc d1 c7 bd 7c ac f6 3d
       -0.097568125 0.120446175
