params/backup/ppo_policy.pkl (torch_old, 47063 bytes, 6 tensors)

weight f4 [128, 8]
0	0xbe7429cb	-0.23844068
1	0xbe926cc5	-0.2859861
2	0xbe95dda0	-0.2927065
3	0x3c99b672	0.018763755
4	0xbe959598	-0.29215693
5	0xbd2b3e35	-0.041807372
6	0x3eada83b	0.33917412
7	0x3ebfef0a	0.3748706
8	0xbe3cbb04	-0.18430716
9	0xbe9606d8	-0.29302096
10	0xbdae35f2	-0.08506383
11	0x3de4034a	0.1113344
12	0x3cb7152e	0.022348966
13	0x3d539ae7	0.0516614
14	0xbcfd505e	-0.030922111
15	0xbe358620	-0.17726946
16	0xbe9132a5	-0.2835895
17	0xbc88a265	-0.016678998
18	0x3bf1a72b	0.0073746643
19	0x3e97c2af	0.2964072
20	0xbe7c36a7	-0.24630223
21	0x3c65d715	0.01402833
22	0x3ddd3daa	0.10802777
23	0xbdfaea45	-0.122517146
24	0x3db296e3	0.087201856
25	0x3d8081c5	0.062747516
26	0x3e20da67	0.15708314
27	0xbbe063fb	-0.006847856
28	0x3deaff2d	0.11474452
29	0xbaa4bc22	-0.0012568275
30	0x3e70271a	0.23452416
31	0x3d83e9da	0.06441088
32	0xbea68681	-0.32524493
33	0xbc22f6a4	-0.009946499
34	0x3c5265bd	0.012841639
35	0x3eaf3606	0.34220904
36	0xbea2bfe2	-0.3178702
37	0x3d85900c	0.065216154
38	0xbd111047	-0.035415914
39	0x3e307d2b	0.17235248
40	0xbdfcbaba	-0.12340303
41	0xbe27722a	-0.16352144
42	0xbea81fe3	-0.32836828
43	0xbeb7d59b	-0.35905156
44	0x3e27a6e5	0.16372259
45	0xbe1406ae	-0.14455673
46	0xbe975f60	-0.29564953
47	0xbe2782b5	-0.16358455
48	0x3c806143	0.015671378
49	0xbe466171	-0.19373108
50	0x3e028844	0.12747294
51	0xbdaa7c19	-0.08324451
52	0x3e6fea5c	0.23429245
53	0x3e9658f4	0.2936474
54	0x3d9ec931	0.07753218
55	0x3cd2a96a	0.025715549
56	0xbc87c5e7	-0.01657386
57	0xbe01e7a5	-0.12686022
58	0xbeb694aa	-0.35660297
59	0xbb9c9719	-0.0047787544
60	0x3eae53a4	0.34048188
61	0xbe9ff5fd	-0.31242362
62	0xbd500995	-0.050790388
63	0xbe1c247a	-0.1524829
64	0xbe85389a	-0.26019746
65	0x3e4bfa74	0.19919759
66	0xbdb8c5f6	-0.09022133
67	0x3d39a020	0.045318723
68	0x3ea33841	0.31878856
69	0xbe3835b1	-0.17989232
70	0xbe936140	-0.28785133
71	0x3eb31b99	0.34981993
72	0xbc4c6ca6	-0.012477076
73	0xbe84daf0	-0.25948286
74	0x3e9bba19	0.3041542
75	0xbe70a1b8	-0.23499191
76	0xbda65bd5	-0.08122984
77	0xbcd7fc37	-0.026365383
78	0xbdf0f05d	-0.11764596
79	0xbd547e60	-0.051878333
80	0x3e91c3bb	0.28469643
81	0x3d854cce	0.0650879
82	0xbd60586f	-0.054771837
83	0xbe4cbcee	-0.19993946
84	0x3e22d0ae	0.15899917
85	0x3e593a91	0.21213748
86	0xbdc00d55	-0.09377543
87	0xbdc32d22	-0.09530093
88	0xbe0e4c9b	-0.1389641
89	0x3e71f7fc	0.23629755
90	0xbdda22cd	-0.10651169
91	0xbec253c1	-0.37954524
92	0x3d77d5bd	0.06050657
93	0xbe95e9ff	-0.29280087
94	0xbe42fd59	-0.19041957
95	0xbe60f5c3	-0.2196875
96	0x3ea3be41	0.3198109
97	0xbeb06916	-0.34455174
98	0x3e4a04b7	0.19728361
99	0xbbc004d5	-0.005859951
100	0xbd09d8e9	-0.033654127
101	0xbe96a0c3	-0.29419526
102	0x3e0285cc	0.12746352
103	0x3dad789b	0.08470269
104	0xbcf24c46	-0.029577386
105	0xbd656f69	-0.056014452
106	0x3e8883ba	0.26663
107	0x3bbd4691	0.0057762344
108	0xbeaa87a6	-0.33306617
109	0x3e62ebd3	0.22160272
110	0x3ea38bcd	0.31942597
111	0xbdb953ce	-0.090491876
112	0xbe203716	-0.15646014
113	0xbce21f74	-0.027602889
114	0x3eb750bc	0.35803783
115	0x3eb3ae01	0.35093692
116	0x3e512b98	0.20426786
117	0x3e87da9d	0.26533976
118	0x3eb76ea1	0.3582659
119	0x3c98ac78	0.018636927
120	0xbe4519b4	-0.19248086
121	0xbded0ae9	-0.115743466
122	0xbe0aefc3	-0.13568024
123	0xba9797a4	-0.0011565578
124	0x3e8ed1e5	0.27894512
125	0x3e9139a8	0.283643
126	0x3eabd4af	0.33560702
127	0xbe0d7eea	-0.13817945
128	0xbe087201	-0.13324739
129	0x3eb3a784	0.35088742
130	0x3dfd3335	0.123632826
131	0xbab4c260	-0.0013790838
132	0xbe7f50ae	-0.2493312
133	0x3e9f72f8	0.31142402
134	0xbe5a60d3	-0.21325998
135	0x3d6bd635	0.05757733
136	0x3e5ef491	0.21772982
137	0x3dbbc984	0.091692954
138	0x3dfef304	0.12448695
139	0xbe7518b5	-0.23935206
140	0x3e781a39	0.24228753
141	0x3d970933	0.073748015
142	0xbe585fbf	-0.21130274
143	0x3e7de420	0.24794054
144	0x3ea2e0ff	0.31812283
145	0x3e5f5e75	0.21813376
146	0x3e1c7d17	0.15282093
147	0x3d7f8151	0.062379185
148	0x3cc2b34e	0.02376714
149	0x3de6427a	0.11243148
150	0xbe8b79c0	-0.27241325
151	0xbe9daecb	-0.3079742
152	0xbd5b12c5	-0.053484697
153	0x3df42884	0.1192179
154	0xbe0c84f8	-0.13722599
155	0xbe08e94b	-0.13370244
156	0xbd951b46	-0.072805926
157	0x3e178deb	0.14800231
158	0xbe1435fa	-0.14473715
159	0x3cfa2b77	0.030538304
160	0xbe688f76	-0.22710976
161	0x3e848903	0.25885782
162	0xbe4d9ff8	-0.20080554
163	0x3e8153de	0.25259298
164	0x3ea42215	0.32057253
165	0x3eb4e024	0.35327256
166	0xbea28b00	-0.31746674
167	0xbdea21bb	-0.11432215
168	0x3d4805f2	0.048833795
169	0x3ba99545	0.005175265
170	0xbe5dfa3e	-0.21677491
171	0xbeae6b48	-0.34066224
172	0xbe83ff02	-0.25780493
173	0x3e30f50a	0.17280975
174	0xbe39608d	-0.18103237
175	0xbebce906	-0.36896533
176	0x3e1b0dd6	0.15141997
177	0xbe838589	-0.25687817
178	0x3d46ee8b	0.048567336
179	0xbe5ccea2	-0.21563199
180	0xbe97187d	-0.2951087
181	0x3e9e3a06	0.30903643
182	0x3de7d8e0	0.113206625
183	0xbd018a3b	-0.031625967
184	0xbe4919fc	-0.19638819
185	0xbe52dcbb	-0.20592014
186	0xbeb3febd	-0.35155287
187	0x3e4fad70	0.20281005
188	0xbde13b80	-0.10997677
189	0xbceb2dd9	-0.028708385
190	0xbe9b4fd8	-0.30334353
191	0x3c1d3c56	0.009596905
192	0x3de949ca	0.11391027
193	0xbe958269	-0.29201058
194	0xbe8e9b47	-0.27852842
195	0xbe8c0413	-0.27346858
196	0xbc2463da	-0.010033572
197	0x3e4ce123	0.20007758
198	0x3ca880e5	0.020569274
199	0x3e81a61c	0.25322044
200	0xbcb81a1b	-0.022473386
201	0xbd25fc1d	-0.040523637
202	0x3e00bbe1	0.1257167
203	0xbe0208c0	-0.1269865
204	0xbe0a9fef	-0.13537572
205	0xbe730af0	-0.23734641
206	0xbe0bc949	-0.13651003
207	0xbe34c537	-0.17653356
208	0x3e87026f	0.26369044
209	0x3ea2c998	0.3179443
210	0xbe895a2f	-0.26826617
211	0xbea1b17e	-0.31580728
212	0xbe09b2ff	-0.13447188
213	0xbe933d2d	-0.2875761
214	0x3eabcdbe	0.33555406
215	0xbaa64f08	-0.0012688348
216	0xbe8b64ba	-0.27225286
217	0x3e43715c	0.19086212
218	0x3e276343	0.16346459
219	0x3e08ad19	0.13347282
220	0xbea7e24d	-0.3278984
221	0x3e050811	0.12991358
222	0x3ba833ee	0.0051331436
223	0x3d23dd52	0.04000599
224	0xbe99b8c2	-0.30023772
225	0xbd54d044	-0.05195643
226	0xbd017cfe	-0.031613342
227	0x3e38abd0	0.18034291
228	0xbea91861	-0.33026412
229	0xbe97cc02	-0.29647833
230	0x3e9e8368	0.3095963
231	0x3cfb4625	0.030673096
232	0xbe8f0d51	-0.27939847
233	0x3ea40390	0.32033968
234	0xbe3c9131	-0.18414761
235	0xbd7d33c8	-0.06181696
236	0xbeaba718	-0.3352592
237	0x3e94196d	0.28925648
238	0x3e052635	0.13002856
239	0xbe8dcb37	-0.27694103
240	0xbe3039d3	-0.17209558
241	0xbe080fcf	-0.1328728
242	0xbe815ac7	-0.2526457
243	0xbe93d01c	-0.28869712
244	0x3e55f32d	0.20893545
245	0xbe1fc2c7	-0.15601645
246	0xbe06c9ae	-0.13162872
247	0x3e76eb64	0.24113232
248	0xbeac71c4	-0.33680546
249	0x3df82866	0.121170804
250	0xbdc4c605	-0.09608082
251	0x3ea34e98	0.318959
252	0x3d864608	0.06556326
253	0xbe8cbe7f	-0.27489087
254	0xbe24624f	-0.16053127
255	0xbeb5dc93	-0.35519847

bias f4 [128]
0	0x3e877643	0.26457414
1	0xbddf5832	-0.10905494
2	0x3e9e325f	0.30897805
3	0xbe983991	-0.2973142
4	0xbe4e65e4	-0.20156056
5	0x3e86b4d3	0.26309833
6	0xbe454050	-0.19262815
7	0x3e12984d	0.1431591
8	0x3b779336	0.0037776954
9	0x3d82fa58	0.063954055
10	0x3eaf516c	0.34241807
11	0x3e9cb962	0.30610186
12	0xbcb7a0c1	-0.02241552
13	0xbca0ea11	-0.019642862
14	0x3ea46e13	0.3211523
15	0xbe32f979	-0.17477979
16	0xbea6d535	-0.3258454
17	0xbea62756	-0.32451886
18	0x3e57d887	0.21078692
19	0x3e95c500	0.29251862
20	0xbe216b4a	-0.15763584
21	0x3e20ce55	0.1570371
22	0x3dd0f246	0.1020246
23	0x3ea42025	0.32055774
24	0x3d61978e	0.055076174
25	0xbeb363f1	-0.35037187
26	0xbe93a0eb	-0.28833708
27	0xbeacdc86	-0.33761996
28	0x3dd7baa5	0.105336465
29	0xbd76a86f	-0.060219225
30	0xbd133c78	-0.03594634
31	0x3da7b817	0.08189409
32	0x3eb7e652	0.35917908
33	0x3e821fb3	0.2541481
34	0x3ebb4400	0.36575317
35	0xbe2210c3	-0.15826707
36	0xbe2ba5a3	-0.16762404
37	0xbe3f2f43	-0.18670373
38	0xbe49e89f	-0.19717644
39	0x3dd021b7	0.101626806
40	0xbd829f68	-0.063780606
41	0xbe9a6972	-0.30158573
42	0xbdafe6ef	-0.08588969
43	0xbe024fef	-0.12725805
44	0xbdffc113	-0.12487998
45	0xbe6d570b	-0.23177736
46	0x3ea3ac9d	0.3196763
47	0xbe010a86	-0.1260167
48	0x3d1da339	0.03848574
49	0x3e81a908	0.25324273
50	0x3e93084f	0.28717276
51	0x3e2f329c	0.1710915
52	0x3de5b970	0.1121701
53	0x3e706e83	0.23479657
54	0x3e86f461	0.2635832
55	0xbe9fe256	-0.31227368
56	0xbd9b327b	-0.07577988
57	0xbe9bbc09	-0.30416897
58	0x3db67c4b	0.08910426
59	0x3cbdd241	0.023171546
60	0x3e417db6	0.18895611
61	0x3da7ed4b	0.08199557
62	0x3d0f0433	0.034916114
63	0x3e650b0c	0.22367495
64	0x3ded5a3b	0.11589476
65	0xbe886b66	-0.26644439
66	0x3e97c534	0.29642642
67	0xbeb3820f	-0.35060164
68	0x3e86d19b	0.2633179
69	0x3e066edf	0.13128231
70	0x3e4903a7	0.196303
71	0x3e8ce4ff	0.2751846
72	0x3cdcdf61	0.026961984
73	0x3ea8b352	0.3294931
74	0xbeaf5db3	-0.34251174
75	0xbeb096ba	-0.34489995
76	0xbd19a8d0	-0.037514508
77	0xbda8af28	-0.082365334
78	0xbe8dc447	-0.2768881
79	0xbe1d16eb	-0.15340774
80	0xbe1ff4bd	-0.15620704
81	0x3d1cbb92	0.03826482
82	0x3eb0a34b	0.34499583
83	0xbe62ee3a	-0.22161189
84	0xbe760975	-0.24027045
85	0xbdf74794	-0.12074199
86	0xbeac8502	-0.33695227
87	0x3e0c38d0	0.13693547
88	0x3e080188	0.13281834
89	0xbd519270	-0.051165044
90	0xbb9c12bf	-0.004762977
91	0xbe8aa195	-0.27076402
92	0xbde671ee	-0.11252199
93	0x3cc6fa2c	0.024289213
94	0x3d69a5b0	0.057042778
95	0xbe9f688d	-0.31134453
96	0x3e96843c	0.29397762
97	0xbea0d63b	-0.31413445
98	0xbe935809	-0.28778103
99	0x3eadae96	0.3392226
100	0x3e93b539	0.288492
101	0x3e865cb3	0.262426
102	0x3eb3ed00	0.35141754
103	0x3eb419b9	0.35175875
104	0xbdc46993	-0.09590449
105	0xbe9143d0	-0.2837205
106	0x3e25633a	0.16151133
107	0xbeafc9cc	-0.34333646
108	0xbcd54854	-0.026035465
109	0xbc9cb243	-0.01912797
110	0xbdbd55eb	-0.09244903
111	0x3c8a31f0	0.016869515
112	0xbd9526bc	-0.072827786
113	0xbe3b523d	-0.1829309
114	0xbc62c31d	-0.013840464
115	0xbe2329b2	-0.15933874
116	0xbe50b62e	-0.20381996
117	0x3e1165e5	0.14199026
118	0x3ea4b91b	0.32172474
119	0xbd647090	-0.05577141
120	0x3e4758f1	0.19467522
121	0x3ec73c41	0.38913158
122	0x3ec0619a	0.37574464
123	0xbe9f858f	-0.31156585
124	0x3dd161a2	0.102237
125	0xbd6a08e4	-0.057137385
126	0x3dd647da	0.10462923
127	0x3d87fb5f	0.06639742

weight f4 [64, 128]
0	0xbd863b18	-0.0655424
1	0xbd92901e	-0.071563944
2	0xbcf489ca	-0.02985086
3	0xbcc7c997	-0.024388118
4	0x3d6438d0	0.055718243
5	0x3d115444	0.035480753
6	0xbd54afaf	-0.051925357
7	0x3d02dfb6	0.03195163
8	0x3cee70fd	0.029106611
9	0x3d4303de	0.04761111
10	0xbda7f292	-0.082005635
11	0xbd9f15f8	-0.07767862
12	0x3d6cf748	0.057853013
13	0x3d9e634f	0.07733785
14	0x3d6da215	0.0580159
15	0xbda6c544	-0.08143094
16	0x3b9268a4	0.0044680405
17	0xbd6effaf	-0.058349308
18	0xbd54c9ff	-0.05195045
19	0x3cb04063	0.021515077
20	0x3d3d4244	0.046205774
21	0xbcd2025d	-0.025635893
22	0xbd502d49	-0.050824437
23	0xbd012953	-0.03153355
24	0xbcf54aba	-0.029942859
25	0xbc5a5ce3	-0.01332781
26	0x3bd23779	0.0064153043
27	0x3b933cbf	0.0044933255
28	0x3d4c89bc	0.04993604
29	0x3d968b2d	0.073507644
30	0x3bb23080	0.0054379106
31	0xbd89e60e	-0.067333326
32	0xbda3b279	-0.07993025
33	0x3d770f80	0.060317516
34	0x3c3ac0e0	0.011398524
35	0x3c84fa5d	0.016232664
36	0xbd2d4f97	-0.04231223
37	0x3cad3416	0.021143
38	0x3d669dbe	0.05630278
39	0x3d9e71e5	0.077365674
40	0xbd08563d	-0.03328537
41	0x3ca670fc	0.020317547
42	0xbd907312	-0.07053198
43	0xbdab4f0d	-0.08364687
44	0xbcc260a1	-0.023727717
45	0xbc9edb28	-0.019391611
46	0x3da07042	0.078339115
47	0xbd6c4d7d	-0.057691086
48	0x3d6a7459	0.057239864
49	0x3c43cd45	0.011950796
50	0xbc20b482	-0.009808661
51	0x3d9ae6ec	0.07563576
52	0x3d79fd5d	0.06103264
53	0x3dacde2c	0.084408134
54	0xbd8083f0	-0.06275165
55	0x3ccf54dc	0.025309019
56	0xbd9b88d1	-0.07594455
57	0x3d35e2a5	0.0444056
58	0xbdba00f1	-0.09082211
59	0x3d7680f1	0.06018156
60	0xbb1936e2	-0.002337866
61	0x3c5a2431	0.013314293
62	0xbccf8038	-0.025329694
63	0xbbadc807	-0.005303386
64	0x3d0fc76f	0.035102304
65	0xbda2ea27	-0.07954817
66	0x3d902f93	0.07040324
67	0x3c190532	0.009339618
68	0xba3de059	-0.0007243208
69	0xbd5a97fd	-0.053367604
70	0x3d984cae	0.074365005
71	0x3d9ae414	0.07563034
72	0x3c456399	0.012047672
73	0x3d357d91	0.044309203
74	0x3d8d3e05	0.06896595
75	0xbc38f6b3	-0.011289286
76	0x3c8783ee	0.016542401
77	0xbb7ffb15	-0.0039059569
78	0x3c98a95b	0.018635442
79	0xbd298d51	-0.041394535
80	0x3d078342	0.03308416
81	0x3da3c7f2	0.07997121
82	0x3d5874a9	0.05284563
83	0x3d8545b9	0.06507439
84	0x3d88a486	0.06672005
85	0xbda60d8e	-0.08108054
86	0xbd502443	-0.050815832
87	0xbd3cb066	-0.046066664
88	0x3cc46459	0.02397363
89	0xbcf911c2	-0.030403975
90	0xbd41241f	-0.04715359
91	0xbc29567f	-0.010335564
92	0x3b49e5c7	0.0030807124
93	0x3c4a8e10	0.012362972
94	0xbb9e568f	-0.004832096
95	0x3a8fa5cb	0.0010959444
96	0xbc763144	-0.015026394
97	0x3c94fdd8	0.018187448
98	0x3cef39cb	0.029202363
99	0x3d6d61c0	0.05795455
100	0xbc5a390e	-0.013319267
101	0x3cf8d1f2	0.030373547
102	0x3dbaecac	0.09127173
103	0x3cc7b2f7	0.02437733
104	0xbcf84627	-0.030306889
105	0xbb494c4e	-0.0030715647
106	0x3c0060d3	0.007835585
107	0x3d31c2fb	0.04339884
108	0x3d058ae8	0.032603174
109	0x3cd5aa66	0.026082229
110	0x3c9b51b5	0.01895986
111	0x3bcb2129	0.0061990214
112	0xbd217ab7	-0.03942367
113	0x3c8f4e67	0.01749344
114	0x3c9caa70	0.01912424
115	0x3d4e6188	0.05038598
116	0x3bdba563	0.0067030652
117	0x3d562546	0.05228164
118	0xbbf686ab	-0.007523378
119	0xbd8bdbd1	-0.06829036
120	0x3c7065a9	0.014672675
121	0xbd3362f5	-0.043795545
122	0x3dbc3fe3	0.09191873
123	0x3d2946fc	0.04132746
124	0x3d7d4590	0.061833918
125	0x3d36b6fe	0.04460811
126	0xbd13c292	-0.03607423
127	0xbcf53850	-0.029934078
128	0x3de8c758	0.11366147
129	0x3d8686c6	0.06568675
130	0x3dc2225e	0.09479211
131	0xbc8ee26f	-0.017441956
132	0xbd887327	-0.066625886
133	0xbd45e10e	-0.048310332
134	0xbd8bc3dc	-0.068244666
135	0xbd6cf68a	-0.057852305
136	0xbd8d14aa	-0.06888707
137	0xbd6ca97a	-0.057778813
138	0x3d5ab9e6	0.053399943
139	0xbde8fafa	-0.11375995
140	0x3b4077ea	0.002936835
141	0xbca73d5b	-0.020414999
142	0x3c99c972	0.018772814
143	0xbae484cd	-0.0017434597
144	0x3daabe10	0.08337033
145	0xbb71b959	-0.0036884157
146	0xbce37fd4	-0.027770914
147	0xbd9431f9	-0.07236094
148	0xbc75050b	-0.014954816
149	0x3ca58527	0.020205094
150	0xbcf8180d	-0.030284906
151	0xbcd9e8f1	-0.026600333
152	0xbd939f6e	-0.07208143
153	0x3db1d111	0.086824544
154	0x3d0c7b40	0.034297228
155	0x3d34b42c	0.044117138
156	0x3befb2db	0.0073150224
157	0x3d1a7422	0.03770841
158	0xbcf5177e	-0.029918429
159	0xbd7dd2a1	-0.06196845
160	0xbd6e7ed2	-0.058226414
161	0x3dafc3af	0.085822456
162	0x3dacc61a	0.084362224
163	0x3d966014	0.07342544
164	0xbc16db94	-0.009207625
165	0xbc8deae1	-0.017323913
166	0x3d99a81b	0.07502767
167	0xbd91e6ce	-0.071241006
168	0x3cf66d26	0.030081343
169	0xbce2e0f5	-0.027695158
170	0x3d9b13dc	0.07572147
171	0x3d5753c9	0.052570138
172	0x3d8ad809	0.06779487
173	0xbcbcfc29	-0.023069458
174	0x3d8c3586	0.06846146
175	0xbcc55d0d	-0.024092222
176	0xbdcf2b40	-0.10115671
177	0xbd88ac44	-0.06673482
178	0x3d0fe0c1	0.03512645
179	0x3d91fb95	0.071280636
180	0xbd832306	-0.064031646
181	0x3d9567e0	0.07295203
182	0xbd652cb2	-0.055950828
183	0xbd78ad61	-0.060712222
184	0xb8bae032	-8.910931e-05
185	0xbd9306a4	-0.07179001
186	0x3d6e2596	0.058141313
187	0x3b937edb	0.0045012063
188	0xbd13f5c7	-0.036123063
189	0x3dad1ef4	0.084531695
190	0xbcd1a41b	-0.025590947
191	0xbce5a748	-0.028033867
192	0x3d3ee8c4	0.0466087
193	0x3d6d122b	0.057878654
194	0x3daac42f	0.083382
195	0x3c8fb28b	0.01754119
196	0xbd8c6b9a	-0.06856461
197	0xbd9110e5	-0.070833005
198	0xbc016b81	-0.007899166
199	0xbc764f98	-0.015033625
200	0x3d63e9d1	0.055642907
201	0x3ca7ce8f	0.020484237
202	0xbc922034	-0.017837621
203	0x3da63f86	0.08117585
204	0x3d49f246	0.049303316
205	0xbd1bc899	-0.0380331
206	0xbd59c959	-0.053170536
207	0xbd99d32d	-0.07510982
208	0xbd1df51e	-0.03856384
209	0x3d0f33c9	0.034961496
210	0xbda54139	-0.08069081
211	0x3d7adb62	0.061244376
212	0xbccaac46	-0.02474035
213	0xbd8279fa	-0.063709214
214	0xbce63b65	-0.028104493
215	0x3d9b7a56	0.07591693
216	0xbcfa4793	-0.030551707
217	0x3ca5ef1c	0.020255618
218	0xbc3a0913	-0.0113547025
219	0x3cf98486	0.0304587
220	0x3d9aef58	0.075651824
221	0xbba229fa	-0.0049488517
222	0xbc266515	-0.010155936
223	0xbd2c598f	-0.042077597
224	0xbc772d86	-0.015086537
225	0x3d56eb68	0.052470595
226	0xbca449d9	-0.020054745
227	0x3b7885e9	0.0037921614
228	0x3d9ce1a7	0.07660227
229	0xbc3f635a	-0.011681402
230	0x3c9b59a8	0.01896365
231	0x3cd7a10b	0.026321908
232	0x3da78417	0.08179491
233	0x3c75f4da	0.01501199
234	0x3d9a1aa3	0.07524612
235	0x3c026ac2	0.007960023
236	0x3d84b3f6	0.06479637
237	0x3d7effc5	0.06225564
238	0x3d676323	0.05649103
239	0x3d98de1d	0.0746424
240	0xbda1375d	-0.07871888
241	0x3da14a9a	0.07875557
242	0xbd672470	-0.056431234
243	0x3c91fd6e	0.01782104
244	0x3c8334fe	0.01601648
245	0xb99b2a31	-0.0002959534
246	0x3d92989c	0.07158014
247	0xbce52598	-0.027972028
248	0xbdcd7263	-0.10031583
249	0x3d7af9a5	0.061273236
250	0x3d9ba7d2	0.076003686
251	0x3da930fa	0.08261295
252	0xbd122d09	-0.03568748
253	0x3ce6cc8c	0.028173707
254	0x3d4e7ee4	0.05041398
255	0x3d9e2271	0.07721413

bias f4 [64]
0	0x3a0564ce	0.00050885684
1	0x3dc6959d	0.09696505
2	0x3d41ad32	0.047284313
3	0x3d11eafc	0.03562449
4	0xbcebab61	-0.028768243
5	0x3d307d64	0.04308833
6	0x3d248a72	0.040171094
7	0xbd7b5431	-0.061359588
8	0x3d421335	0.0473816
9	0x3c5c3ee8	0.013442732
10	0xbc56838a	-0.013092885
11	0x3cab3c6d	0.020902837
12	0x3cff6bfc	0.03117942
13	0xbd8adb90	-0.067801595
14	0xbd2bc0d7	-0.041931953
15	0xbd68eff9	-0.05686948
16	0x3c55cca0	0.013049275
17	0x3b28eb0b	0.0025774862
18	0xbcdcf7f4	-0.026973702
19	0x3dfcb71c	0.12339613
20	0xbdb3b8f5	-0.08775512
21	0x3c3e4284	0.011612538
22	0xbd969c7a	-0.07354064
23	0x3da5d6df	0.08097624
24	0x3d77c7ce	0.060493283
25	0xbd1785c5	-0.036992807
26	0x3c93aec8	0.018027678
27	0x3d4565b3	0.04819269
28	0x3dbf3532	0.09336318
29	0xbd147d36	-0.036252223
30	0xbc3a282f	-0.01136212
31	0xbbe38c6d	-0.0069442303
32	0xbd3a5a17	-0.045496073
33	0xbd7775dd	-0.060415138
34	0x3dcba9d9	0.09944505
35	0xbda6f96c	-0.08153042
36	0x3cb5b7a5	0.022182295
37	0xbda13c25	-0.078728
38	0x3d49a0bc	0.049225554
39	0xbda2aabb	-0.079427205
40	0x3d87699d	0.06611941
41	0x3c76424c	0.015030455
42	0x3d8aee2b	0.06783708
43	0x3db80c2b	0.08986696
44	0xbd686d57	-0.0567449
45	0x3d8f5220	0.06998086
46	0x3d9fe1b5	0.07806722
47	0x3d15060b	0.036382716
48	0x3c6449ad	0.013933581
49	0x3c6cfd01	0.014464618
50	0xbd4d18aa	-0.05007235
51	0xbd4b9ae6	-0.04970827
52	0x3d10d3aa	0.03535811
53	0x3c2d937a	0.010594243
54	0x3d5133f0	0.051074922
55	0xbdb18e74	-0.08669749
56	0x3cf93483	0.030420547
57	0x3d274aae	0.040842704
58	0x3da59a53	0.08086076
59	0xbd8a72d3	-0.06760182
60	0x3d1937f3	0.037406873
61	0x3da9f9d7	0.08299606
62	0xbdb8a655	-0.090161
63	0x3d44e8af	0.048073467

weight f4 [2, 64]
0	0xbda00562	-0.07813527
1	0xbe69dc8e	-0.22838041
2	0xbe3ba7de	-0.18325755
3	0xbbc53d69	-0.0060192836
4	0xbc9df601	-0.019282343
5	0xbd708497	-0.058720198
6	0xbe868920	-0.26276493
7	0xbdf8751d	-0.121317126
8	0xbd18fba9	-0.037349377
9	0x3df62945	0.1201959
10	0xbd245f1f	-0.040129777
11	0xbd9f4176	-0.077761576
12	0xbe3f4c7b	-0.18681519
13	0x3d09693d	0.03354763
14	0x3e85a041	0.26098827
15	0x3cae1f65	0.021255204
16	0x3c7b729a	0.015347147
17	0x3db0786b	0.08616718
18	0x3db29f35	0.087217726
19	0xbe168f72	-0.14703158
20	0xbe018d13	-0.12651472
21	0xbe0542cf	-0.13013767
22	0xbdedffd9	-0.11621065
23	0xbcae0411	-0.021242173
24	0x3d3060cb	0.04306106
25	0x3e874f4e	0.26427692
26	0x3b878058	0.004135173
27	0xbe702d57	-0.23454796
28	0xbe56b0c3	-0.20965867
29	0xbdd548ac	-0.10414252
30	0xbdb2f052	-0.08737244
31	0x3db3273e	0.08747719
32	0x3dbc179e	0.09184192
33	0xbd793510	-0.06084162
34	0xbe626d88	-0.22112095
35	0x3dd66263	0.104679845
36	0x3e29e6de	0.16591975
37	0xbc3f7d6f	-0.011687621
38	0xbd2d647e	-0.042332165
39	0xbd590c42	-0.052990206
40	0xbe36dcd7	-0.17857681
41	0x3d436568	0.04770413
42	0x3c5b4f4e	0.013385607
43	0x3e2aa573	0.16664676
44	0xbda6d802	-0.08146669
45	0xbcfe50e3	-0.03104443
46	0x3d0db969	0.03460065
47	0x3dc19096	0.09451406
48	0x3d81871b	0.063245974
49	0x3da0e4f6	0.07856171
50	0x3d2a50d1	0.04158098
51	0x3d91bc35	0.07115976
52	0x3e7f0661	0.24904777
53	0x3e26f31e	0.1630368
54	0xbea0979c	-0.3136567
55	0xbdd31f23	-0.10308673
56	0xbc326463	-0.010888192
57	0x3e27b69e	0.16378257
58	0x3ddf6259	0.1090743
59	0xbc595e17	-0.013267062
60	0x3d139c9d	0.03603803
61	0xbde32c9c	-0.11092493
62	0x3ba9f565	0.005186724
63	0x3e35c520	0.17750978
64	0x3d80f862	0.06297375
65	0x3e11dd58	0.14244592
66	0x3dccf307	0.10007291
67	0x3e7aee0d	0.24504872
68	0xbddc7ac9	-0.10765607
69	0x3dbe520d	0.09292994
70	0x3e6f6c6d	0.23381205
71	0x3db1b4ed	0.08677087
72	0xbde1134a	-0.10990007
73	0xbe1128e1	-0.1417575
74	0xbd8ea1fe	-0.06964491
75	0x3d6bbbaf	0.057552036
76	0x3dcb8c5b	0.0993888
77	0xbd20723f	-0.039171454
78	0xbe70a5aa	-0.23500696
79	0x3d9a158f	0.07523643
80	0x3d992f23	0.07479694
81	0x3c402057	0.01172646
82	0x3cbb2815	0.022846261
83	0x3e05e5e6	0.1307598
84	0x3d37fc49	0.044918332
85	0x3e44ed85	0.19231232
86	0x3dc4c845	0.09608511
87	0x3ddfffb1	0.10937441
88	0x3da84f90	0.082183
89	0xbe90f80b	-0.28314242
90	0x3da21503	0.07914164
91	0x3e41a7f6	0.18911728
92	0x3d948ea0	0.07253766
93	0xbb14463c	-0.002262487
94	0x3e55b4d0	0.20869756
95	0xbe12b567	-0.14327012
96	0xbe051395	-0.12995751
97	0xbe0074e0	-0.12544584
98	0x3e61f7a9	0.22067131
99	0x3e032ae8	0.12809336
100	0xbe114fb0	-0.14190555
101	0x3d45b38b	0.04826693
102	0xbde05f14	-0.10955635
103	0x3c8a4728	0.016879633
104	0x3e04267b	0.12905304
105	0xbd90bfbf	-0.07067823
106	0x3e24f3e2	0.16108659
107	0xbe412e49	-0.18865313
108	0xbe151aa4	-0.14560944
109	0x3da6ee52	0.08150925
110	0xbdd3331a	-0.10312481
111	0xbda08c4b	-0.07839259
112	0xbc87351c	-0.016504817
113	0x3de204aa	0.11036046
114	0xbd958e72	-0.0730256
115	0x3ce7fca6	0.028318714
116	0xbe9306c2	-0.28716093
117	0xbe2852ad	-0.16437788
118	0x3e807692	0.25090462
119	0xbd041498	-0.032246202
120	0x3e3e7985	0.18601044
121	0xbe284972	-0.16434267
122	0xbe2cd54d	-0.16878243
123	0xbdf6fbe8	-0.12059766
124	0xbdbdb43c	-0.092628926
125	0x3e43c060	0.19116354
126	0x3d914b2f	0.07094418
127	0xbe53a311	-0.20667674

bias f4 [2]
0	0xbdc17d55	-0.09447733
1	0xbd90f0c5	-0.07077173
