backup/ppo/2/ppo_net.pkl (torch_old, 32978 bytes, 15 tensors)

weight f4 [64, 4]
000000 b3 08 c0 3e 54 85 b3 be 0b 51 41 be 45 68 3f 3d
       0.37506637 -0.3506266 -0.18878572 0.0467303
000010 da 77 8f 3e 24 8a cd be 63 cc ab be d3 3a db 3e
       0.28021127 -0.40144455 -0.33554372 0.42818317
000020 80 0a 0c 3a 25 03 11 be 0f 2e 54 3e de e3 8b be
       0.0005342141 -0.14161356 0.20720695 -0.27322286
000030 1e f9 59 be 05 ca 47 3e 88 46 6b be bf 4f 0b bf
       -0.21286437 0.19510658 -0.22976124 -0.5441856
000040 0b 2c 4d be f7 d0 04 be 6a ac 22 3e 9f 60 b4 bd
       -0.20036332 -0.12970339 0.15886083 -0.088074915
000050 bf dd 45 3e c2 35 49 be 69 d1 3f 3c 83 4b 86 be
       0.1932287 -0.19649413 0.011707642 -0.26229486
000060 b4 c5 38 3c 53 56 2e be 91 8f 7d bd a2 0d 6c 3e
       0.011277605 -0.17025118 -0.061904494 0.23052076
000070 79 9f ae bd 26 b4 55 be 7b b1 ce be 29 3a be bb
       -0.08526511 -0.20869502 -0.40369782 -0.005805273
000080 7e d3 df bc ae e7 e1 3c 99 6f 65 bd 3b 8d 8c 3e
       -0.027322527 0.027576294 -0.05601463 0.274515
000090 23 4c de bc 87 9f 43 be 57 82 fe bd 18 e1 c1 bd
       -0.027135914 -0.19103824 -0.12427204 -0.09466761
0000a0 c7 08 06 be 24 fa af bd b2 94 c8 bd 23 7f e1 3d
       -0.13089286 -0.085926324 -0.097939864 0.110105775
0000b0 53 a9 0f be a2 c3 8d 3e 0d a3 49 be 0c 25 bd bd
       -0.14029436 0.27688318 -0.19691105 -0.09235582
0000c0 da b1 e1 be f8 d7 68 be d5 7a da bc 7e a7 c9 3e
       -0.44081002 -0.22738636 -0.026669899 0.393856
0000d0 e2 97 e7 be 0d df 99 3e 04 05 3f 3c 7c 5c 90 3d
       -0.45233065 0.30052987 0.011658911 0.0704889
0000e0 68 10 e4 be f7 ee a0 3e 1d 51 d1 3e 90 7a 59 bd
       -0.44543767 0.31432316 0.40882197 -0.0530954
0000f0 a2 2a 22 3d e5 5d 7d 3e ed 3e be 3e bb 6f ce 3e
       0.03959144 0.24742849 0.37157384 0.4031962
000100 ea ee 96 3e 7b d9 4c be 17 66 b9 3e 0e 10 c2 be
       0.29479152 -0.20004837 0.362107 -0.37902874
000110 22 9e 99 3e 79 21 90 3e 87 82 38 3f d7 a3 b5 3e
       0.30003458 0.28150538 0.7207417 0.35476562
000120 61 a1 5e 3e e4 66 f5 bd 9b df 16 be 16 7a ec bd
       0.21741249 -0.119825155 -0.14733736 -0.115467235
000130 99 1c c3 bd c6 2e 58 3e d3 f1 a2 3e f9 1f 24 be
       -0.09526939 0.21111593 0.31825122 -0.16027822
000140 b0 ce 48 be b9 51 e4 bc ac 10 e6 be be 59 be 3d
       -0.19610095 -0.027871 -0.44934595 0.09294461
000150 76 1b 77 be 66 66 96 be b2 47 be be 07 14 a5 be
       -0.2413157 -0.29375 -0.37164074 -0.32241842
000160 1c 59 07 3f 68 f4 e4 be 16 bb 38 bd c4 48 69 bd
       0.52870345 -0.44717717 -0.045100294 -0.05695416
000170 9e 0f 46 3e bd 32 17 3e a6 86 70 be 49 e0 b7 3e
       0.19341895 0.14765449 -0.23488864 0.35913303
000180 1f 4e 6c be 3b 72 45 3e 42 67 4c 3e 93 4b 83 bd
       -0.23076676 0.19281857 0.19961265 -0.06410899
000190 14 f1 ed 3d fb f3 3e be de 02 69 3e 74 33 4d 3e
       0.11618248 -0.18647759 0.22755 0.20039159
0001a0 13 0d ca be 9b 8b ad 3e a7 24 25 bd 8d cb aa 3e
       -0.394631 0.33895573 -0.040318158 0.33358422
0001b0 9a de 50 be 25 c5 64 3e d7 6d e1 bd 82 5b e2 3e
       -0.20397416 0.2234083 -0.110072784 0.4421044
0001c0 d9 08 08 3e a3 45 8f bd 63 e1 9a 3e 1a 5a 99 be
       0.13284625 -0.06995704 0.3025008 -0.29951555
0001d0 a3 f3 2e be ff 84 7a bd b4 6a 16 3f c2 db ce bd
       -0.17085128 -0.06116199 0.58756566 -0.10100509
0001e0 dd 4a 89 3e 70 f5 1e 3e 7e 49 87 3e 22 f6 0e bf
       0.2681493 0.15523314 0.26423258 -0.5584432
0001f0 ab 4c f1 3d 87 9f cc bc a8 3a c0 bd 51 de 6b 3d
       0.117822014 -0.024978412 -0.09386188 0.057585064
000200 19 0d aa be fe 08 e7 be 37 d3 5f be 92 e0 10 be
       -0.33213118 -0.45124048 -0.21857916 -0.14148167
000210 e7 9f 04 3e ae d5 53 be 86 41 41 be e1 06 4b 3e
       0.12951623 -0.20686981 -0.18872651 0.19826843
000220 fb e1 e1 3d a6 0c 4d 3d 77 6e 5b 3e 2e 56 c2 be
       0.110294305 0.05006089 0.21428858 -0.37956375
000230 c3 11 93 bc 8f 2e 46 be 0d 80 fd bd 6d 15 8b bd
       -0.017952805 -0.19353698 -0.123779394 -0.06791196
000240 12 fe 86 3e d8 01 3e be e3 f6 3b 3c f8 f8 95 be
       0.26365715 -0.18555391 0.011472437 -0.2929151
000250 e6 f2 c6 3c c9 80 ed 3e ff 10 c9 3d fc ef d3 3e
       0.024285745 0.46387318 0.09817695 0.4139403
000260 0c 99 2e be 8f 97 e7 bd 87 d7 1d be 0c 74 3e be
       -0.1705057 -0.113082044 -0.15414248 -0.18598956
000270 51 93 98 3e 1b 64 09 3f b8 b7 cb be e7 d4 f4 3e
       0.29799893 0.53668374 -0.39788604 0.47818682
000280 79 87 7d 3e 16 30 87 3d f3 9d db 3d 95 7b 95 3e
       0.2475871 0.066009685 0.10723486 0.29195848
000290 89 05 1a bc a5 af f0 bd a6 98 83 be 85 74 8d 3e
       -0.009400734 -0.117522515 -0.257024 0.2762796
0002a0 ce 19 a0 3d e4 24 33 bd 69 c3 7b 3e 4c f8 71 3e
       0.07817422 -0.043736354 0.24586262 0.23629874
0002b0 d1 cc 37 be 2e bf c7 3e ae 4e b3 3e 20 0f fb 3e
       -0.17949225 0.39013046 0.35020965 0.49034977
0002c0 7f 48 4e be ed 7f db 3e 7d 15 ba 3e c3 73 c7 be
       -0.20144843 0.42871037 0.3634452 -0.38955507
0002d0 ea 64 21 be c3 d2 9c be b1 c3 f6 3d 7d 92 b4 be
       -0.15761152 -0.30629548 0.12049044 -0.35268012
0002e0 ed 9c 0a be cd 1e 98 3d ea 68 d4 be 1f 14 d2 be
       -0.13536425 0.0742775 -0.41486293 -0.41030976
0002f0 f5 da 03 be 72 df 81 3e 9d ae dc be 6d 30 ab 3e
       -0.12876494 0.25365788 -0.4310197 0.33435383
000300 5c 80 84 3e cb 23 10 be bc f3 cd bd 63 68 54 3e
       0.2587918 -0.14076154 -0.10056254 0.20742945
000310 6f 21 05 bd e0 dc 97 b9 5c c6 c5 3d cd 80 c1 3e
       -0.032502588 -0.0002896553 0.09656975 0.3779358
000320 b0 fc a1 3e 71 5b b4 3e a9 98 a6 3e 76 b8 45 be
       0.31638098 0.35226014 0.32538345 -0.19308648
000330 ac 77 d4 3e d5 56 aa 3c 2a 10 ad be 28 79 07 3e
       0.41497552 0.020793358 -0.33801395 0.13229811
000340 85 b5 8a 3e 34 e1 dd 3d f7 f1 0e bf 88 5b 8b 3e
       0.27091613 0.1083397 -0.5583796 0.2721827
000350 7c ef 95 bc d2 ca 9f 3c df d7 47 be d6 cb 4a 3e
       -0.018302672 0.019505892 -0.19515942 0.1980432
000360 3d 8a 45 bd 96 d0 10 be bd 58 19 be 75 ca 05 be
       -0.048227537 -0.14142069 -0.14975257 -0.13065512
000370 60 24 50 3e ef 4f 0b be e2 b4 c0 be 3b 0d a2 bd
       0.20326376 -0.13604711 -0.37638003 -0.0791268
000380 41 fd 51 be a7 44 89 3e c6 ae 26 3e d3 07 e0 bc
       -0.20506765 0.2681019 0.16277608 -0.02734748
000390 3f 2f 86 bd bc 0e 8e 3e 03 85 56 3e 78 76 c2 3d
       -0.0655198 0.27745616 0.20949177 0.09495252
0003a0 ee 84 0f be 6f 0d f7 3d 1f cd 37 3d c9 83 3b 3e
       -0.14015552 0.12063109 0.044873353 0.18311991
0003b0 fb 7b db be bc 17 21 3d c3 62 4b 3e 83 3f 7f 3e
       -0.42868027 0.039329275 0.19861893 0.24926572
0003c0 39 2f 39 3e fe a1 c5 bd c9 49 12 be e1 9c 8c bc
       0.1808442 -0.09650038 -0.1428596 -0.01716465
0003d0 b3 2d 0b be 8e 22 0f bd 0d a3 92 bd 19 9c 3a be
       -0.13591652 -0.034945063 -0.07160006 -0.18223609
0003e0 44 fc 48 be d7 05 cd 3d f2 26 b6 3e 19 3f ba be
       -0.19627482 0.100108795 0.35576588 -0.36376265
0003f0 6a d3 98 be b6 e0 9c 3e ac a0 e0 be 54 d9 32 be
       -0.29848796 0.3064019 -0.43872583 -0.17465717

bias f4 [64]
000000 31 01 7a be d3 e4 01 be 69 57 04 3f f2 d4 b5 be
       -0.24414517 -0.12684946 0.5169588 -0.35514027
000010 d8 28 49 3f 0b fa 8c be 27 12 0f 3f 3d 72 30 3c
       0.7857795 -0.27534518 0.55887073 0.010769424
000020 fd c7 cc 3e 26 cc 11 3f b4 3b 1c 3f d5 b5 fa 3e
       0.3999633 0.5695213 0.610286 0.48966852
000030 e3 8d cc be ba 39 a9 be ca b9 36 bd d5 7d b8 be
       -0.39952 -0.33051854 -0.044610776 -0.36033502
000040 73 22 a7 be 10 c7 da 3d 62 d1 03 3f a5 08 ed 3e
       -0.3264347 0.106824994 0.5149137 0.46295658
000050 65 e3 83 be df 01 b6 3d df 70 fd 3b 4c a9 35 be
       -0.25759426 0.08887076 0.0077344025 -0.17740363
000060 30 d6 de 3e 41 c0 9f 3e 74 a5 32 3f 1a 0a 8e be
       0.43522787 0.31201366 0.6978371 -0.27742082
000070 40 0b ad 3e f1 c5 03 3f 83 3a a1 3e 16 b7 9f 3e
       0.33797646 0.5147391 0.31489953 0.3119437
000080 2d 22 c5 be bd d9 d6 3e 38 4a 20 3f 9d bd 17 3f
       -0.38502637 0.41962996 0.6261325 0.592737
000090 19 36 0b 3f ad a6 2e be 61 55 3b 3f 4f 19 aa bd
       0.5437942 -0.1705577 0.7317715 -0.083056085
0000a0 d8 8a 28 3f 0d 9f fe 3e fd bb 84 3e 0d 82 0c bf
       0.6583686 0.4973072 0.25924674 -0.5488594
0000b0 74 e0 cf be 3d fa 64 be 93 b5 0c 3f a4 6f bc be
       -0.40600932 -0.22361083 0.5496456 -0.36803925
0000c0 a2 44 24 3f 86 ca a6 3e 21 a1 e0 be df fc a2 be
       0.64167225 0.32576388 -0.43872932 -0.3183355
0000d0 80 ec 57 3f b3 70 fb 3e 04 15 06 3f 91 3f f0 3e
       0.84345245 0.4910942 0.5237582 0.46923497
0000e0 3c 00 13 3f 11 78 ca 3e 30 d8 82 3e 4c 0c 78 be
       0.5742223 0.39544728 0.25555563 -0.24223441
0000f0 00 6e ed be c7 6e ef 3e b4 ff 2d be c4 d9 3a 3f
       -0.46372986 0.46764204 -0.16992074 0.72988534

weight f4 [32, 64]
000000 ce 29 c1 3d ec 1c 27 3d c4 1e e5 bd 4c 2b 25 3d
       0.09431802 0.040799066 -0.11187509 0.040324494
000010 3d 37 a8 bd 7d 80 f5 3c 0b 7c 93 3c 81 4b d0 3c
       -0.08213661 0.029968495 0.018003484 0.025426628
000020 4a 62 a7 3b e0 c2 f4 3c c1 b8 63 3d 5e 6c bd bd
       0.0051081525 0.02987808 0.055596117 -0.09249185
000030 f1 b2 a8 bd b0 3b f3 bc f3 44 ed 3d 66 d1 57 3b
       -0.08237255 -0.029691547 0.11585417 0.0032931208
000040 96 16 8f 3d 8c 45 f7 3d 57 ae 6c bd 52 54 c9 3d
       0.0698673 0.12073812 -0.05778345 0.09830536
000050 a0 e6 55 3d 3c 1c c7 bc 5e 30 4b bd 58 43 33 3d
       0.052221894 -0.024305455 -0.049606673 0.043765396
000060 04 c4 9c bd 0a b4 8f bd 07 bc 12 be 97 0d b3 bc
       -0.076545745 -0.070167616 -0.14329539 -0.021857066
000070 e2 fc cc bd 52 f2 97 bd c0 9a a5 3b 6e a7 06 be
       -0.10009171 -0.07419266 0.005053848 -0.13149807
000080 2d dc c5 3d 20 c0 a9 3d 7a cc a8 bd 87 11 8b 3d
       0.09661136 0.08288598 -0.08242126 0.067904525
000090 8f 2a 1c bd b6 f3 b4 bc 7c c5 04 be 23 39 a1 3d
       -0.038126525 -0.022088867 -0.1296596 0.07872226
0000a0 17 ad 93 bd 39 f2 a5 3d bd c3 cd 3d 68 c7 48 bd
       -0.07210749 0.08102841 0.100471 -0.049018294
0000b0 20 21 9b bd 75 0d ed bd 30 58 70 bd 18 d5 62 bd
       -0.075746775 -0.11574832 -0.058677852 -0.055379003
0000c0 81 ad 9e 3d 62 05 e5 bc c4 32 2c bd 70 ff 7d 3d
       0.07747937 -0.027956668 -0.0420406 0.062011182
0000d0 c2 37 f5 bd e4 6c f6 3c 51 38 48 bc f0 cd 04 3d
       -0.119735256 0.03008122 -0.012220458 0.03242296
0000e0 46 a8 a0 bd 90 41 2d 3d a2 f4 be 3d 96 3c 64 bd
       -0.078445956 0.042298853 0.09324004 -0.05572184
0000f0 f2 e9 b7 bd 28 8a 08 be 50 4f 88 3c 30 9a d3 bb
       -0.089801684 -0.13333952 0.016639382 -0.0064575896
000100 64 b6 1b 3d 40 b7 31 3c d8 1d 3e bd 08 7b 22 bd
       0.038015738 0.010846913 -0.04641518 -0.039668113
000110 1c 3e 15 3d 70 11 82 bc d2 28 bf bd c4 0b 1e bd
       0.036436185 -0.015877455 -0.09333958 -0.03858544
000120 9c 44 18 bd b4 44 8e bd c8 68 af 3c 7a 7b f7 3d
       -0.037174806 -0.06946698 0.021412268 0.12084098
000130 be 44 9b 3d 00 b4 b4 b9 20 bd b4 bd c0 b9 7d bb
       0.07581471 -0.00034466386 -0.08825135 -0.0038715452
000140 60 27 8f bb 9c 53 ff bd 70 c5 9e 3c 30 af 0a bc
       -0.0043687075 -0.12467119 0.019381255 -0.0084646195
000150 be 42 a1 3d 80 31 7c 3d b0 18 76 bc 08 6e d3 3c
       0.07874058 0.061570644 -0.015020534 0.025809303
000160 54 74 9d bd ac e6 91 bd d0 14 df bd d0 d2 e9 3d
       -0.076882035 -0.07124075 -0.108926415 0.114171624
000170 20 b7 3a bc 06 df f2 bd 58 54 a8 bc cc 6e 19 bd
       -0.011396199 -0.118589446 -0.02054803 -0.03745918
000180 2c d6 a0 3d c0 34 1e bd 8c cc 6b bd 98 87 a3 3c
       0.0785335 -0.038624525 -0.057568118 0.019962117
000190 a0 c4 f9 bc 80 5e cb bb cc d3 11 bd 3c 9a 2a 3d
       -0.030489266 -0.0062063336 -0.035602376 0.041650996
0001a0 ac e7 7e bd 8c 53 89 bd 28 7e 89 3c 76 3a a1 3d
       -0.06223266 -0.067053884 0.016783789 0.07872479
0001b0 c8 52 31 bd 80 24 cf 3b e0 65 f7 bd 6c 6f a6 3d
       -0.043291837 0.00632149 -0.12079978 0.08126721
0001c0 ba 78 ae bd 4e b8 ad bd 3a 2a e7 3d e4 f2 95 bd
       -0.085191205 -0.08482419 0.11287351 -0.07321718
0001d0 50 ad 18 3c 20 58 91 bd a8 e4 ad bd 90 9a 9f bc
       0.009318665 -0.07096887 -0.08490878 -0.01948288
0001e0 14 41 d5 3d 40 cd 76 bd aa 34 85 bd 60 bc a9 bc
       0.10412803 -0.060254335 -0.065041855 -0.020719707
0001f0 10 34 7c 3c bc 0c ab 3d 66 26 f2 bd 88 63 5e 3d
       0.015393272 0.08352038 -0.1182373 0.05429414
000200 98 6c 52 3c 99 8f ac 3c c5 47 7e 3e 7c 67 19 be
       0.012843274 0.021064566 0.24832065 -0.14980882
000210 8c 08 95 3e d0 5a f6 3d cf 26 f3 3e ef 2e 10 bd
       0.29108083 0.1202904 0.47490546 -0.03520101
000220 1e f0 96 3e 27 f1 02 3f 10 44 d5 3e f3 78 d8 3e
       0.2948007 0.5114922 0.4165349 0.42279777
000230 e0 a1 61 be 90 94 85 bc 89 46 53 be 71 e6 8b 3c
       -0.22034407 -0.016306192 -0.20632376 0.017077656
000240 d6 c2 30 3d cc 50 7f 3d 3e e2 ae 3e c4 97 d6 3e
       0.04315456 0.062332913 0.34156984 0.41912663
000250 53 a0 3c be 82 a1 3a be 65 dc 9e bd b5 7b 25 bd
       -0.18420534 -0.18225673 -0.07756881 -0.04040118
000260 94 01 d5 3e d4 e5 8a 3e fe ac f9 3d bc 95 ea 3c
       0.41602767 0.2712847 0.12191199 0.028635852
000270 66 a7 a5 3e 88 35 bf 3e e7 94 32 3e 7d c6 24 3e
       0.32354277 0.3734553 0.17439614 0.16091342
000280 d9 be 13 be 30 12 fc 3e e0 d7 dd 3e 4a 0b ad 3e
       -0.14428271 0.49232626 0.43328762 0.33797675
000290 b0 6a 5d 3e 74 ca 83 3b f6 7e d1 3e 38 d5 0c 3c
       0.2162273 0.004021937 0.40917176 0.008595757
0002a0 2d f1 15 3f 32 0d af 3e ac 29 81 3e fe d4 32 3c
       0.5857113 0.34189755 0.25227106 0.010915039
0002b0 01 d8 8f 3d f7 7c ad bc be 8f 09 3f e4 29 6b bc
       0.07023621 -0.021177752 0.5373496 -0.014353249
0002c0 3d 8b d6 3e b0 04 b7 3e 80 12 2d bd d7 80 fc bd
       0.41903105 0.35745764 -0.04225397 -0.12329262
0002d0 ee 89 94 3e 1d fe a0 3e a3 4a c2 3e 31 43 8e 3e
       0.29011482 0.31443873 0.37947568 0.27785638
0002e0 ee e6 e8 3e 4a ab 93 3e 5c 75 80 3e 04 4b 41 be
       0.45488685 0.2884162 0.25089538 -0.18876272
0002f0 45 12 e6 bd 17 08 b4 3e 10 bc 81 bd a0 a8 db 3e
       -0.112339534 0.35162422 -0.06334698 0.42902088
000300 6a 3d 8e bd 74 bc ea bd f3 43 1f 3b a9 b6 b7 3c
       -0.069453076 -0.11461726 0.0024301975 0.022425966
000310 49 e1 8a bd b8 78 f4 bd 50 21 c3 bc 62 d1 7d bd
       -0.06781251 -0.11937088 -0.023819596 -0.06196726
000320 af 74 f3 3c f9 df f6 3d e7 bd ff bd bd c2 00 be
       0.029718725 0.12054438 -0.12487393 -0.12574287
000330 3e eb 8a 3d 38 51 0e bd b5 e7 c3 3d d2 18 0c bd
       0.0678315 -0.034745425 0.09565679 -0.034203358
000340 de 1b a3 bd a4 ed 61 3d be 03 88 3d c8 54 9e 3c
       -0.079642996 0.055158272 0.06641339 0.019327536
000350 14 31 5c bd f4 3e e3 3b 8e 11 a2 bd 5f f5 ea bc
       -0.053757742 0.006934995 -0.079135045 -0.028681455
000360 65 f4 01 bd a9 f6 d4 bd 37 82 22 3d f7 91 fb bb
       -0.031727213 -0.10398609 0.039674964 -0.0076773125
000370 73 ae d7 bc 63 6a fe bd c2 91 9a 3d 5b d9 69 3d
       -0.026328301 -0.124226354 0.07547332 0.057092052
000380 48 a4 84 3d cc 54 ce 3c 28 66 91 37 d3 87 96 3d
       0.06476647 0.025186919 1.7332917e-05 0.07350125
000390 ac 33 d4 bd e8 7c 38 3d 31 48 9a bd 6c 26 47 3b
       -0.10361418 0.045040995 -0.07533301 0.0030387891
0003a0 59 a3 c0 3c fd 80 21 3d 70 cb 99 bd 04 cd 88 bd
       0.02351539 0.039429653 -0.07509506 -0.066797286
0003b0 72 53 15 3d c7 c9 c9 3d d2 c4 82 bd ef 28 17 bd
       0.036456533 0.09852939 -0.06385197 -0.03690427
0003c0 41 01 de 3c eb c6 00 be be 44 89 3d e9 97 c5 bd
       0.027100207 -0.12575881 0.06702565 -0.09648115
0003d0 b2 e1 b9 bd f9 3c 14 bd 71 03 32 bc 23 e7 d4 3d
       -0.09076251 -0.03619096 -0.010865078 0.10395648
0003e0 f8 9c 5d 3d 0e 47 5c bd f9 a0 3a 3d 88 d1 cd bd
       0.054104775 -0.0537787 0.04556367 -0.100497305
0003f0 2a f1 db bd 48 b7 de 3c d3 b8 c9 3c f1 ea b6 bc
       -0.10739358 0.027187005 0.024624264 -0.022328826

bias f4 [32]
000000 8d c2 d1 3c 30 53 c0 bd 4d a4 56 3e fb 62 81 bd
       0.025605464 -0.09390867 0.20961113 -0.06317707
000010 55 5e 92 3e 5f e7 8e bb c4 b6 f1 bd 4a c7 00 bd
       0.28587595 -0.0043610777 -0.11802438 -0.031440057
000020 21 af 84 3e 5e 94 45 bd 00 c4 69 39 52 fe da 3d
       0.25914863 -0.048237197 0.00022293627 0.10693039
000030 c8 2e 96 3d 18 2f e2 bd e1 bf 42 3e f7 b3 04 bd
       0.073331416 -0.11044139 0.19018508 -0.03239819
000040 be 85 01 be 7f 96 be 3d b0 6a 31 bd f8 6c 55 3d
       -0.12648675 0.093060486 -0.043314636 0.052105874
000050 40 fb 8a bd c5 d1 9f bd c9 a8 fa 3d 51 e4 c6 bb
       -0.067862034 -0.07803682 0.122392245 -0.006069698
000060 d4 bf eb bd 1d 0d 10 3e 7f 75 e5 bd e8 41 92 3e
       -0.11511198 0.14067502 -0.11204051 0.28565907
000070 5e ff 9f 3d 1c 64 56 3e 1f d5 8c bd ea c1 54 3e
       0.07812379 0.20936626 -0.06876587 0.20777097

weight f4 [8, 32]
000000 63 10 33 3e 21 77 0e 3e 6d 8e 39 bd 54 6e de 3d
       0.1748672 0.13912632 -0.045301843 0.10860887
000010 af f1 db 3d d1 63 40 be 4e de c5 3d 21 69 02 be
       0.10739457 -0.18788077 0.09661542 -0.12735416
000020 69 63 08 3e 59 ce 7f bd 93 6d 29 3e 2b 27 68 3c
       0.13319172 -0.062452648 0.16545705 0.014169495
000030 ca 9b 02 be d4 a5 7e be 24 c5 1b 3d 9b 3e 4e bd
       -0.12754741 -0.24867946 0.038029805 -0.050352674
000040 ee 43 33 3e 8c e7 e0 3d 07 62 22 be 92 0a 27 3e
       0.17506382 0.10981664 -0.15857707 0.16312626
000050 08 0d 9e 3d 4b 04 50 be 08 13 e7 3d ef 1b 6d bd
       0.07717329 -0.20314138 0.11282927 -0.057887968
000060 70 1f b3 bc 71 a6 12 bd 44 45 43 3e fa b2 56 3d
       -0.021865577 -0.035803262 0.19069391 0.05241678
000070 52 c8 fd bd df f1 4a bd 41 87 ed bd c8 b0 39 3c
       -0.12391724 -0.049547072 -0.11598063 0.011333652
000080 9d 6d 93 bd 65 3f 96 bd 64 57 9b 3e a1 bd 86 bd
       -0.071986414 -0.0733631 0.3034011 -0.065791376
000090 d6 e7 97 3e 37 f3 e5 bd d8 b2 ce 3c 93 8d 33 be
       0.29669064 -0.1122803 0.025231764 -0.17534475
0000a0 5a 6c 70 3e 92 dc ca 3d 16 ea 5d bd a1 9a 88 3e
       0.23478833 0.09905352 -0.05417832 0.26680472
0000b0 c0 ae 91 3e ba 90 a5 bd 76 59 96 3e 1e 16 39 be
       0.28453636 -0.08084245 0.29365128 -0.18074843
0000c0 e7 2e 00 be a5 22 93 3e 6e 98 cc 3d d6 8f af bd
       -0.12517892 0.2873737 0.09990011 -0.085723564
0000d0 6e a6 86 be c9 70 f7 bd 0d 9f 2d 3e e2 16 15 3e
       -0.2629885 -0.12082059 0.16955204 0.1455951
0000e0 a5 95 fe bd 39 8d 21 3e 11 29 69 bd 53 e7 98 3e
       -0.12430886 0.15776528 -0.05692393 0.29863986
0000f0 75 41 6d bd ac f8 9a 3e 66 bc 03 be 66 e6 94 3e
       -0.057923753 0.30267847 -0.12864837 0.2908203
000100 1b 75 f0 bd 00 bc 7d bd f5 52 69 3e 54 90 c4 3d
       -0.11741086 -0.06194687 0.22785552 0.09597841
000110 78 2f 4e 3e 6f 9f 3c 3d f0 c9 1d be b4 e3 24 3d
       0.20135295 0.046050485 -0.15409064 0.040256217
000120 8a d6 a3 3c 6d 6c fc 3b 5e 0f 8b 3d a3 1a 4e 3e
       0.019999761 0.007703355 0.067900404 0.20127349
000130 42 c2 89 3e ca 6c 19 be 2b 2f 5f 3e ae 4e 1b 3e
       0.2690602 -0.14982906 0.21795337 0.15166733
000140 ca a6 00 3e 84 38 48 3d 9d ff 05 3e 09 91 8c bd
       0.12563625 0.048882023 0.1308579 -0.06863601
000150 48 16 1d be 23 32 21 bc 51 c6 16 3e b8 04 70 bd
       -0.15340531 -0.009838614 0.14724089 -0.05859825
000160 b0 eb 33 bc 4c ff fd 3d 54 b3 74 3e af 5c 97 3e
       -0.010981485 0.1240221 0.23896533 0.295629
000170 40 a5 b2 bc 9e 94 b3 3c 42 e8 c4 3d 5c c1 b5 3d
       -0.021807313 0.021921452 0.09614612 0.08874771
000180 c0 52 7e bb 82 82 e8 3d 7b 6f 40 3d ec 08 c2 3c
       -0.0038806647 0.113530174 0.046981316 0.023685895
000190 3e 57 b0 bd b2 38 c6 3d 73 71 da bd 7e 2c c9 3d
       -0.0861039 0.096787825 -0.1066617 0.09822939
0001a0 ba 1c cc 3d 6d f0 00 3e be 0f 99 3d 40 6b c3 bb
       0.09966417 0.12591715 0.07473706 -0.005963713
0001b0 ea 6a e0 bd 3c 56 2e bd 0c d3 05 be cb 13 23 bd
       -0.10957892 -0.04256271 -0.13068789 -0.039813798
0001c0 a4 e5 28 3d d2 48 2c be d8 d6 4e 3d d4 50 10 3d
       0.041234627 -0.16824654 0.05049786 0.035233334
0001d0 36 13 d6 3d 2b 59 34 3e 3f ce c3 3d db 7f 23 3e
       0.10452883 0.1761214 0.09560823 0.15966742
0001e0 3b d7 28 3e 80 a1 fa bb ac 5b 14 3d be a0 7b bd
       0.16488354 -0.007648647 0.036220238 -0.061432593
0001f0 3b dc b8 3d 8b 4e 14 3e c7 45 13 3e 62 10 22 3e
       0.09026381 0.14483087 0.14382087 0.15826562
000200 8a 54 2f be c9 d8 28 3e be 8a 7a 3e 10 c9 b7 3c
       -0.17122093 0.16488947 0.24466988 0.022434741
000210 54 33 56 3e d3 9c 8c 3c 22 5b 80 3d 8e eb 5f 3c
       0.20918018 0.017164623 0.06267382 0.013667
000220 05 a4 0a 3e dc 6b 1f 3e 3a 04 d9 3d 2d dd 10 3e
       0.13539131 0.15568489 0.10596509 0.14146872
000230 7b 4e 1f 3c 59 39 92 3d fb f7 76 bd f9 7a 0a be
       0.009723301 0.071398444 -0.060295086 -0.13523473
000240 09 56 43 bc bc c0 cc 3d 48 a5 94 bd 69 65 c9 3d
       -0.011922368 0.09997699 -0.072580874 0.098337956
000250 f6 03 ac bd b3 f8 90 bc ee 11 3b 3e 91 77 bb 3d
       -0.08399193 -0.017696714 0.18268558 0.09153665
000260 a8 19 8d 3c 3e fc b7 bb bb 25 80 3e a4 00 94 bd
       0.017224148 -0.0056147864 0.25028786 -0.07226685
000270 8e 4c 19 be a7 60 63 3d 2b 70 0d 3d df 27 04 3e
       -0.1497061 0.055512097 0.0345308 0.12905835
000280 eb 69 10 3d f0 b3 ae bc cc ce 5f 3d 71 5f 2e be
       0.03525726 -0.021326035 0.054640576 -0.17028596
000290 8a a4 b9 3d 88 42 73 bd cb 7e 10 be 26 71 1f 3e
       0.090645865 -0.05938962 -0.14110868 0.15570506
0002a0 26 c4 03 be e9 94 bc 3d 0f 30 20 3e 8c fc ab bc
       -0.12867793 0.0920809 0.15643333 -0.020994447
0002b0 e5 47 9e bd a0 6e 0c bd 53 79 64 bd 70 3c 15 be
       -0.077285565 -0.034285188 -0.055779766 -0.14573836
0002c0 65 6d a5 bd 18 ba e2 3c 2e 29 fb 3d d1 4a 21 be
       -0.08077506 0.027676627 0.12263714 -0.15751196
0002d0 a8 7c ce 3c dd 0e 10 3e cd 8a 2d be f4 aa 1e be
       0.025205925 0.1406817 -0.1694748 -0.15494901
0002e0 f0 80 2b 3c d4 32 ab 3d 55 68 12 be 22 26 83 bc
       0.010467753 0.08359304 -0.14297612 -0.016009394
0002f0 00 71 3e 3d 95 f3 8d bd 28 dc b9 3c d2 93 c1 bd
       0.046494484 -0.06931225 0.022687986 -0.094520226
000300 6a f3 d4 bd 30 26 1c be 62 26 48 3e 97 d9 d7 3d
       -0.1039799 -0.15248942 0.19545892 0.10539549
000310 03 28 2e bd 26 62 cd 3d af 85 9a bd 77 db f7 ba
       -0.042518627 0.10028486 -0.07545029 -0.001891001
000320 c8 03 06 be 63 1d e0 3d 5e ba dd bd 07 42 3f 3e
       -0.1308738 0.10943105 -0.10826562 0.18677531
000330 3d d9 10 3e 17 29 c7 bd 58 f7 de 3c 09 59 12 3d
       0.1414537 -0.09724634 0.027217552 0.03572944
000340 c1 92 ef 3d 12 b7 c4 3a 03 98 26 3e b7 e2 1d be
       0.11697913 0.0015008172 0.16268925 -0.15418516
000350 c2 d3 4e 3e b6 75 bc 3d 86 ce 70 3e 4e db 1b 3d
       0.20197967 0.09202139 0.23516282 0.038050942
000360 b6 36 c7 3d 74 df 3b 3e b0 eb 15 be d9 c7 ae bb
       0.09727232 0.1834696 -0.14640689 -0.0053338823
000370 b5 bd 20 bd 8c 9d ba bd 48 00 14 be 42 7f 0f 3d
       -0.03924342 -0.09112081 -0.14453232 0.035033472
000380 51 97 ff bd 60 09 a7 bb 5d d9 e2 3d 42 b4 ea bd
       -0.12480033 -0.005097553 0.11076615 -0.11460163
000390 67 a2 05 3d 4b 00 1c 3e 17 52 31 3e a6 b8 9c 3d
       0.032625582 0.15234487 0.17316471 0.076524064
0003a0 85 78 b3 3d dc be 0a bd 00 24 e4 3b 87 fb 34 be
       0.08763222 -0.033873424 0.0069622993 -0.17674075
0003b0 6c 62 51 bd 54 fa 8b 3d 08 16 f6 bc cb a5 a4 bd
       -0.051119253 0.06834856 -0.030039802 -0.08039435
0003c0 eb bc d6 bd 94 8e 14 bd e3 88 a3 bd c0 82 de 3c
       -0.10485252 -0.036268786 -0.079850934 0.027161956
0003d0 2d 73 34 3e fd ad 32 3e 49 a3 f7 bd 55 23 20 be
       0.17622061 0.17449184 -0.12091691 -0.15638478
0003e0 62 99 ba 3d 45 9e 0d be 14 d1 28 be a0 91 28 be
       0.09111287 -0.13829906 -0.16486007 -0.16461802
0003f0 c8 a5 07 3d b0 92 f5 bc 7c 2b 3e 3d 7b 83 ff bd
       0.033117086 -0.029977173 0.04642819 -0.1247625

bias f4 [8]
000000 66 0d bf bd a4 68 7e 3e da bd c9 3d 2d 86 cc bd
       -0.093287274 0.24844605 0.098506644 -0.099865295
000010 82 5f 89 3e d4 e1 bd bd 32 20 07 3d 7e a1 c6 3b
       0.2683068 -0.09271589 0.03298969 0.006061732

weight f4 [1, 8]
000000 00 2e a0 3e be 7b a9 3e 61 98 16 3e e5 de ce 3d
       0.31285095 0.3310222 0.14706565 0.101011075
000010 e3 6c f7 3d c3 db 63 3e 22 67 59 be 9c 9a 94 be
       0.12081315 0.22251801 -0.21230748 -0.29024208

weight f4 [64, 4]
000000 6e 8f 54 3e 1b 7c 00 bf 18 c2 ce be 10 c1 96 be
       0.20757839 -0.5018937 -0.40382457 -0.2944417
000010 70 3f 14 be 56 57 82 3d 4d 1b 09 3e 9d 8b 0e 3f
       -0.14477324 0.06364314 0.1338932 0.5568178
000020 55 3f bf be 01 65 64 3e 1e 96 fb be 96 46 5d bf
       -0.37353006 0.22304155 -0.49137968 -0.8643583
000030 12 b0 04 3e 68 96 de 3c 3d 4f 97 3b 84 60 bc 3e
       0.1295779 0.027171329 0.0046176002 0.36792386
000040 e3 8a 6c 3e ea cb 2a 3e 85 e8 b7 3c 6b 22 0e bf
       0.23099856 0.1667935 0.022449741 -0.5552127
000050 5d 78 ce be 63 47 b9 be 67 af c4 bd 87 0b 7b be
       -0.40326205 -0.36187276 -0.09603768 -0.24516116
000060 ca ab 50 3e 93 3d 79 3e 58 2d 52 bd c5 ff 2a 3f
       0.20378032 0.24339895 -0.051312774 0.66796523
000070 f4 7e 89 be ab 28 b7 bd 3c 9d 86 be 0d 67 5d bf
       -0.2685467 -0.08943304 -0.26291835 -0.8648537
000080 91 10 66 be d3 fe 0c 3e e9 b1 1b bf 1c 9f b5 be
       -0.22467257 0.13769083 -0.60818344 -0.35472953
000090 52 33 98 bc ff 6e 75 3d da c3 25 bf 17 71 2c bf
       -0.018579159 0.059920307 -0.6475197 -0.6736006
0000a0 a7 eb 6f 3e 8e 11 ce be 74 b9 52 bf 3b f2 1e bf
       0.23429738 -0.40247768 -0.8231423 -0.62088364
0000b0 61 ac bd bd 62 85 8e 3d 51 57 12 3e f0 46 4e 3f
       -0.09261394 0.069590345 0.14291121 0.8057699
0000c0 fd 6d aa 3e 38 a2 35 3e 46 b2 25 bd a5 c5 84 be
       0.3328704 0.17737663 -0.040453218 -0.2593204
0000d0 0f b8 8d 3e 1e 5f ea bd 0a 6d 8c 3e d6 34 41 be
       0.27679488 -0.114439234 0.2742694 -0.18867812
0000e0 9a e7 8f be 66 0c 8a be 19 78 d8 bb 06 c7 e0 3e
       -0.28106385 -0.26962584 -0.0066061136 0.43901843
0000f0 68 7b b1 be cb 26 5b 3e c0 ef d4 bc 59 8d 5d 3f
       -0.34664464 0.21401517 -0.025993228 0.86543804
000100 b9 a9 02 3d 99 b0 ec 3c ff fe 0b bf b9 63 06 bf
       0.03190014 0.028892802 -0.5468597 -0.52495915
000110 ad 06 02 be 8a a0 ad 3e 8e ce 60 3f bb 76 44 3f
       -0.12697859 0.33911544 0.8781518 0.7674367
000120 97 3e d0 3e 3b b6 fb be dd 08 9a be 19 09 fe be
       0.40672752 -0.49162468 -0.30084887 -0.49616316
000130 54 ec 4d bd 69 3f ba bd c3 6d 7c 3b 94 b3 2d bf
       -0.05027421 -0.09094126 0.0038517572 -0.6785214
000140 c4 60 f8 be 80 f7 2c 3e 54 88 d3 be 4d 9b 29 bf
       -0.48511326 0.16891289 -0.41314948 -0.66252595
000150 bc e1 c1 3e 0f a8 59 bc 26 e6 2f 3f d6 a4 29 3f
       0.37867534 -0.013284697 0.68710554 0.66267145
000160 7c ee 7a bd 79 b3 4f 3d 20 f0 f2 3e 1c c1 37 3f
       -0.061262593 0.050708268 0.47448826 0.71779037
000170 27 57 c4 3e fc 3c 3a 3d 4e 29 2b be a2 5a b4 be
       0.38347742 0.045468315 -0.16714975 -0.35225397
000180 36 a5 93 3e 52 36 bd 3e 79 97 0e bf 7b 6a 60 be
       0.28836983 0.36955506 -0.5569988 -0.21915619
000190 6d dd a2 be 93 ba 7b 3e d6 42 09 bf ad 01 be be
       -0.3180956 0.24582891 -0.5361761 -0.37110654
0001a0 48 2d 8e 3e 39 8b 1f 3e 33 60 7a 3d 4c 9e 5e 3e
       0.27768922 0.15580453 0.0611269 0.21740073
0001b0 0b d6 7f 3e 9d fb fa be cb 6a de 3e ec b7 16 3e
       0.24983995 -0.4902009 0.43440852 0.14718598
0001c0 83 6b aa be 94 9e 1e 3e ba 14 f6 bc 6e 71 5f bf
       -0.3328515 0.1549018 -0.03003918 -0.87282455
0001d0 a2 6e e3 3e 7d 1c 94 be 6c 75 ea 3e 28 e7 20 3e
       0.44420344 -0.28927985 0.4579271 0.15713179
0001e0 8a 94 2e 3d 40 29 99 3e 0e d8 df be b1 e2 98 3d
       0.042622127 0.29914284 -0.43719524 0.07465113
0001f0 50 65 10 3e 00 37 d9 3d 8b 42 6e bd ad 20 08 3f
       0.14101148 0.106061935 -0.05816893 0.5317486
000200 86 0e da bd 0c 4f bd 3e e9 37 e5 3e 78 ee 0b 3f
       -0.106473014 0.3697437 0.4476922 0.5466075
000210 94 8f 3f be ee 2f 21 3c 87 0a 26 3e f3 bd 83 3f
       -0.18707114 0.0098380875 0.16214953 1.0292343
000220 4c fc 9f 3e cf 56 b9 3e 97 f2 f3 3d 2e 1e 67 3e
       0.31247175 0.36199042 0.11911505 0.22570106
000230 ad fd 11 bf 23 ad 08 bf b3 78 03 bf 10 ad d9 be
       -0.57027704 -0.53389186 -0.5135605 -0.4251485
000240 ce 8b 0e 3f d8 f4 ff bd a5 f0 0d 3e f9 68 2e 3f
       0.55682075 -0.12497872 0.1386133 0.68128926
000250 df c6 8c be 56 26 aa 3d 44 28 19 be ef e7 c8 be
       -0.27495477 0.08308093 -0.14956766 -0.3923945
000260 95 60 14 be 54 20 3e 3e f0 f1 d7 3c 67 56 b8 3e
       -0.14489968 0.1856702 0.026360482 0.3600342
000270 d0 5f 96 be d2 e1 87 be 33 db 11 be 40 92 0e bf
       -0.29369974 -0.26539475 -0.14243774 -0.5569191
000280 12 2a ca bd b7 43 f5 bd f6 bf 23 3d 8d cc 70 3e
       -0.098713055 -0.11975806 0.03997799 0.2351553
000290 72 64 cb 3e 2b c4 28 be 3b 63 1e bf b5 08 ae 3e
       0.3972507 -0.16481082 -0.61870164 0.33991018
0002a0 7d c8 75 be 20 f7 a8 bc 68 9b 13 be dd 68 11 bf
       -0.24002261 -0.02062565 -0.14414752 -0.56800634
0002b0 ea e7 49 bd 94 67 1f be 63 56 83 be 51 03 86 bd
       -0.049293436 -0.15566856 -0.25651845 -0.06543601
0002c0 76 76 0a bf c1 7f f1 be de 30 2e be af 97 f2 3e
       -0.5408701 -0.4716778 -0.17010829 0.4738135
0002d0 3b cf 89 3e 6d e5 41 bc ad 20 e9 be 9c 19 d1 3d
       0.26915917 -0.0118344845 -0.45532742 0.10209963
0002e0 16 40 94 3e 65 b9 25 3e 0a 38 87 be 44 6d 8c 3e
       0.28955144 0.16184004 -0.26409942 0.27427113
0002f0 d9 f3 9e 3d 2c 46 04 3e ba 60 d5 be ea 99 3d bf
       0.07761354 0.12917393 -0.4167536 -0.7406298
000300 aa 1b 37 3e 7d 58 9a 3e 23 56 b6 3e e8 2c 62 3f
       0.17881647 0.30145636 0.35612592 0.8834977
000310 e5 6a f9 bd ea 19 c4 be 7b 0b 56 3c 16 52 70 be
       -0.12178592 -0.3830102 0.013064261 -0.23468813
000320 36 ff 03 3e 06 55 69 be 78 0f a7 bd 02 6a 22 bf
       0.12890324 -0.2278634 -0.08157247 -0.63443005
000330 f1 1b 0f 3b a4 ec 42 3e 98 f8 53 bf 09 a1 19 bf
       0.0021836723 0.19035584 -0.828012 -0.60011345
000340 34 74 d7 be c8 75 01 3e 1d ff 73 bd 44 1b ce 3d
       -0.42080843 0.12642586 -0.059569467 0.10063794
000350 ae e4 cb bd bd 93 49 3d 03 e9 92 3e b5 dc 61 3d
       -0.099557266 0.04921316 0.286934 0.055142123
000360 55 99 30 be b8 10 c9 3e 9b 7d a3 be 5b ff 1b 3d
       -0.17245992 0.39270568 -0.31931767 0.038085323
000370 45 7c b8 be 21 7e 49 3e 12 f1 78 be 12 d6 35 bf
       -0.3603231 0.1967702 -0.24310711 -0.7102977
000380 62 18 88 3c 37 3e 6a 3e 3c 77 60 3d b2 40 00 3f
       0.01661319 0.22875296 0.05480121 0.5009872
000390 94 a3 28 be 32 64 c7 bd 18 1f ae bd a9 86 29 bf
       -0.1646865 -0.097359076 -0.085020244 -0.662211
0003a0 4c fe e2 bd 67 a2 b4 3e 68 78 52 3f 10 b3 ee 3e
       -0.110836595 0.35280153 0.82214975 0.4662099
0003b0 54 0c a8 3e f5 67 77 be f2 ab 2b bf fc 8b 21 bf
       0.32821906 -0.2416075 -0.6705924 -0.63104224
0003c0 15 42 6b 3e c4 58 95 bd 48 33 fa bd 3b 6d a9 be
       0.22974427 -0.07292321 -0.12216812 -0.3309115
0003d0 94 ef 45 3e 3a 2c 56 3e f7 7d 09 be 9e 65 95 3d
       0.19329673 0.20915309 -0.13426958 0.072947726
0003e0 4e 19 07 3e 67 19 fb bd ff 4b 7c 3f ef 00 20 3f
       0.13193247 -0.122607045 0.9855346 0.62501425
0003f0 a0 67 cd bc 67 9c dc 3e b1 8b 07 3e 9d a1 8c 3e
       -0.025073826 0.43088076 0.13236882 0.2746705

bias f4 [64]
000000 ad 0b 8b be 16 a5 61 3e 83 ac ca 3e b2 66 1a 3e
       -0.27157345 0.22035632 0.3958474 0.15078238
000010 b4 bb 98 be 7d 0a 06 be 48 80 b4 3e 5e ce f6 3e
       -0.29830706 -0.13089938 0.3525412 0.4820432
000020 d9 57 14 3f 93 97 76 3e 1f c0 00 3f f0 5d 2d 3d
       0.57946545 0.24081258 0.50293154 0.042325914
000030 45 cc 43 be 68 bf ee bd 00 40 f9 bd 1d 31 67 3e
       -0.19120891 -0.116576016 -0.1217041 0.22577329
000040 f3 33 7d 3e 7a 57 b8 3e 83 68 0d 3c 3f 83 bd 3d
       0.24726848 0.3600424 0.008630875 0.09253549
000050 43 9b c5 3e 1d 01 ec 3e d0 57 28 3d 27 56 b1 3d
       0.38595018 0.460946 0.04109937 0.086590104
000060 77 49 8a be 50 25 76 3d 20 f4 30 be 5f 4f cb ba
       -0.27009174 0.060094178 -0.17280626 -0.0015511325
000070 aa 56 28 3e 80 18 a4 be 1e 6d 80 bd 07 c2 d1 be
       0.1643931 -0.32049942 -0.062708125 -0.40968344
000080 7b cd cc 3e 8f a8 93 3e e6 d2 e7 be 6e 76 43 be
       0.4000052 0.28839538 -0.4527809 -0.19088146
000090 a2 d2 01 3f d4 62 e0 be 61 cc 6a be 7e 5c 76 be
       0.50712025 -0.438254 -0.22929527 -0.2405872
0000a0 cf 43 c7 be 61 84 e3 be 32 56 c4 3e c5 9a 82 bd
       -0.3891892 -0.44436935 0.38347012 -0.06377176
0000b0 66 17 57 be 26 95 a8 be 7a 70 3d be 19 f2 e6 3e
       -0.2100502 -0.3292629 -0.18499938 0.4510658
0000c0 85 af f4 3e 93 dc 5c bd 4c 27 20 3e 2f d5 e3 3e
       0.4779016 -0.053921293 0.1563999 0.44498584
0000d0 7e e4 a4 be 55 20 a4 be c2 96 08 3e 92 9b 1c 3e
       -0.32205576 -0.32055917 0.1333876 0.1529372
0000e0 b1 1e 01 3f 55 4a a2 3e d3 20 ca 3e a4 28 7c 3e
       0.50437456 0.31697336 0.39478168 0.24624878
0000f0 cb 37 d8 be d2 83 01 be 70 c5 ed 3e 60 0e 53 be
       -0.42230067 -0.12647942 0.46439695 -0.20610952

weight f4 [32, 64]
000000 b9 ab 62 be dd 1c 24 3e db d9 c6 bd 82 09 ed 3c
       -0.2213582 0.16026635 -0.097095214 0.028935198
000010 29 4b 4a bc 8f f1 43 be 7f 19 41 3e b9 8b 38 be
       -0.012347021 -0.19135116 0.18857382 -0.1802205
000020 e0 53 fb 3d 88 8f aa 3b d1 30 82 be 38 88 8d 3e
       0.12271857 0.0052050985 -0.2542787 0.2764299
000030 2e d6 97 3c eb 35 f9 3d bb 70 ed 3d 60 1c 4f 3e
       0.018534746 0.12168487 0.11593767 0.20225668
000040 34 89 29 be 25 84 af 3e ba 59 7c bd 85 0a 66 be
       -0.16556245 0.34280506 -0.061609007 -0.2246495
000050 ed 63 eb bd b5 c1 ac 3e 43 6a 68 3e 25 8f 72 bd
       -0.11493669 0.33741537 0.22696786 -0.059218545
000060 1c 2f 48 bd 5c 07 ab 3d 40 16 f1 3d f7 2b bc bd
       -0.048873052 0.08351013 0.11771822 -0.09188073
000070 19 57 8c be fa 32 cd bd fe b6 4d 3d 66 1d 29 bd
       -0.274102 -0.10019489 0.050223343 -0.041287802
000080 b4 66 f4 3d a7 2b dc 3e 87 17 0b 3e 9b 9d 8e bd
       0.119336516 0.43002054 0.13583194 -0.069636546
000090 54 f8 ac 3e 9c 44 80 3c 9c 7d 00 be e3 07 31 bd
       0.3378321 0.015657715 -0.12547916 -0.043220412
0000a0 30 60 85 bd 6d a6 85 bd 77 20 c1 bd 90 83 29 3d
       -0.06512487 -0.06525884 -0.0943002 0.041385233
0000b0 29 9d 35 3d 98 b5 89 bd 64 ab 08 3e 82 6b a1 bd
       0.044339333 -0.067240894 0.1334663 -0.078818336
0000c0 a9 12 d9 3e 69 19 09 be 3e 3d 75 be 4d c1 10 bd
       0.4239705 -0.133886 -0.23949143 -0.035340596
0000d0 cb 5e 03 be 4c 9e ac bd a9 1a 3a 3d e6 c2 ff be
       -0.1282913 -0.0842863 0.04543558 -0.49953383
0000e0 4d 89 68 3e ad 3b c8 bd 08 24 8d 3e af 89 97 be
       0.22708626 -0.09777007 0.27566552 -0.29597232
0000f0 d0 a9 47 3e 3b 40 18 3d 57 9f 5e 3e db 4f 06 3e
       0.19498372 0.03717063 0.21740471 0.131164
000100 89 f5 3f be db 08 9e 3e 24 87 81 3d d5 59 88 3b
       -0.18746008 0.3086613 0.06324604 0.0041610994
000110 4d 77 bf bd 5c ac 65 be 5c 69 88 3e 15 65 10 be
       -0.09348927 -0.22429031 0.26642883 -0.1410106
000120 e5 db d3 3c ce 1e 43 be 69 41 6e be 09 ba 1c 3e
       0.02586169 -0.1905472 -0.2326714 0.15305342
000130 8e f8 bf bd f8 45 e2 3d 06 30 37 bd e8 7f 64 3d
       -0.0937358 0.11048502 -0.044723533 0.055786043
000140 02 2c ed bd b1 d1 7b 3e 2f f3 b9 bd 5e 4e e0 be
       -0.115806594 0.2459171 -0.09079587 -0.4380979
000150 b5 17 db bc d8 47 0a 3e 6e 16 52 3e e1 1e 96 bd
       -0.026744703 0.13503969 0.20516369 -0.073301084
000160 88 e4 0e 3d e7 aa f2 bc 11 ca 40 3d a6 90 f7 bd
       0.034885913 -0.029622508 0.047067706 -0.120881364
000170 6e a4 50 be f3 16 0e bd d3 16 84 bd fe ce 0c bd
       -0.20375225 -0.034689855 -0.06449666 -0.03437709
000180 27 0e 34 3e 6e 69 fc 3e b7 ca 0e 3e 0c f9 27 be
       0.17583524 0.49299186 0.13944517 -0.16403598
000190 8e ff 92 3e 27 4d e7 3d 77 df 6c bd af 39 e8 bc
       0.28710598 0.112940125 -0.0578303 -0.028347818
0001a0 a0 87 1d 3d 67 21 7d bd 60 b3 d1 3c 4d 97 b1 bd
       0.03845942 -0.061799433 0.025598228 -0.086714365
0001b0 5e 4c 15 3d 91 40 53 bd 96 35 6b 3d 7b 66 be bd
       0.036449783 -0.051575247 0.05742415 -0.0929689
0001c0 51 5d 95 3e b9 e9 b7 bd d6 32 86 be d8 15 56 be
       0.29172757 -0.08980126 -0.2621066 -0.2090677
0001d0 1d c5 20 3d a6 01 46 3d e6 4b a8 bc 63 a9 dc be
       0.039250482 0.048341416 -0.020544004 -0.43097982
0001e0 af 0c 61 3e 2d 6d 55 be 73 d2 2c 3e a8 50 a5 be
       0.21977495 -0.20842429 0.16877155 -0.32288098
0001f0 c4 85 5b bc e3 ff 6f 3c 46 32 08 3e c0 fb 20 3e
       -0.013398591 0.0146484105 0.13300428 0.15721035
000200 3d d0 07 3e c8 db 37 be fb 76 24 3e 4f 9b 89 3c
       0.1326303 -0.17954934 0.16061012 0.01679769
000210 09 aa b0 3c 52 37 5d 3e 4d de 09 be 71 e5 9e 3e
       0.021565454 0.21603134 -0.13463707 0.31034425
000220 08 94 a1 3c c7 94 3b 3e 50 4a 8e 3e 0b 42 0e be
       0.019723907 0.18318473 0.2779107 -0.13892381
000230 ef 4a 4b 3e 9c 15 c8 bd 79 b0 b7 3d d6 6e 12 be
       0.19852804 -0.09769747 0.08969206 -0.14300093
000240 8f 52 43 bd 9b 2a 6a be 4d c8 82 3e af 56 09 3f
       -0.047686156 -0.22867815 0.25543442 0.53647894
000250 f2 26 8b 3e b8 40 8d be 6d 15 6a be 5e d7 d5 3d
       0.2717815 -0.2758844 -0.22859736 0.10441469
000260 c8 42 3e 3d 4f 0b 90 3e 1f 34 29 be 2e df 28 3d
       0.046450406 0.28133628 -0.16523789 0.041228466
000270 13 8b d7 3e 0e 21 82 bd 3a 45 07 3d 30 35 56 3d
       0.42098293 -0.06353961 0.033025004 0.052296817
000280 b9 f5 4a be 0c ec 86 be 0c cb 7e be b3 66 6e 3e
       -0.19820298 -0.26351964 -0.24882144 0.23281364
000290 27 b7 b1 bd 9a 2d 1b be fe 80 19 3e 63 96 d6 3d
       -0.08677512 -0.15154114 0.14990613 0.10477903
0002a0 cb 4d bd 3d 69 82 0b be 88 32 6b 3e aa c5 43 3e
       0.092433535 -0.13623966 0.22968495 0.19118372
0002b0 e5 0b 4e 3e b9 62 97 3d b5 d3 06 be 72 7b 94 3d
       0.20121725 0.07391877 -0.13166697 0.07250108
0002c0 d1 b3 8b be 36 47 02 3e 77 4a 09 3f 5b a0 39 3e
       -0.27285627 0.12722477 0.5362925 0.18127577
0002d0 29 12 df 3c 77 f7 8c bd bd b4 c0 3b f4 3c e4 3e
       0.02723034 -0.06883138 0.0058809207 0.44577754
0002e0 0b 9e 04 bd d2 89 d3 3e 33 98 19 be 87 ff 82 3e
       -0.032377284 0.41316086 -0.14999466 0.25585577
0002f0 fe de 62 bd 56 5f 33 be cb b4 59 be 6b 08 8e be
       -0.055388443 -0.17516837 -0.21260373 -0.27740797
000300 4c 2c 3e bd 7a 9d a1 3d 65 c6 eb bd 1b 00 2c bd
       -0.046428964 0.078913644 -0.1151245 -0.041992288
000310 c8 cc 81 bd cc 27 f8 3d 81 10 03 be ef d9 4f 3d
       -0.06337887 0.12116966 -0.12799264 0.050744947
000320 88 3b 77 3d 70 e8 46 3d c9 27 91 3d ea 95 f7 bd
       0.060359508 0.048561513 0.070876665 -0.12089141
000330 1e 0b 43 bd 39 7d 86 3b 81 d0 d7 bd 4d f4 ac 3d
       -0.047618024 0.004104283 -0.10537816 0.08445034
000340 29 6f a3 bd fb 4e f6 3d 10 22 a5 3c 48 53 e9 3d
       -0.079801865 0.12026783 0.020157844 0.11392838
000350 ee dd b2 bd 07 12 04 be 5d 09 a3 bd 26 a2 e2 3d
       -0.08733736 -0.12897502 -0.0796077 0.110660836
000360 9f b6 4e 3d d1 68 e7 3d 86 b1 d6 bd 4f a8 f3 bd
       0.05046713 0.11299289 -0.10483079 -0.11897337
000370 00 cc bd 3d 15 a8 f9 3d e0 10 c4 3c 67 0f db 3d
       0.092674255 0.12190262 0.023933828 0.10696297
000380 77 fa 8e bd d1 01 11 bd 90 91 aa 3b 00 e9 30 3a
       -0.06981366 -0.035402123 0.0052053407 0.0006748587
000390 88 9d 74 bc e6 1b c0 bd 70 10 9d bd b6 c6 a2 bd
       -0.0149301365 -0.09380321 -0.07669151 -0.07948057
0003a0 00 77 3b 3d 63 44 01 be 90 57 90 bd cc 95 ef 3d
       0.045767784 -0.12623744 -0.07047951 0.11698493
0003b0 e1 59 9d bd d2 1d 9e 3d 32 dd 5a 3d 9f e7 c6 bd
       -0.07683159 0.077205315 0.053433605 -0.09712147
0003c0 3d 8c f5 3d 8a 7c 8d bd 40 df ea 3b 39 30 ab bd
       0.11989639 -0.069085196 0.0071677268 -0.08358807
0003d0 ec dd b6 bd 98 32 e4 3d 04 1b b5 bd 00 c8 1a 39
       -0.08929047 0.111424625 -0.088430434 0.0001476109
0003e0 da 59 d0 3d b2 d3 e8 bd 66 69 0f bd 66 c4 db bc
       0.10173388 -0.11368503 -0.035012625 -0.026827049
0003f0 d4 57 e8 3d 85 8e dc bc 70 53 7a 3d b1 1e bf 3d
       0.11344877 -0.026923427 0.06111473 0.09332026

bias f4 [32]
000000 49 c4 37 bd 19 d7 f3 3d 09 d7 31 3d 1c 6d d4 bc
       -0.044864926 0.11906261 0.043417964 -0.025930934
000010 c4 dd e0 3d 53 90 15 3e b5 da 2c 3d a0 c4 bb 3d
       0.109797984 0.14605837 0.042200763 0.091683626
000020 44 27 09 3e ff d9 26 3d 01 3c aa 3d 55 26 3c 3d
       0.13393885 0.04073524 0.08312226 0.045934994
000030 67 01 c8 3d d9 50 36 3e 54 d2 d6 bd 59 80 e4 bd
       0.097658925 0.17804278 -0.10489336 -0.11157293
000040 bc 85 c5 3d 63 48 4b 3d 8b b8 23 bd 64 b4 71 bd
       0.096446484 0.04962958 -0.039970916 -0.059009925
000050 42 63 8c 3d 2f 78 f9 3d a2 1e 74 bd dc 96 49 bd
       0.068548694 0.12181126 -0.059599526 -0.049216136
000060 e6 77 04 3e 5e 16 07 be af 18 30 3e de 7c 0c 3c
       0.12936363 -0.13192126 0.17196916 0.0085746925
000070 0a ac ad bd 51 76 c9 3d ff 1b a2 3d ea 29 8e ba
       -0.084800795 0.0983702 0.07915496 -0.0010846232

weight f4 [8, 32]
000000 aa 69 49 be 1e b6 99 be 1c 0d c4 3e 2a f6 9c bd
       -0.19669214 -0.30021757 0.38291252 -0.076641396
000010 aa ba 9a be a6 6d aa 3e db c1 6d be e0 df 6f 3e
       -0.30220538 0.3328678 -0.23218481 0.23425245
000020 7c f2 64 be 30 35 9c 3e 5f 59 71 be 8e fe f4 bd
       -0.22358125 0.3050933 -0.23569249 -0.11962615
000030 c5 be ca 3e 85 17 9c bd a2 c2 da bb bb 01 21 be
       0.3959867 -0.076216735 -0.006676034 -0.15723316
000040 09 a8 8e bd 52 89 89 3e 19 22 46 bd 7d 8d ab 3e
       -0.06965644 0.2686258 -0.04837236 0.33506384
000050 4f 6f 5a be 4f bb c7 3e 62 28 86 bd ee d2 a6 be
       -0.21331523 0.39010093 -0.06550671 -0.32582802
000060 9b 09 ce 3d 21 da 54 bc ad ac 41 3e 86 6a 27 be
       0.10060426 -0.012991459 0.18913527 -0.16349229
000070 b2 ef 8d 3e 22 14 96 3e a2 c7 99 3e 5c c5 f3 3c
       0.27721936 0.29312235 0.3003512 0.029757194
000080 5f 82 af 3e 94 a6 71 3e 0c 7b bc bc b9 0c 12 3d
       0.34279153 0.23598701 -0.023007892 0.035656665
000090 65 14 44 3e e0 b8 89 be 60 ae b2 3e d5 b7 dd bc
       0.19148405 -0.2689886 0.34898663 -0.027065197
0000a0 f4 1a 49 bc db a3 a1 be 5c 82 6e 3e f5 fe ac 3d
       -0.0122744925 -0.31570324 0.23291916 0.08447067
0000b0 72 20 81 be f5 ca 23 3d 0d 12 6b bd ca 38 80 3c
       -0.25220066 0.039988477 -0.05739026 0.01565208
0000c0 47 93 09 3e 84 d0 1b 3d fd 74 ae 3d 8f 21 bf be
       0.13435088 0.038040653 0.085184075 -0.3733029
0000d0 c4 a9 27 3e cb 2b 56 bc 62 e3 e9 3c a5 eb b2 3e
       0.16373354 -0.0130719645 0.028550807 0.34945408
0000e0 f1 60 86 3e 87 ed 12 3e 60 24 32 3e 95 3e 87 3e
       0.26245835 0.14348422 0.17396688 0.26414934
0000f0 c2 12 94 be 48 40 99 be 4b 64 93 be f3 ec c4 3d
       -0.2892056 -0.29931855 -0.28787455 0.09615507
000100 99 73 b3 3e a0 aa e6 3d c6 8a c6 be 00 c6 38 3d
       0.35049132 0.11263013 -0.3877775 0.045110703
000110 0c 80 09 3e 2e b1 93 be 4f 72 a2 3e 38 ba ec 3d
       0.13427752 -0.28846115 0.31727836 0.11558956
000120 5f 35 29 3e 4d db 29 be a6 f3 40 3e e8 05 e5 bd
       0.16524266 -0.16587563 0.18842945 -0.11182767
000130 03 8a 7b be 22 11 87 3e 72 9c 3e bd 60 ac 7f 3d
       -0.24564366 0.2638026 -0.046535917 0.06242025
000140 37 73 31 3e 67 60 15 be f2 4e 3a bd b5 86 a2 be
       0.17329107 -0.14587556 -0.045485444 -0.31743398
000150 a6 b4 80 3e 0a 5d 68 be 01 8f f5 3d 13 b9 d9 3c
       0.25137824 -0.22691742 0.119901665 0.026577508
000160 38 10 9a 3d 31 c6 e5 bd a2 c4 0d 3e ff 6a d5 3e
       0.07522625 -0.11219443 0.1384454 0.41683194
000170 d0 9d c9 be ee d9 95 be c7 aa a1 be 23 9c 18 be
       -0.39378214 -0.2926783 -0.31575605 -0.14903311
000180 96 7d be 3d 60 ae 5f 3d be 30 83 bd 0d 05 02 be
       0.09301297 0.054609656 -0.06405781 -0.12697239
000190 c2 61 92 3e 8c 65 7e be b9 80 96 3e 7a 23 11 be
       0.28590208 -0.24843425 0.29395083 -0.1417369
0001a0 4a 69 11 3e ae 2f 19 be ef bb 99 3e 2e ea 88 3e
       0.14200321 -0.14959595 0.30026194 0.26741165
0001b0 62 0f 9b be ef 00 92 3e 82 52 32 bd 10 2d 10 3e
       -0.30285174 0.28516337 -0.043535717 0.1407969
0001c0 09 3a a0 3d 3b 9c 90 3c eb 4b e9 bd e3 49 99 be
       0.07823569 0.017652621 -0.11391433 -0.29939184
0001d0 fd 94 23 3d 9a e3 61 be 8b 04 1d be ab 4e 32 3e
       0.03993701 -0.2205948 -0.15333764 0.17412822
0001e0 8e fc 62 3d e5 9a db 3d ed dd 88 3d d7 7e 89 3e
       0.055416636 0.10722903 0.06682954 0.26854584
0001f0 f1 5a 2e be 14 4b 46 be 54 53 82 be 20 63 04 be
       -0.17026879 -0.19364578 -0.254542 -0.12928438
000200 29 99 9e be d5 bb 4c bd 21 17 f7 3e f5 43 ba bd
       -0.30976227 -0.049983818 0.48259833 -0.09094993
000210 12 93 a4 be 34 76 97 3e ca fa 11 be aa c7 ac 3d
       -0.32143456 0.2958237 -0.14255825 0.084365204
000220 53 d6 86 be 63 09 7e 3e 4a 9e f3 bd 67 2a 05 be
       -0.2633539 0.24808268 -0.118954256 -0.13004456
000230 96 d7 a6 3e 99 71 08 be ab ba 58 bd 90 04 34 be
       0.32586354 -0.13324584 -0.052912395 -0.17579865
000240 05 56 cd bd 00 de c5 3e 04 05 ae bc 12 4f 04 3f
       -0.100261725 0.38645935 -0.021242626 0.5168315
000250 8f dd 3f be 73 af ee 3e ae e6 60 3d 14 65 ed bc
       -0.18736862 0.46618232 0.054907493 -0.028978862
000260 99 78 8b bd e5 70 b2 bd 93 b2 48 3d 2b 8c b4 be
       -0.068101116 -0.08712939 0.048998427 -0.3526319
000270 65 c5 ba 3e aa 45 81 3e e1 e4 1b 3e 68 18 45 bd
       0.36478725 0.25248462 0.15224029 -0.04811898
000280 80 a4 90 bb ac d6 32 be e8 4a c0 bd 24 fc 6e 3d
       -0.004414141 -0.17464703 -0.09389287 0.05834593
000290 1e 6f 65 bd 82 91 9c 3d 1f 69 0b be 2e bc 17 be
       -0.056014173 0.07644941 -0.1361432 -0.14817879
0002a0 02 8c 70 bd 76 27 81 bd 3c 17 89 3d ec 07 1b 3d
       -0.05872727 -0.06306355 0.06693885 0.03784935
0002b0 97 34 83 bd 8e c1 24 be b0 ef bc bc 19 65 b0 bd
       -0.06406515 -0.1608946 -0.02306351 -0.08613033
0002c0 8c 8d 4f bd e8 0a 6d 3d ca 55 f6 3d 29 c2 28 3e
       -0.0506721 0.05787173 0.12028082 0.16480316
0002d0 3c 20 c7 bd be 8f 74 bd d0 a3 27 bc 34 7f 0d be
       -0.09722945 -0.059707396 -0.010231927 -0.13818055
0002e0 a9 53 1b 3e e2 59 e4 3d 96 0c fc bd 5b 54 26 be
       0.15168633 0.11149956 -0.12307088 -0.16243117
0002f0 0b f6 27 be 62 32 06 be 02 69 cd 3d 49 31 b1 bd
       -0.16402452 -0.13105157 0.10029794 -0.086519785
000300 ae 3e 6d 3e 01 90 98 3e f6 30 47 be 64 1f 0a be
       0.23168442 0.29797366 -0.19452271 -0.13488537
000310 e4 dd 89 3e 3e 8c e4 bd ff 6d 97 3e 37 65 e2 bd
       0.26927102 -0.111595616 0.29576108 -0.110544614
000320 97 e9 4a 3e 7f d7 48 be 24 c6 33 3d b6 98 b5 3d
       0.1981567 -0.19613455 0.043890134 0.08867018
000330 65 0d ac be 0b a2 58 3e 55 e7 fa 3d 68 dc 92 3c
       -0.3360397 0.21155564 0.12251154 0.017927364
000340 93 8d 1e 3e 08 d0 21 3c 12 5a b4 bd a3 77 5a be
       0.15483694 0.009876259 -0.08806242 -0.213347
000350 3b 67 3c 3e f8 09 98 bd a1 57 1f be 00 19 80 3d
       0.18398754 -0.074237764 -0.15560772 0.06254768
000360 45 c2 ae 3d fe 35 9f bc 5b b3 5b bd da 75 2e 3e
       0.08533148 -0.019434925 -0.053637844 0.17037144
000370 1a 8c 15 be f7 a0 c7 be 37 56 2e be 33 f7 b7 3c
       -0.14604226 -0.38989994 -0.17025076 0.022456741
000380 82 b1 82 3e bb 97 81 3e c0 c9 b6 be d1 da 6c 3d
       0.25526053 0.25311074 -0.35700798 0.057825867
000390 a1 fd 60 3e a8 c7 c3 be 86 cd 36 3e 4f 21 c4 3d
       0.21971752 -0.38238263 0.17851838 0.095766656
0003a0 bb e6 c5 3d 62 70 9b be 02 cf 35 3e 27 96 48 3d
       0.09663149 -0.3035918 0.17754748 0.04897132
0003b0 c2 29 b9 be 68 b0 90 3e 5b 3e 11 be bf 84 0b 3e
       -0.3616467 0.28259587 -0.14183943 0.13624857
0003c0 6b 37 ac 3d 71 06 41 be ef ce df 3d 0e 23 b8 be
       0.08409008 -0.18850113 0.10928141 -0.35964245
0003d0 ad d1 46 3e c9 6b 78 be c3 ee d3 3d cb 81 47 3e
       0.19415922 -0.24259867 0.103482746 0.19483106
0003e0 fa 0f 5d 3e b5 b1 57 3c 51 f0 1a 3d 21 84 51 3e
       0.21588126 0.013164927 0.03782684 0.2046056
0003f0 f1 0e 3e be 40 47 b5 be 78 c2 4e be c9 ad f6 bd
       -0.18560387 -0.35405922 -0.20191371 -0.12044866

bias f4 [8]
000000 f7 46 6c bd 37 00 e8 bd de d1 c9 3d b1 c9 14 3a
       -0.057684865 -0.11328166 0.09854482 0.00056758063
000010 1d 13 57 3e 76 6d 2a be 32 06 d8 3d 95 ed 97 3c
       0.21003385 -0.16643319 0.10548057 0.018545905

weight f4 [2, 8]
000000 43 e1 13 3f 40 c8 24 be 22 d1 a0 be 08 1f e4 bc
       0.577656 -0.16092014 -0.31409556 -0.027846828
000010 52 c8 06 3f 2f 92 a9 3e e9 ac c4 be 03 95 04 bf
       0.52649415 0.33119342 -0.3841317 -0.51789874
000020 2d ac 20 bf b6 7c e3 3e ed dd 08 3f b2 79 c2 3e
       -0.6276272 0.44431084 0.5346363 0.3798347
000030 7a a4 97 be a8 68 ef 3d b0 3d a0 3d a5 e1 b3 3e
       -0.29617673 0.116898835 0.07824266 0.3513309

bias f4 [2]
000000 a5 b9 c3 3c ab a3 ab be
       0.023892233 -0.33523306
