Simple_environment/params/ppo_policy.pkl (torch_old, 55594 bytes, 8 tensors)

weight f4 [128, 8]
000000 f8 ef 2a 3d be e6 07 bf b1 70 bb bf 94 cd 9f be
       0.04173276 -0.5308646 -1.4643766 -0.3121153
000010 b7 8f 07 bc 5a 86 81 3e 2f 7c 53 bf c7 6d f4 be
       -0.00827401 0.25297815 -0.82611364 -0.47740003
000020 2f df 07 3e 5e de 4b be 1c 9e 7b 3f 16 b7 f9 3e
       0.13268732 -0.19909045 0.9828813 0.48772496
000030 80 59 d5 3d 79 2f db 3e b9 7b 8a 3f 5c 3f 5a 3f
       0.104174614 0.42809656 1.0819007 0.8525293
000040 c4 29 49 be 06 8f c7 3e 8e 4e 13 3f f9 3c 46 3e
       -0.19644839 0.38976306 0.5754174 0.19359197
000050 98 4a 35 be 1d 51 5b bc 84 53 1b 3f 68 18 8a 3f
       -0.17704237 -0.013386038 0.6067431 1.0788698
000060 54 16 e7 3e 5c 34 a0 3e db c8 80 3f f2 70 1a be
       0.45134223 0.31289947 1.0061296 -0.15082148
000070 6a 56 99 3d 1f 82 73 be cd 17 54 3f 13 dc 80 3f
       0.07487185 -0.23780106 0.8284882 1.0067161
000080 ce 2b b0 bd c2 44 d6 be 73 a7 36 bf 7d ac 0c be
       -0.08602105 -0.41849333 -0.7134926 -0.13737674
000090 3a 12 7d be 9f f5 d2 be 0d fd a7 be 0f 25 b2 be
       -0.24713984 -0.4120302 -0.3281025 -0.34793898
0000a0 48 59 3a be 89 02 f1 3e b2 c2 84 3f da ab d0 3e
       -0.1819812 0.47072247 1.0371916 0.40756112
0000b0 51 5a 70 be dc 9c d1 3e c9 0a 4e 3f c5 f7 96 3e
       -0.23471953 0.40939987 0.80485207 0.29485908
0000c0 6f 24 5a 3e f4 f7 20 3e cd 62 1d bf 04 6f 39 be
       0.21302961 0.15719587 -0.61478883 -0.18108755
0000d0 f2 dd 97 3d 3f 69 50 3e ee 2d 5a bf 69 73 49 be
       0.074153796 0.20352648 -0.85226333 -0.19672932
0000e0 7b 1d eb 3c 5b 97 16 3d f2 e0 52 bf c9 c7 86 be
       0.02870058 0.036765438 -0.8237449 -0.263243
0000f0 26 c7 ff 3e bf 33 3d 3e f7 7e 48 bf ad f1 30 bf
       0.49956626 0.18476771 -0.7831873 -0.6911877
000100 51 a9 a5 3e 7c 5d c1 3e 5c 3e 63 3f 62 77 60 3b
       0.3235574 0.37766635 0.8876703 0.0034250845
000110 73 08 0e 3d 1f 97 a9 bd 37 0a 6b 3f e9 bf e0 3d
       0.034676027 -0.08280777 0.9181246 0.10974104
000120 92 0f b1 3e 5a 21 d0 be 83 42 65 bf a2 f6 aa be
       0.34582192 -0.40650445 -0.89554614 -0.3339129
000130 70 d4 07 3d 33 d2 af be ac 73 a8 bf 60 e8 42 bf
       0.03316158 -0.34340057 -1.31603 -0.76135826
000140 49 cd 04 3e e7 64 1f 3e b0 e7 6c 3f 3f 6e 18 be
       0.12968935 0.15565835 0.9254103 -0.14885806
000150 9b 10 84 3e a0 08 f6 3c 7c c1 3b 3f b0 4a 94 3f
       0.2579392 0.03003341 0.7334211 1.1585293
000160 c5 f9 3a 3e fb 88 31 3e c6 38 5b 3f 4c ca 98 3e
       0.18259342 0.1733741 0.85633504 0.2984184
000170 0b 50 6c 3e 29 ff 4a 3e cc d3 3c 3f 91 e3 a5 be
       0.23077409 0.19823898 0.73760676 -0.32400182
000180 96 f1 89 bd 37 82 2f bd 4c 98 78 3e 02 d5 80 bd
       -0.06735532 -0.042848792 0.24276847 -0.06290628
000190 be 21 7a be 8d e3 85 3e 34 d9 8e 3e 5a 47 66 3f
       -0.24426934 0.2615017 0.27900088 0.89952624
0001a0 54 45 9d be 7f 73 df bd b5 51 6a 3f c5 0e 96 bd
       -0.30716956 -0.10910701 0.91530925 -0.07327036
0001b0 62 7d 8e 3e 58 65 df 3c a2 6e 4a 3f ce a3 37 3f
       0.27830034 0.027270004 0.7907506 0.7173432
0001c0 a5 26 7b be c4 ac 8b be 0f 14 a2 bf 78 2b 8a be
       -0.2452646 -0.27280247 -1.2662371 -0.2698629
0001d0 ab 6b 92 3e a7 a1 09 3e a8 51 a0 bf 9c 40 50 bf
       0.2859777 0.13440572 -1.252492 -0.81348586
0001e0 11 32 68 3d 13 84 67 be 1c 74 52 3f c7 af 37 bc
       0.056688372 -0.22608976 0.8220842 -0.011211342
0001f0 7c 5d 37 3e 05 18 86 3e fc bf 67 3f 1a 97 94 3f
       0.17906755 0.261902 0.9052732 1.1608613
000200 07 b4 b2 3d 0c 8f 26 be ae 6f 52 3f 96 2f 36 3d
       0.08725744 -0.16265506 0.8220166 0.044478975
000210 2a 03 72 3e 50 fa e9 3d c3 62 f8 3e 03 24 8d be
       0.2363402 0.114246964 0.4851285 -0.27566537
000220 05 e0 6d be dd a2 e0 3c 06 9f c3 3e a2 8c 88 be
       -0.23229988 0.02742141 0.38207263 -0.26669794
000230 e0 76 66 3d 8a 3a 6c 3c 0f 61 9b 3e c7 f4 f5 bd
       0.05626571 0.014418254 0.30347487 -0.12009578
000240 c7 b9 19 be 8a 9c 67 3e f7 2b 62 3f 25 22 df bd
       -0.15012275 0.22618309 0.88348335 -0.108951844
000250 32 8d 0a 3d 30 de cc 3d 00 66 13 3f 4a b4 80 3f
       0.03382606 0.100033164 0.57577515 1.005502
000260 74 26 5b be 4a 9f 2a 3e c2 fb 7c 3e 4d d7 37 bd
       -0.21401387 0.16662326 0.24705413 -0.04488306
000270 56 92 9e bc 23 1b 94 3d 3a 9e 09 3f 4e d6 03 3f
       -0.019356888 0.072317384 0.5375706 0.5149888
000280 1b 6f 9a 3e e0 1a 95 bd 02 96 ce bf 3e 74 15 3d
       0.30162892 -0.072805166 -1.6139529 0.03648781
000290 9e 5e 95 be da c6 0c 3e 36 d9 80 bf 65 54 7f bf
       -0.2917375 0.13747731 -1.0066288 -0.9973815
0002a0 6c 2f 28 3e ca 20 e8 bd 06 69 99 bf 1e 1e 6e bd
       0.1642434 -0.11334379 -1.1985176 -0.05813419
0002b0 f0 f1 5c 3e cb a2 1e be b3 1d a8 bf b9 71 56 bf
       0.21576667 -0.15491788 -1.3134063 -0.83767277
0002c0 7b 22 ad be a2 9f c4 3e 69 4a 94 3d b0 68 6a be
       -0.3381537 0.3840304 0.07240755 -0.22891498
0002d0 d3 d0 bb bd 45 c0 df 3d 06 9b 4b be 99 98 05 bf
       -0.091706894 0.109253444 -0.19883355 -0.5218597
0002e0 80 ee 56 3e 64 cd 86 be ac 19 ee 3e 83 7f 70 3e
       0.20989418 -0.26328576 0.4650396 0.23486142
0002f0 a8 65 2a bd c0 87 58 be 56 bc fe 3e 69 49 02 3f
       -0.041600853 -0.21145535 0.49753064 0.50893265
000300 d2 f4 41 3b a4 9f f1 bd 6c 40 18 3e 7f 4e 04 be
       0.0029595387 -0.11798027 0.14868325 -0.12920569
000310 b0 00 49 be 28 1a 38 bc 7a db e6 3e 29 27 6a 3f
       -0.19629169 -0.011236705 0.45089322 0.91466004
000320 a6 13 39 be ec da 58 3e 84 4b 89 3e c8 44 c4 3e
       -0.18073902 0.21177262 0.26815426 0.38333726
000330 fc e9 08 bd 24 51 10 3f 45 a1 25 3f bd 97 94 bc
       -0.03342627 0.5637381 0.646992 -0.01813876
000340 08 ed 00 3e d7 6a 57 3e e5 6a 85 3e b4 e8 99 3e
       0.1259042 0.2103685 0.26058117 0.3006035
000350 77 fa 82 3e 34 ff 06 3e ad 83 91 3e 8e 37 59 3e
       0.25581715 0.1318329 0.28420773 0.21212599
000360 cc f5 bc be 8f ca 86 bd cc 98 e9 3e f0 b9 42 3e
       -0.36906278 -0.06581604 0.45624387 0.19016242
000370 c2 3a 21 3e 07 20 ac bd db b9 95 3d 12 36 df 3e
       0.1574507 -0.08404546 0.0731084 0.4359594
000380 56 e2 a1 3e 3e e5 83 3e a3 88 72 3f 31 95 a1 3e
       0.31617993 0.25760835 0.9473974 0.31559137
000390 42 bc 3a be 2f d9 b9 bd c2 f9 7a 3f 4a 46 8a 3f
       -0.18235877 -0.090746276 0.9803735 1.08027
0003a0 65 1d 66 be a6 d9 98 be 76 c0 9e 3d 5d 9c 4f bd
       -0.2247215 -0.29853553 0.07751553 -0.05068623
0003b0 e1 47 9d be 14 57 bd bd 85 f6 6e bd 0f d9 17 bf
       -0.30718902 -0.092451245 -0.058340568 -0.5931558
0003c0 1a 0f f6 bd ef 78 90 3c 5f 43 29 bf 63 c3 ca bd
       -0.12014599 0.01763579 -0.66118425 -0.09900548
0003d0 a5 d2 8a 3e 56 5f c6 bd 66 e2 94 be 6e ed 7d be
       0.27113834 -0.09686153 -0.29078978 -0.24797603
0003e0 9a 5a 97 3e b3 aa 93 bd 06 e7 92 3f 80 1a 76 3e
       0.2956131 -0.07210293 1.1476753 0.24033546
0003f0 56 cf 9e 3e b2 de 68 be 27 52 87 3f 9e 10 9a 3f
       0.3101756 -0.22741202 1.0571946 1.2036321

bias f4 [128]
000000 69 5e 03 3e b9 f8 e6 3c 23 08 42 3e 0f 0c 3f 3e
       0.12828983 0.028194772 0.18948416 0.18656944
000010 1d e8 d4 3e b2 02 94 3e 50 01 e2 bd d6 91 6d 3e
       0.41583338 0.28908306 -0.110354066 0.23200163
000020 81 bd 0d 3e d0 d8 34 3e 3e 73 16 3e 76 6e f0 bd
       0.13841821 0.17660832 0.14692399 -0.11739819
000030 69 08 8d 3d f3 a6 c3 3d 37 50 92 3e 21 55 10 3e
       0.0688637 0.095533274 0.28576824 0.14094974
000040 22 62 6c be 35 cf c6 bc 6f 1f f8 3d f9 69 7c 3c
       -0.2308431 -0.024268726 0.121153705 0.015406125
000050 87 92 ed 3e ec 7c 41 3e 01 52 0a be 92 88 94 be
       0.46400854 0.1889531 -0.13507845 -0.29010445
000060 fc af de 3d e3 83 26 3c 4f 8f 41 be 82 19 82 be
       0.1087341 0.01016328 -0.18902324 -0.25410086
000070 18 af 41 3e b3 3d 69 bd e4 99 7c be 47 44 14 3e
       0.18914449 -0.056943607 -0.2466808 0.1447917
000080 3d cb 41 3e 32 f6 99 be 75 b7 34 3e d4 7d 91 3e
       0.18925186 -0.30070645 0.17648108 0.28416312
000090 d4 5a 98 bc c0 d2 13 be 45 b2 39 3d d2 d4 5d be
       -0.018597998 -0.14435863 0.045336027 -0.21663216
0000a0 62 90 14 3e 27 6b c4 bd b7 98 04 3e d8 b7 1d 3e
       0.14508203 -0.0959075 0.12948881 0.15402162
0000b0 31 74 25 3d 2d 71 1e 3e 0f 34 38 be ce fa 38 be
       0.040394012 0.1547286 -0.17988609 -0.18064424
0000c0 af 70 b7 3e 81 72 6a 3e a2 ea 33 be 70 9f 3f 3e
       0.35828158 0.22895242 -0.17569974 0.18713164
0000d0 bb cf a5 bd f8 a0 12 3d 60 45 cd 3d bd 07 c4 bd
       -0.08096262 0.035798043 0.10022998 -0.095717885
0000e0 e1 72 f2 bc 0a bb 5b 3e 17 4b 48 3e 8f 35 75 3e
       -0.029595794 0.21458068 0.19559895 0.23946212
0000f0 e1 c0 a4 be 62 94 1b be 2c 7e 96 3e d6 5e 17 3e
       -0.32178405 -0.15193322 0.29393137 0.14782271
000100 57 5e 38 bc 97 ed 63 be 8c 5a 5f 3e 87 06 90 bd
       -0.011252961 -0.22258602 0.21811885 -0.07032495
000110 e8 29 37 3e 25 67 b4 3e 91 f1 2a 3e b9 96 9b 3e
       0.1788708 0.35234943 0.16693713 0.3038843
000120 44 17 4e bc 30 cf 01 be 2b 1a b5 3d 05 ce d4 3d
       -0.012578789 -0.12676692 0.08842882 0.103908576
000130 f8 9d 3b 3e 0e cc e6 bc 00 f1 80 be 5f 76 21 3e
       0.18321979 -0.028173473 -0.25183868 0.15767811
000140 d4 19 c0 3e ae e3 02 3e 32 a9 8b 3d 47 f9 4c be
       0.37519705 0.12782165 0.06819381 -0.20016967
000150 48 22 73 be 66 b2 c4 bd 2d 75 89 3e 2c a1 0c 3e
       -0.23743546 -0.09604339 0.2684721 0.13733357
000160 62 f8 98 3e e3 1e 4a 3e 1b 14 3c 3e 31 5c 3c 3e
       0.29877 0.19738345 0.18367045 0.18394543
000170 ad e7 b3 ba 31 7c 83 be 5a 24 70 3d 28 21 6d be
       -0.0013725661 -0.25680688 0.058628418 -0.2315718
000180 cb 90 88 be d2 7f 7e be 59 d6 5f 3e 2b 39 02 3e
       -0.26672968 -0.24853447 0.21859111 0.1271712
000190 7d 0a 26 3e 5c 74 1c 3d ba 30 88 be 7b b6 82 be
       0.16214938 0.038196906 -0.26599675 -0.25529847
0001a0 a7 e0 6d 3e 62 66 3f bd 30 46 91 3e a6 ae 3e be
       0.2323023 -0.0467285 0.2837386 -0.1862131
0001b0 d2 01 c5 3d d4 8c 23 3e bf 66 50 be 18 2b 3b be
       0.09619488 0.1597169 -0.20351695 -0.18278158
0001c0 08 42 57 be d5 74 10 3e 2f a6 80 3d 87 2f 7a 3d
       -0.21021283 0.14107068 0.06281697 0.06108048
0001d0 8e 86 85 3e 5d 6a ff bd 2b 82 a5 be 3b 8d 11 be
       0.2607922 -0.12471459 -0.32325873 -0.14214031
0001e0 7a db 47 bd cd 3d 6b 3e 8a 01 96 3e 49 97 e0 3d
       -0.048793294 0.22972794 0.2929805 0.10966355
0001f0 f0 a6 31 3e 6e 9e 7d be e3 22 21 be f0 f1 cb bd
       0.17348838 -0.24767467 -0.15735964 -0.09958255

weight f4 [64, 128]
000000 25 cf 84 bd d1 1a 50 bc 98 6a bc 3d 52 5c 0b be
       -0.06484822 -0.012701706 0.09200019 -0.13609436
000010 ed 01 54 3d f6 e4 84 3d 64 04 8c 3d 30 ed 04 bb
       0.05175965 0.06488983 0.06836775 -0.0020282976
000020 b0 98 a7 3c d3 19 22 be 26 b8 a9 bd dc 0f 2c bd
       0.02045855 -0.15830164 -0.08287077 -0.042007312
000030 a6 21 bb 3d da d8 f9 3d fe 29 8a bd 52 3c 4b 3e
       0.09137277 0.12199564 -0.067462906 0.19847229
000040 77 25 dc bc df a1 a9 bc 2d 41 90 3b d6 5d d0 3d
       -0.026873333 -0.020707069 0.004402301 0.10174148
000050 ac df 3b be fd 85 8a bd d0 7a 66 3d f6 f9 32 be
       -0.18347043 -0.067638375 0.056269467 -0.17478165
000060 a8 74 14 3d 08 9c ff 3c c3 7f b4 bd df a5 b2 bd
       0.036244065 0.031202331 -0.08813431 -0.08723044
000070 c0 b8 1b 3e 01 cf 47 be 0c 9e e4 bd 4d 59 ff 3d
       0.15207195 -0.1951256 -0.111629575 0.12468205
000080 cc 94 0d 3d c1 55 15 3d 7d 41 2a 3d 4e d0 12 bd
       0.034565732 0.036458734 0.04156636 -0.035843186
000090 4d 75 22 be a5 6e 13 bd 13 ed 10 3e 69 e7 9e bd
       -0.15865059 -0.03599419 0.14152937 -0.07758982
0000a0 a2 a5 c0 3d 31 bc 83 3d eb 01 39 3c aa 29 08 bd
       0.09406592 0.06432379 0.011291961 -0.03324286
0000b0 ca 24 f6 bd 04 45 bf bd bc 17 7d bb 2e 51 61 bd
       -0.12018736 -0.093393356 -0.0038618883 -0.05500906
0000c0 bc 23 2a 3d e6 c5 d2 3c 8e 82 32 be 45 94 70 3d
       0.041537985 0.025729131 -0.17432615 0.05873515
0000d0 ab 6b b4 bc 82 c8 07 bd c0 86 1e 3d ad a0 6b 3d
       -0.022023996 -0.033150204 0.038702726 0.05752628
0000e0 49 01 68 3b dc 63 c9 bc 42 97 30 be b0 e8 6c 3d
       0.0035401157 -0.02458375 -0.172452 0.057839096
0000f0 e4 3a c6 bd b9 c8 f3 bd 67 39 18 3e 90 ee 9f b9
       -0.09679201 -0.11903519 0.14865647 -0.00030504586
000100 d7 9c 6a 3d 92 a5 63 3c f8 d1 df bc 3d ee 6b 3c
       0.05727848 0.0138944555 -0.0273218 0.014400062
000110 3e 27 e2 3c 02 69 4e bc 9c f9 01 3d 97 70 0e bd
       0.027606603 -0.012598278 0.031732187 -0.034775343
000120 59 c4 79 bd d2 d9 0e 3e 4d 3c 32 bd a4 50 e8 bd
       -0.060978267 0.1395028 -0.04351454 -0.11343506
000130 06 5b ad 3c d2 98 93 3c a5 7e 07 bd 40 26 9f 39
       0.021161567 0.018017206 -0.033079762 0.00030355342
000140 f3 a8 77 3d 5a 79 c5 3d 25 73 56 bc e0 9c 1c bc
       0.060463857 0.096422866 -0.013088976 -0.009558886
000150 b9 59 c4 bb 13 d4 3e bd 2f d7 fe bd ca 09 c2 3d
       -0.005992141 -0.04658897 -0.12443387 0.09474523
000160 4a e2 c9 3d 8b 47 ce bc 1b 5f 68 bc 1a 06 4f 3d
       0.09857614 -0.025180599 -0.014182831 0.05054293
000170 87 36 b7 bd da fd 7f bd 17 09 8a 3c c9 14 ca bd
       -0.08945947 -0.06249795 0.016850038 -0.09867246
000180 7e 1f 10 3e 1f 41 1d bd df cd 67 3d bd 45 ca bd
       0.14074513 -0.038392182 0.05659282 -0.09876583
000190 31 ec 89 bc 3f de 15 bd ee 01 92 3c 8c 01 53 bd
       -0.016836258 -0.036588904 0.017823186 -0.051515147
0001a0 2a 51 17 3e 1c 53 22 3b 43 8a 3c 3c 5b 6d 48 bd
       0.14777055 0.0024768775 0.011507574 -0.048932415
0001b0 69 98 e4 3d a8 48 aa 3d df 4b 6a bc 03 14 b1 bd
       0.111618824 0.08314639 -0.014300316 -0.08646395
0001c0 f1 f5 61 bd a3 80 e6 bc fa 67 ce bd 06 10 b6 bc
       -0.05516619 -0.02813751 -0.10078426 -0.022224437
0001d0 98 02 8b 3d 76 2d 5c 3c 7b 33 7e 3d dc 72 85 bd
       0.06787604 0.013438573 0.062060814 -0.06516048
0001e0 4b ef c6 3d f9 c7 a9 bd d0 99 5b bd a5 76 1f 3e
       0.0971361 -0.08290095 -0.053613484 0.15572603
0001f0 4a 7f 88 3d 06 0f 4b bd b4 28 44 3d 06 dd 4c 3d
       0.066649035 -0.049574874 0.04789038 0.050015472
000200 d1 d7 ae be 2e 74 71 3e 82 39 7c 3e 46 a0 bc 3e
       -0.3414903 0.23579475 0.24631312 0.3684103
000210 38 32 d9 bd 5b 16 93 3e 6b f5 b8 3b ba 40 11 bd
       -0.106052816 0.28727993 0.0056444905 -0.03546212
000220 a6 80 a2 3d 2f 56 fd be 80 70 9f 3e 81 2f 6b 3d
       0.07934694 -0.49479815 0.31140518 0.05741835
000230 73 1d 52 3e c3 24 14 3e 63 97 66 be 3a c8 cb 3e
       0.20519046 0.14467148 -0.22518687 0.39801198
000240 47 a2 20 bb cb 32 06 3e 45 e4 98 3e f9 76 60 3e
       -0.0024510787 0.13105313 0.29861656 0.21920384
000250 a0 4d 1e be 2c 33 92 be 45 b5 e6 bd d3 c7 24 3e
       -0.15459299 -0.28554666 -0.11265043 0.16091852
000260 60 66 4d 3e b4 bc 0a 3e 57 20 07 3e e6 c1 0c bb
       0.20058584 0.13548547 0.1319593 -0.0021477877
000270 a0 ea d1 3e 78 c9 fc bd 6e cd 90 bd 8d e7 82 3e
       0.40999317 -0.123431146 -0.070704326 0.25567284
000280 6d 45 2b 3e c2 a4 b8 bc 07 28 5a 3e 40 0b fb bd
       0.16725703 -0.0225395 0.21304332 -0.12258005
000290 ef 4c 60 be 3a 24 57 3d 17 72 b9 3d 43 1d 9f 3d
       -0.21904348 0.052524783 0.09054964 0.07769253
0002a0 3b b6 74 3e 90 04 cb bd b3 0b c7 3e 36 40 89 be
       0.2389764 -0.099129796 0.38876113 -0.26806802
0002b0 44 35 3d 3d e0 2d b9 3d fa 69 9c 3c 18 50 ec bc
       0.046193376 0.09041953 0.019093502 -0.028846785
0002c0 33 6f fc be 3e 07 8f 3e a9 b7 ec bd ee 61 7b be
       -0.49303588 0.27935213 -0.11558468 -0.24549076
0002d0 ba 97 b9 3b 1d c1 c2 bc d7 6b 23 3e b9 60 61 be
       0.005663839 -0.023773724 0.15959106 -0.22009553
0002e0 d5 87 8a 3d 7d bc 33 be ed 22 3b be 70 32 93 3e
       0.06764189 -0.17552371 -0.18275042 0.28749418
0002f0 3e 3c dd bd de ab f2 bd 3f c4 fc be 57 0f 83 3e
       -0.10802506 -0.11849187 -0.49368474 0.2559764
000300 ef 77 39 bc 22 c2 8a 3d a1 97 78 3e b7 71 08 3e
       -0.011320098 0.06775309 0.24276592 0.13324629
000310 60 4b 00 3f cd aa 93 be 8c b4 cb 3e b2 d4 5f 3e
       0.50115013 -0.28841248 0.39786184 0.2185848
000320 cb c5 af 3d 9a c1 e0 3b b6 79 27 3e d6 a9 40 3e
       0.08582648 0.0068590166 0.16355023 0.18814787
000330 ab 9e 89 3e 5d 9e df 3d c8 33 c3 bb 66 f3 bc be
       0.26878867 0.10918877 -0.0059571005 -0.36904448
000340 54 9d c1 bd d8 56 0d 3e 60 18 4e be 38 1c 1e 3e
       -0.09453836 0.1380266 -0.20126486 0.15440452
000350 fe 69 12 be 5e ae 39 be 38 89 08 be 9c ff cb 3e
       -0.14298245 -0.18132922 -0.13333595 0.39843452
000360 85 c4 95 3e 68 9e ea be 0b 76 b8 3c 4f 09 37 3e
       0.29251495 -0.4582398 0.022517225 0.17874645
000370 34 76 17 3d 50 56 76 bd 44 d3 a0 3d ec 9c 19 b8
       0.03697796 -0.060140908 0.07852796 -3.6624187e-05
000380 c8 17 7f bc ce 0e cf 3d 72 3b 2d 3e e1 a8 7b bd
       -0.015569635 0.10110246 0.16917208 -0.061440352
000390 04 1a 11 be f6 17 91 3e 4e 15 96 3d fb 64 bb bd
       -0.1417008 0.28338593 0.07328282 -0.0915012
0003a0 36 34 06 bf 91 fb 93 bc 85 ac 33 3e a8 9d 68 38
       -0.5242342 -0.018064292 0.1754628 5.545994e-05
0003b0 86 fc b1 3e 0f 10 6a 3e e3 77 ce ba 81 77 32 bc
       0.34762973 0.22857688 -0.0015752282 -0.01089275
0003c0 8d 7d d5 bd e4 5c 11 3e 4a 3e 21 3e df 86 16 3e
       -0.104243375 0.14195591 0.15746418 0.14699887
0003d0 a6 72 50 be 4b 6c 00 3e f6 57 6c 3c 98 f4 93 bc
       -0.20356235 0.1254131 0.014425268 -0.018060967
0003e0 7e cd 91 3b da 31 2a be 9e ba c2 bd cb f4 6a 3e
       0.0044495454 -0.1662058 -0.09508251 0.22944944
0003f0 67 23 b6 3e e6 6e ec bc 0c bb 7c 3d 0b ec 68 3d
       0.35573885 -0.028861474 0.06170182 0.056865733

bias f4 [64]
000000 6b 28 2e be ec cb 24 bb 68 be a2 3d 65 41 fe 3c
       -0.17007606 -0.002514596 0.07946473 0.031037042
000010 c3 3d 16 3e 06 8d 15 bd dd 7c 9e bc 51 5d 18 3b
       0.14671998 -0.036511444 -0.019346649 0.002324898
000020 e4 b2 53 3d c5 5b 49 3e e4 f7 a9 bd d4 5a 19 3e
       0.051684275 0.19663914 -0.082992345 0.14976054
000030 b4 6f 3e bd 46 79 8d bc 58 ba 3f bd 71 f7 e2 bc
       -0.046493247 -0.017269742 -0.04680857 -0.02770588
000040 fb d2 13 3e b7 56 09 3e 41 f8 9b 3d 3d e2 84 bd
       0.14435951 0.13411985 0.0761571 -0.06488464
000050 bb f6 d0 3c 38 df a4 3d 4b 6c 70 3c b8 51 e7 3c
       0.025508275 0.08050388 0.014674257 0.028237209
000060 8d be 1a 3e 35 48 1b bd a6 a2 30 3c 65 c3 c2 bb
       0.15111752 -0.03791066 0.010780966 -0.005943703
000070 59 51 84 bd a7 6e 1b 3c 71 fd 95 3d 56 e0 86 3d
       -0.06460828 0.009486831 0.07323731 0.065857574
000080 06 ce fd 3d 6b d3 d7 3c 7c 52 8d bd 46 63 1f be
       0.123928115 0.02634593 -0.06900498 -0.15565214
000090 fd fc 04 3e 43 3d 80 3d dc 56 bc 3d 0b 61 14 bd
       0.12987132 0.06261685 0.091962546 -0.03622536
0000a0 0c 1a 03 be b4 99 6b 3d 22 fe 9e bd 32 fc 9b 3d
       -0.12802905 0.05751963 -0.07763316 0.07616462
0000b0 bf 0b 99 bd a5 11 cb bd cf d2 1b 3d 95 88 8c bd
       -0.074729435 -0.09915475 0.03804284 -0.068619885
0000c0 c6 b8 8f bd 5a 49 84 3c 5e ce e0 3d cb 29 03 bd
       -0.070176646 0.016148258 0.109768614 -0.03202228
0000d0 27 84 bc 3d d7 0c 7f 3c 6e 78 10 be dc 14 ae bc
       0.092048936 0.015567026 -0.1410844 -0.02125018
0000e0 03 aa 71 bc 30 d1 4a 3d d6 af 5b 3e 93 92 16 bd
       -0.014750007 0.049515903 0.21453795 -0.036760878
0000f0 d4 75 a8 bb 3a 74 5c 3d f3 9c fd 3d 6d 96 f7 bd
       -0.0051409993 0.05382178 0.12383451 -0.12089238

weight f4 [32, 64]
000000 bb 54 16 3e 79 20 6e be ef 8c 87 3e a8 09 8b 3e
       0.1468076 -0.23254575 0.2647471 0.27155805
000010 c3 d9 c4 3e 19 0b 0a bb cd 4b 29 3e 57 50 e8 bd
       0.3844739 -0.0021063744 0.16532822 -0.113434486
000020 3d 3f b3 3e 80 4f 80 3e 94 69 6f bc 82 99 a8 3e
       0.35009184 0.25060654 -0.014612574 0.32929617
000030 80 8b 67 bc 3a 07 cf 3d 92 23 8f be f9 ae b5 be
       -0.0141323805 0.101088 -0.27956825 -0.35485056
000040 65 50 5e 3e 05 d6 02 3f cc 96 a8 3e a7 a4 2f bd
       0.21710356 0.5110782 0.3292755 -0.042881634
000050 79 c7 e6 3e d6 7a bd bd 9b c0 0d 3d c1 7a 86 3d
       0.4507406 -0.09251945 0.03460751 0.06566382
000060 b8 6c b6 3e de b9 a9 3d df 98 36 bd a9 5b ae bd
       0.3562982 0.082874045 -0.044579383 -0.085135765
000070 ac 0c 84 bd df ce b2 3c 62 ef 8d 3e f7 88 92 bd
       -0.064477295 0.02182716 0.27721697 -0.0715503
000080 c0 09 d4 3e 05 01 5a bd 42 bc d3 3d 88 22 6a 3d
       0.4141369 -0.05322363 0.10338642 0.057161838
000090 cd 32 c7 3e 39 35 3e bd de be b6 3e e4 c6 4a be
       0.38905945 -0.046437476 0.35692495 -0.19802433
0000a0 8b ff 7d 3d 0b 99 6b 3c dd ca 55 3d ae de 84 be
       0.062011283 0.01437975 0.05219542 -0.2595114
0000b0 21 8a 0b 3c bf 51 25 be b9 74 39 be d5 13 c9 3d
       0.008516819 -0.16144465 -0.18110932 0.09818236
0000c0 95 3b 13 3e 21 ef b3 bd 65 9d c5 3e 82 4d 19 3e
       0.14378197 -0.087858446 0.38596645 0.14970973
0000d0 c3 bf 37 bd 97 26 95 be ff 35 5e bd 6a 4c df bd
       -0.044860613 -0.29131004 -0.054250713 -0.10903247
0000e0 6b 66 5e be 27 12 ae be 79 52 d2 3e bd 30 f7 bd
       -0.21718757 -0.33998224 0.41078547 -0.12069843
0000f0 28 90 78 bd 9f df e6 3d 99 09 ef 3b 6e 7d 5c be
       -0.060684353 0.11273121 0.0072948453 -0.21532223
000100 1c db 74 3d 20 62 63 3e ff 0c 4a be 28 f0 57 be
       0.05977927 0.222054 -0.1973152 -0.21087706
000110 66 a4 6a be e2 2d b2 3d c0 6e 9f 3c f3 de 8c 3d
       -0.22914276 0.08700158 0.01946199 0.06878462
000120 f8 09 84 be ec 37 2d be 55 77 ce bd e6 47 e8 bd
       -0.25788856 -0.16915864 -0.100813545 -0.113418385
000130 1f f9 a4 3d 27 6b 8f bc bf 9b c3 3e 66 67 dc 3e
       0.080553286 -0.017507149 0.38204762 0.43047637
000140 f3 57 a2 be 21 41 5b be 46 7c c3 be 2c 32 f8 3d
       -0.31707725 -0.21411563 -0.3818075 0.121189445
000150 76 2f fb be b4 7d d8 ba b6 8f 37 bd 91 ac 81 bc
       -0.49059647 -0.0016516955 -0.044814788 -0.015829356
000160 9d 6a 5f bd 8a 2c a9 3d 10 71 8a bc 06 0a 4b 3d
       -0.054545034 0.08260448 -0.016899616 0.049570106
000170 84 61 aa bd fc 66 d5 3d e4 dd 51 be 20 fa 40 3e
       -0.08319381 0.10420033 -0.20494801 0.18845415
000180 ca 5b 67 be a2 70 f5 3c a2 50 c1 3d 8c c0 e8 3d
       -0.22593608 0.029960934 0.094392076 0.113648504
000190 1d fc df be c3 5a 01 be bf 86 ba be 87 1d 75 3e
       -0.43747035 -0.12632279 -0.36430928 0.23937045
0001a0 6d e3 be bd 0c 77 be 3d f6 ee 0d 3d 96 0c 9e 3e
       -0.09320722 0.0930005 0.03465172 0.30868977
0001b0 ae d7 66 3b b2 33 bb 3e 73 d4 b9 3e af 39 0b be
       0.003522377 0.36562878 0.36294898 -0.13596223
0001c0 63 dc 65 3b eb 28 66 3d 1f e0 33 be 04 e9 78 3d
       0.0035073988 0.056191366 -0.17565964 0.060769096
0001d0 e1 dd 48 3e fc db ec 3e ff 83 2a bd 36 3a f7 3d
       0.1961589 0.46261585 -0.041629788 0.1207165
0001e0 e1 20 a8 3b 27 57 e5 3e fb 48 7b be bf fe 78 3e
       0.0051308726 0.44793054 -0.24539559 0.24315928
0001f0 0d 5a 1a 3d a3 db 04 3e 41 c6 9f bd dc 3d 9e 3e
       0.037683535 0.1297441 -0.07801486 0.3090657
000200 f6 b9 85 bd 6b 62 bc 3e 1c 8e b0 be d2 a9 b4 be
       -0.0652961 0.36793837 -0.3448342 -0.35285813
000210 75 47 c1 be 35 b1 18 3d fb 48 ab 3d df f7 c2 3c
       -0.3774983 0.037278373 0.08363529 0.023799835
000220 87 1b 7a be b1 e5 39 be 64 1c 36 bb b5 3a 28 be
       -0.24424563 -0.18154027 -0.0027787918 -0.16428645
000230 cb de 72 bd db 3a fd bd 39 b6 c2 3e 47 83 06 3f
       -0.059294503 -0.123647414 0.3802965 0.52544063
000240 82 48 10 be ba 73 70 be 08 f1 bb be 2d 5b 83 bd
       -0.1409016 -0.23481646 -0.3670733 -0.06413875
000250 a3 07 e2 be 70 34 dd 3c 5d a1 1f 3d 39 a8 9f bd
       -0.4414645 0.027002543 0.038972247 -0.07795758
000260 8a 91 53 be 82 ff d8 bd 18 eb f7 bd aa e6 d0 3d
       -0.20660987 -0.10595609 -0.121053874 0.10200246
000270 41 a1 23 3d 76 22 d8 3d c3 9e f6 bd 63 61 e5 3d
       0.039948706 0.10553448 -0.12042 0.11200216
000280 ea ae 24 be 0c f3 28 bd f1 16 01 bd 0a 84 8b ba
       -0.1608235 -0.041247413 -0.03151602 -0.0010644209
000290 16 84 9e be ae 79 75 3d ca 88 86 be 29 91 01 3f
       -0.3096015 0.059930496 -0.26276237 0.5061212
0002a0 48 21 c1 3d 73 db d3 bc be e5 01 3d 21 55 05 3f
       0.09430176 -0.025861477 0.03171324 0.5208302
0002b0 65 89 8e 3d ea 07 d3 3e 45 66 d7 3e a4 b0 99 3c
       0.069598 0.41216975 0.42070213 0.018760987
0002c0 b3 bf 02 be d2 78 14 3e 39 a9 80 be d1 f6 ab bd
       -0.1276844 0.14499214 -0.25129107 -0.08396686
0002d0 b5 df 6a 3e 36 9c f3 3e 4d 9d 1e 3e 92 8d bc bd
       0.229369 0.47580117 0.15489693 -0.0920669
0002e0 e8 a2 13 3d 37 64 96 3e ba df 45 be f7 68 01 3f
       0.03604403 0.29373333 -0.19323626 0.5055079
0002f0 e2 cc 81 3c 87 5c 0b be 30 bb 76 be 88 aa 76 3e
       0.015844766 -0.13609515 -0.24094844 0.2408849
000300 f3 d3 2a 3e 81 73 6b be ca 43 ad 3e 44 fe a4 3e
       0.16682415 -0.2299328 0.3384078 0.3222524
000310 f2 1c c0 3e 5c 0b 54 3c 9d 75 57 3c fc 8a d7 bd
       0.37522084 0.012942161 0.0131506 -0.10524556
000320 c1 17 a4 3e 78 b9 ea 3e c6 7c c7 bd ec f4 c3 3e
       0.32049373 0.45844626 -0.097405955 0.38272798
000330 b3 a8 19 bd 73 e6 aa bd c4 01 a5 bd 17 cc bc be
       -0.0375144 -0.08344736 -0.080569774 -0.36874458
000340 16 a8 e9 3e b7 5a cf 3e 06 5d b4 3e 4f 5d bd bd
       0.45636052 0.40498897 0.3522722 -0.09246313
000350 62 ab bb 3e 42 ae d0 bb 9a 4a af bd 38 ba c3 bd
       0.36654192 -0.0063684294 -0.08559151 -0.09557003
000360 52 61 62 3e 2e 58 b1 3d d9 b5 c8 bd c4 03 e1 3d
       0.22107437 0.08659397 -0.0980031 0.10987046
000370 7b cd 1d 3a a3 eb 97 bd 20 25 95 3e 84 8f 29 be
       0.00060196937 -0.07417991 0.29129887 -0.16558653
000380 23 dc bb 3e 25 b5 a2 bd 9e 49 28 3d 2f 01 74 3d
       0.36691388 -0.07944707 0.04108583 0.05957144
000390 56 23 c6 3e 6e 87 d9 bc f8 9b 0e 3f bb de a1 be
       0.38698834 -0.026553836 0.5570674 -0.31615242
0003a0 3c 4c f1 3d 5c 8f 03 3c 03 7a 98 3d 3f 70 b0 be
       0.11782119 0.008029785 0.07445147 -0.34460637
0003b0 58 9c 6f 3d ec c4 51 be 8e 5d 30 be 5d ae 47 3e
       0.05849871 -0.20485276 -0.17223188 0.19500108
0003c0 be 09 e9 bc b1 23 ff 3d 6b d7 d7 3e 44 95 a9 bd
       -0.028447028 0.124579795 0.42156538 -0.08280423
0003d0 38 8d 02 bd 8f b5 88 be 2c 44 46 3e 88 47 37 3d
       -0.031872958 -0.26701018 0.19361943 0.044745952
0003e0 17 ff 61 be 8d 56 9b be 48 e9 90 3e f7 53 b2 be
       -0.22069965 -0.3033947 0.2830298 -0.34829685
0003f0 82 8e 3a 3d b0 d3 8b 3d 9a eb 6e 3d d2 10 7c be
       0.045546062 0.068274856 0.058330156 -0.24615791

bias f4 [32]
000000 68 2a 5c 3e a1 29 86 3d cd f6 9c bd 98 0a 1e 3e
       0.21500552 0.06550909 -0.07664261 0.15433729
000010 fe 11 ce bd 4a 37 9a 3c f6 6d bd bd df 26 c4 3d
       -0.100620255 0.018825192 -0.09249489 0.095777266
000020 bb 2c e0 bd 4a 22 06 3e e6 d1 4c 3e 70 4a d5 bd
       -0.10946032 0.13099018 0.20001945 -0.104145885
000030 10 03 44 bc 1b 6f 93 bb 3b 1d e4 bd 29 0f 23 3e
       -0.011963621 -0.004499329 -0.11138388 0.15923752
000040 f2 33 24 3e 5a 6f 06 be 96 58 e4 bd 09 f9 b1 3d
       0.1603544 -0.13128415 -0.11149709 0.08690078
000050 63 4c c4 3d af b0 27 3e ba 67 7c 3e 55 21 d8 bd
       0.09584882 0.16375993 0.24648944 -0.105532326
000060 3b ca 70 bd b7 4c ca bd 79 0a 62 3e a4 59 02 3e
       -0.058786612 -0.098779134 0.22074308 0.12729508
000070 27 b1 2f be bd bc cb 3c db 43 ee bc b3 b4 e1 bc
       -0.17157422 0.02487027 -0.02908509 -0.027551984

weight f4 [2, 32]
000000 9b 57 21 3f 06 3a 48 bf 58 5d 45 bf 4d 62 38 3f
       0.630243 -0.78213537 -0.77095556 0.72024995
000010 b6 40 32 3e e1 6d d8 3b 72 f5 38 bf e8 f5 45 bf
       0.17407498 0.0066048955 -0.7224952 -0.7732835
000020 88 0f 23 3e 7f d3 56 bf 24 32 f1 3e cc 80 15 bd
       0.15923893 -0.8391647 0.47108567 -0.036499783
000030 bd 4e 32 bf 14 6f 18 bf 92 e9 92 3d fb da 1d 3f
       -0.69651395 -0.5954449 0.07173456 0.6166226
000040 9a 45 28 3f 00 6b 06 be 57 ed 52 bf ec 3f 48 bf
       0.65731204 -0.13126755 -0.823934 -0.7822254
000050 64 86 3f bf 21 52 20 3f ab ca 32 3f 7f 88 46 3d
       -0.7481444 0.6262532 0.69840497 0.048470017
000060 8e d3 2f bf 8a ff af bd 3e a6 0c 3f 74 34 21 3f
       -0.6868218 -0.08593662 0.54941165 0.6297066
000070 da 4a 91 3c 3a 7c a6 3a 50 c3 29 bf 4c ec 40 3c
       0.017735887 0.0012701817 -0.6631365 0.011775088
000080 11 67 4c bf 96 a4 19 3f 36 56 29 3f f0 8b 29 bf
       -0.79844767 0.60016763 0.6614717 -0.6622915
000090 1a 54 28 be 1d cb 6f 3c fe 83 3e 3f 0b f6 2a 3f
       -0.16438332 0.014635828 0.74420154 0.6678168
0000a0 9b f9 c6 3d bb ab 47 3f 50 84 40 bf 5c 4b 62 3d
       0.09715577 0.77996415 -0.7520189 0.05524765
0000b0 db 10 3a 3f 06 60 f4 3e b9 7c 36 bd 7a 16 2e bf
       0.7268197 0.4772951 -0.04455254 -0.68003047
0000c0 d5 57 00 bf 6e bc a7 3d b6 e0 4b 3f a6 d6 62 3f
       -0.5013402 0.08190237 0.79639757 0.8860878
0000d0 f0 a2 0d 3f 30 00 20 bf 8e ae fd be 97 14 f9 3d
       0.5532675 -0.62500286 -0.49547237 0.1216213
0000e0 8c 58 2f 3f 8a 04 08 3e 81 7c 30 bf aa 8a f1 be
       0.68494487 0.13282982 -0.6893998 -0.47176105
0000f0 7a 5b c5 bd 09 9a f2 3c 4a 5d 49 3f f5 8f 21 3e
       -0.096365884 0.029614465 0.7865797 0.15777571

bias f4 [2]
000000 83 ee d8 3d 52 c0 1c be
       0.105923675 -0.1530774
