sources/params/ppo_net.pkl (torch_old, 33050 bytes, 15 tensors)

weight f4 [64, 4]
000000 2c 21 27 3c ee c9 09 bd 71 50 7d be ed 38 37 3e
       0.01020078 -0.03363984 -0.24737717 0.17892809
000010 19 21 0a 3d f0 35 03 bd fc 44 d1 be 6a 08 19 3e
       0.03372297 -0.03203386 -0.40872943 0.14944616
000020 2a 16 bf 3e f1 f6 cc bd 06 36 83 3e 0c 16 40 bf
       0.37321597 -0.10008038 0.25627154 -0.7503364
000030 c4 6e c4 3c 54 c7 d1 3d 3c 50 ba 3d df 12 3f bd
       0.023978598 0.10243097 0.09097335 -0.046648856
000040 f9 0d cc be 18 5a f7 3e eb 45 0d bf 73 e1 cc 3e
       -0.3985441 0.48310924 -0.5518481 0.40015754
000050 06 17 9f 3e 8a 4b a2 be b6 8e cc 3e 27 b2 2e be
       0.31072253 -0.31698257 0.3995263 -0.17060147
000060 9d a3 7e 3e 9e 47 e4 3d 4b da cf 3d 7f 7c bb 3e
       0.24867101 0.111464724 0.10149058 0.3661842
000070 d0 40 79 3b 8a 3a be 3d 47 53 3b 3d bf ef a1 3e
       0.0038033016 0.09288509 0.045733716 0.31628224
000080 2e ef 2b be 46 37 18 3d b6 40 a7 3d a2 91 24 3e
       -0.16790459 0.037162088 0.081666395 0.1607118
000090 1d 70 f8 3d 01 de b3 bd b1 17 81 be a4 b2 ec bd
       0.12130759 -0.08782578 -0.25213388 -0.115575105
0000a0 bc 31 b0 3e d4 65 b5 be d8 b7 25 3d 81 c5 f5 bb
       0.34412944 -0.3542925 0.04045853 -0.007500351
0000b0 d9 77 26 3f dc 20 c8 be e7 a7 98 3d f9 75 6f be
       0.65026623 -0.3908757 0.074539 -0.23384847
0000c0 a5 f4 ab 3d 03 52 80 be 2c 70 3b 3e 76 f7 8b bd
       0.083962716 -0.2506257 0.18304509 -0.06834309
0000d0 8f 40 ff 3e 8e 2a e6 be fa 03 34 bd 4e 4e 85 bd
       0.49853942 -0.44954342 -0.043949105 -0.06509076
0000e0 53 99 d6 3d 27 0f 15 be 2c 22 ce be 7c 98 98 bd
       0.10478463 -0.14556561 -0.40260446 -0.07450959
0000f0 88 58 77 be 54 1a 5f 3e c4 d0 9f be bd 5b 88 3e
       -0.24154866 0.21787387 -0.31213963 0.2663249
000100 54 23 9a bd cc e6 de 3d 71 fb 86 3e 09 30 92 3d
       -0.075262696 0.10883865 0.2636371 0.07138068
000110 00 21 0d 3f 2b 3b 8e be 01 e7 09 3f 1e f0 94 be
       0.5512848 -0.27779517 0.5386811 -0.29089445
000120 97 93 8b 3e 66 48 15 bd 2d 3e da bd 3f b9 9b be
       0.2726104 -0.036445998 -0.1065639 -0.3041477
000130 25 ee 3c bf d9 38 9a 3e f7 99 38 be 29 94 dd 3e
       -0.7380088 0.30121496 -0.18027483 0.432771
000140 87 b4 64 bf 00 7a ff bc ad b3 0a be ae 47 96 3e
       -0.8933796 -0.031186104 -0.13545103 0.29351562
000150 9a ce f7 3d cf 7a be bd b7 25 20 3e 56 73 09 be
       0.12099953 -0.09300768 0.15639387 -0.13422903
000160 ab 5d 49 3d 6a 78 d3 3a bb a0 48 be f3 f8 69 3e
       0.049161594 0.0016133909 -0.19592564 0.22848873
000170 aa 2a 0d be 4c 2c 94 3e 1f f3 89 be 23 a0 8c 3e
       -0.13785806 0.28940046 -0.269433 0.27465925
000180 3e 6e 03 3f e2 9c f7 be 2a 5c 2f 3f 4a 63 c5 be
       0.5134009 -0.4836188 0.68500006 -0.38552314
000190 f7 c1 b3 be a6 26 41 3e 5e 76 38 be 2e 33 cd 3d
       -0.3510892 0.188624 -0.18013903 0.100195274
0001a0 5b 84 0a 3e f1 d8 9c 3d 73 f6 a9 bd 57 15 8b be
       0.13527052 0.07658566 -0.082989596 -0.27164719
0001b0 01 a8 06 be 91 34 20 3d 70 77 a9 be fa 5a 0b be
       -0.13150026 0.03911263 -0.33098936 -0.13608924
0001c0 80 13 15 bf b6 c2 77 be 0c f8 95 bd 81 16 2d be
       -0.5823288 -0.2419537 -0.07322702 -0.16903116
0001d0 f5 2e 12 bf 2f 9f f0 3e c7 27 22 3f 23 3e e2 bd
       -0.571029 0.46996447 0.63341945 -0.11047008
0001e0 ce 46 21 be db b5 2a 3d b1 6e 0b bf 0b 10 81 3e
       -0.15749666 0.041677337 -0.54465777 0.25207552
0001f0 72 72 81 be 88 2d 0d 3d 52 b9 01 bf e1 76 bb bd
       -0.25282627 0.03446725 -0.506734 -0.09153534
000200 90 8b b1 3e d4 37 11 be a5 26 ad be ef f2 80 be
       0.3467679 -0.14181453 -0.33818546 -0.25185344
000210 b5 57 0b 3d a0 94 6b be 76 e5 a9 be c2 ea aa bc
       0.03401919 -0.23005915 -0.33182877 -0.020863894
000220 63 17 93 be 9b bf 6b 3e 34 07 92 be 10 71 3a 3c
       -0.2872878 0.2302231 -0.2852112 0.011379495
000230 45 a2 26 3e 40 5a 11 be b7 27 14 be b0 d7 d0 bd
       0.16272838 -0.14194584 -0.14468275 -0.10197389
000240 06 03 74 3e 97 80 a4 bd 0f bd a4 3d 70 73 8e bd
       0.23829278 -0.08032339 0.080438726 -0.06955612
000250 67 d9 08 be 6b 73 8b be 92 0f 0f be 20 1a 74 bd
       -0.13364182 -0.27236494 -0.13970783 -0.059595227
000260 c9 2a 91 be 67 4b 8b bd 31 e3 e0 be df a1 6c 3e
       -0.28352955 -0.06801491 -0.43923333 0.23108624
000270 c7 8e b4 3e 72 7b 00 be 2f 7d 48 be 31 ea 25 bd
       0.3526518 -0.1254709 -0.19579004 -0.040506545
000280 93 d8 96 bd 78 68 56 3e df be 5a be 3e e0 87 bb
       -0.07365527 0.20938289 -0.21361874 -0.004146605
000290 94 bc 01 3e ac 67 5b 3d e1 97 d4 3e 23 4e cf bc
       0.12669593 0.053565666 0.41522124 -0.025305813
0002a0 1c 10 88 be 90 5e 6e 3e ad 34 bf be d3 cd fc 3d
       -0.2657479 0.2327826 -0.37344876 0.12343945
0002b0 78 29 80 3d 10 74 1a 3d 40 2a 53 bd 80 1d 7e 3c
       0.062579095 0.037708342 -0.051553965 0.015509963
0002c0 24 c8 90 bd ae 2e 88 bd a5 7d b7 be ee 5a ec 3d
       -0.07069424 -0.066495284 -0.35838047 0.11540781
0002d0 65 60 5b be 1e 05 8c 3e 3b 6a 54 be 0f fa 20 3f
       -0.2142349 0.27347654 -0.20743649 0.6288156
0002e0 f4 50 c3 be 8b c3 74 3d 85 49 28 3f de df 90 be
       -0.381477 0.059756797 0.6573718 -0.28295797
0002f0 22 e7 d9 3e 2b 8e 1e be d7 36 9b be 61 c9 df bd
       0.42559153 -0.1548392 -0.30315277 -0.10927082
000300 5d 48 37 3e 48 d1 28 be 0f 93 05 3e 99 24 76 bc
       0.17898698 -0.16486084 0.1304438 -0.015023374
000310 94 f0 21 bf 59 fa 57 3d d8 6d 4c bc 48 1f 38 be
       -0.6325772 0.052728985 -0.012477361 -0.17980683
000320 dc c3 ee 3c f0 dc 12 3d a9 5e 01 bd 2f 00 bf be
       0.029146127 0.035855234 -0.031584416 -0.37304828
000330 2b 33 64 3e f0 8d 93 be 8d 1b 13 bf 26 ca 2c be
       0.22285144 -0.28819227 -0.57463914 -0.16873989
000340 04 26 8e 3e 52 6a 66 be 0d a8 fc bd 95 d7 ae 3b
       0.2776338 -0.22501495 -0.12336741 0.005335758
000350 e7 7d 80 be f0 79 70 3e 1e ba ab be 6c a1 9a bc
       -0.25096056 0.23484015 -0.33540434 -0.0188758
000360 d3 ea 13 3e fc db 3d bd 14 1f 83 bd f4 2d b2 bc
       0.14445047 -0.04635237 -0.06402412 -0.021750428
000370 6f b6 b3 bc 6f aa 3f 3e 34 8c 9d 3e c5 20 a4 be
       -0.021937577 0.18717359 0.3077103 -0.3205625
000380 43 e9 24 3e 5e 9f 06 be 35 2d 18 3f 7f e2 9f bd
       0.16104607 -0.13146731 0.5944398 -0.078068726
000390 52 3c 54 be 4e be 41 3d 6d 43 04 be b8 62 2c be
       -0.20726135 0.04730063 -0.12916346 -0.16834533
0003a0 33 b2 89 3c 34 2b 1b 3d cc 15 f2 bd 16 b4 96 bd
       0.016808605 0.037883 -0.11820564 -0.073585674
0003b0 84 80 77 bd de 5e 8e 3d ff f1 d7 be bc 5b 41 be
       -0.060425296 0.06951688 -0.42176816 -0.1888265
0003c0 f6 74 06 bf 38 28 64 3d 7f 5c e6 3e 3a 7a 5b 3d
       -0.5252222 0.055702418 0.44992444 0.05358336
0003d0 00 ba 5d be c2 c3 65 3e 75 08 11 be 55 b3 30 be
       -0.21652985 0.22437957 -0.14163382 -0.1725591
0003e0 ac 9b 50 bc 76 3a 58 3e 64 49 7f 3e cf 6a be 3e
       -0.012732428 0.21116051 0.2493034 0.37190863
0003f0 37 01 6b be 59 c7 6b be 7c 13 df 3e 80 d5 43 bd
       -0.22949682 -0.23025264 0.43569553 -0.04781103

bias f4 [64]
000000 fd be 6a be 53 68 dd 3e ca 75 fe be ec a4 b6 3e
       -0.22924419 0.43243656 -0.4969924 0.356727
000010 8a a0 e8 3e e5 1a b6 3e 7b 12 ea 3e 11 6d 31 3e
       0.45434982 0.35567394 0.45717224 0.17326762
000020 34 d6 ca be e0 e3 1e 3f f9 16 84 be a6 3a b1 be
       -0.3961655 0.6206646 -0.25798777 -0.34615058
000030 86 d7 19 3f d0 e0 10 bf 41 f9 03 3f 46 6d 44 be
       0.6009449 -0.56593037 0.51552206 -0.1918231
000040 ca bc 5c be e7 79 d1 bc d6 f5 44 bf 7f a6 1b be
       -0.21556392 -0.025570823 -0.76937616 -0.15200232
000050 e8 8b 8b be 3d d7 8d 3e 2a 05 54 be 76 f1 6f 3e
       -0.27255177 0.27703276 -0.20705095 0.23431954
000060 c7 57 98 be 3d a8 0c 3f 9e 54 6a 3f 44 b3 fd 3e
       -0.2975447 0.5494421 0.91535366 0.4955083
000070 d3 10 65 bd 83 17 02 bf 05 8b 11 3f cf bd ec 3e
       -0.055924248 -0.50817126 0.5685275 0.46238562
000080 f3 e8 01 3f 2e 04 2b bf 3a 56 e3 3e 5f 6d 8d be
       0.5074608 -0.6680325 0.44401723 -0.27622506
000090 5b eb c1 be 22 8e ae be 99 79 a2 be 54 64 17 bf
       -0.37874874 -0.34092814 -0.31733397 -0.59137464
0000a0 8e da c1 3e 9f 9a 12 bf db 40 ea 3e bc 08 bc be
       0.37862056 -0.57267183 0.45752606 -0.36725414
0000b0 0b c3 09 3f 43 76 e9 be f5 41 0f bf 19 8e f5 be
       0.53813237 -0.4559804 -0.5596002 -0.47959974
0000c0 1e 53 d9 3e 15 39 9a be 16 73 98 be 89 14 1a 3f
       0.42446226 -0.30121675 -0.29775304 0.60187584
0000d0 a5 88 c4 be 2a 56 8c 3e 10 3a 8f be f0 53 c8 be
       -0.38385502 0.27409488 -0.27973986 -0.3912654
0000e0 7c 97 8d 3e 2e e0 01 3f 99 89 39 3e d1 98 16 3f
       0.27654636 0.50732696 0.18118896 0.5882693
0000f0 c7 8e db be 0b 6a ab be 87 ba d4 3e be ff 10 bf
       -0.42882368 -0.33479342 0.4154856 -0.5664023

weight f4 [32, 64]
000000 0d 57 e3 bd 76 8e bc bd 92 14 ef bd 21 81 25 3d
       -0.11100588 -0.0920686 -0.11673845 0.04040635
000010 25 44 09 3e 8f 0a 12 be f0 e7 e5 3c 5b 82 c3 3d
       0.13404901 -0.1426184 0.028064698 0.09546348
000020 17 48 0b 3e f8 49 06 be 11 5b dc 3c 16 38 ca bd
       0.13601719 -0.13114154 0.026898893 -0.09873979
000030 e7 17 f0 bb 27 0b 16 be 40 fc 11 3d 8b b1 17 3e
       -0.007327068 -0.14652692 0.035640955 0.14813821
000040 a8 14 fd bc 1a 34 90 bd 68 ff 8d bd 3c ba 52 3e
       -0.030893639 -0.070411876 -0.069334805 0.20578855
000050 8e 52 51 3e e7 50 93 be 35 d5 0e bd ff f8 24 be
       0.20441648 -0.2877266 -0.0348713 -0.1611061
000060 00 49 c2 bb ee ed 85 be d9 65 08 be 68 bf aa be
       -0.0059291124 -0.26158088 -0.13320102 -0.33349156
000070 af a5 12 3e dd b7 86 bd d3 3a df 3d 7e 4a 0a be
       0.14321016 -0.06578038 0.10899892 -0.13504979
000080 e0 4c 63 bd 7c d1 94 3d 2c d3 61 be da bb 5a bd
       -0.055493236 0.072665185 -0.22053212 -0.053401805
000090 e5 9c c7 3d ca 1a 8d 3d cc 05 60 3d 2f 1f 0b 3c
       0.09746722 0.06889875 0.05469303 0.0084913215
0000a0 48 49 46 be d0 9a c4 bd 0a 26 7c be 50 b2 9e bc
       -0.19363892 -0.09599841 -0.24623886 -0.019372135
0000b0 40 69 93 bd 5a 4d 0a 3e 0f 90 4b bd cc 8e 60 3d
       -0.07197809 0.1350607 -0.04969793 0.05482368
0000c0 7d f9 5d bd 82 45 80 3d af bd ef 3c 4c 25 a5 3d
       -0.05419301 0.062632576 0.029265253 0.080637544
0000d0 e0 05 80 bd c7 3f 96 be f1 b0 3e bd 31 ee 78 3d
       -0.062511206 -0.29345533 -0.046555463 0.060774032
0000e0 51 ca 8b 3b 16 1f 7b be bc af 81 be 0b 49 82 be
       0.0042660614 -0.24523577 -0.25329387 -0.25446352
0000f0 a8 e1 4a 3e f5 f8 80 bd 5b 0f f2 3d 7c 36 e3 3c
       0.19812644 -0.06297485 0.11819335 0.027735941
000100 53 89 cd 3d 66 72 4c 3f a6 6d 01 bd 99 9b 37 3f
       0.10035958 0.7986206 -0.03159871 0.717218
000110 c2 f9 08 3f 20 ad 18 3f c9 25 e1 3e 11 8a 6d 3f
       0.535061 0.5963917 0.4397414 0.927888
000120 ef 23 ed 3d d4 3b 8b 3e be 51 e3 3d 69 d8 0b bd
       0.115791194 0.27194083 0.110995755 -0.03414193
000130 35 58 20 3f cf 6b f1 bd 08 7c 58 3f b2 85 15 be
       0.62634593 -0.11788141 0.84564257 -0.14601782
000140 41 e7 26 bf 42 67 e4 3d b7 25 89 3b 9b 23 1f 3d
       -0.65196615 0.11152507 0.004185404 0.038852315
000150 25 3d af 3b 46 ef 53 3f 3f fc 52 bd 26 a7 19 3f
       0.005347865 0.8278698 -0.051510092 0.60020673
000160 59 bc 82 bd 93 f0 fb 3e f4 a0 47 3f 9b c7 45 3f
       -0.06383581 0.4920698 0.7797997 0.772577
000170 56 62 b6 bd 03 b7 05 3d 88 9d 44 3f d8 f7 09 3e
       -0.08905475 0.032645237 0.76802874 0.13473451
000180 ad 79 d7 3d 6a 09 e6 3d 7b 2c 49 3f 96 03 6d be
       0.10521255 0.11232264 0.78583497 -0.23145899
000190 b9 b5 1d bf 08 10 80 be 6c 08 16 be 62 9c c0 be
       -0.6160541 -0.2501223 -0.1465165 -0.3761931
0001a0 fa 91 81 3f 91 28 d4 3e 95 8d c9 3e 14 e6 3c 3d
       1.0122674 0.414372 0.3936583 0.046117857
0001b0 53 12 01 3f 7c 2b 6a bf eb f7 e3 3d 64 a7 8e be
       0.50418586 -0.914726 0.11131271 -0.27862084
0001c0 2d 75 21 3f 2f df e1 bd 18 4f af bd 9b 1e 23 3f
       0.6306942 -0.11028897 -0.08560008 0.63718575
0001d0 4d 2c bc 3d 25 de bb 3e 63 4d 23 bf fd 22 d5 3d
       0.09188137 0.3669292 -0.6378996 0.10407064
0001e0 d3 07 ef 3e ce 75 8a 3f f4 8f a6 3f de 6a 37 3f
       0.46685657 1.0817201 1.3012681 0.7164744
0001f0 d6 3d 34 be 53 d6 70 be 9f 30 26 3f ea 75 cd bd
       -0.17601714 -0.23519258 0.6491794 -0.10032256
000200 43 9b 87 be 50 4b 7b be 0d b3 2e 3d c7 4c e9 bc
       -0.26485643 -0.24540448 0.042651225 -0.028478993
000210 1d 44 9d 3d 5e 79 21 be 93 73 c7 bc c7 ac 85 be
       0.07679007 -0.15768954 -0.024347102 -0.2610838
000220 25 36 b4 3d 04 1f 2b bd bc c5 2b 3e fd 3b a4 bc
       0.0879939 -0.041777626 0.16774648 -0.020048136
000230 df d0 da bd d4 99 89 3d 8e 44 37 be cc 3b 89 bb
       -0.1068437 0.067187935 -0.17897245 -0.0041880365
000240 4c 63 4d bd 8a 01 2d bd 8e ea fd 39 ac e9 61 3e
       -0.050143525 -0.042237796 0.00048430677 0.22061795
000250 60 16 16 3e 8c d3 4f be 45 64 37 3e 14 5f 09 be
       0.14656973 -0.20295542 0.17909344 -0.13415176
000260 9d f8 20 3d 96 41 a7 be 00 2a bc 3d 63 aa 00 bf
       0.039299596 -0.32667226 0.09187698 -0.5025999
000270 f1 7a f1 3e 2a 6d 09 bd 70 36 9a be 4c f6 90 3d
       0.4716411 -0.033551373 -0.30119658 0.070782274
000280 d5 07 8d be dd 0c 2f bd 10 71 bb be 1d df 26 3b
       -0.27545038 -0.042736877 -0.36609697 0.0025462576
000290 9e 46 ed 3d 77 64 76 3e b4 18 aa 3d 9c f0 b3 3d
       0.11585735 0.24061762 0.08305493 0.08786127
0002a0 5c 66 a4 be 8e 76 ba bd 0e 49 22 bd 00 fb a0 ba
       -0.32109344 -0.09104644 -0.03962045 -0.0012281835
0002b0 4f 1b e0 bd 87 6b a0 3e 46 9a da 3d 37 93 cd bd
       -0.10942709 0.31332037 0.106739566 -0.10037845
0002c0 29 47 65 be 4c b5 7c 3e 0d ef 1c 3e fa 31 92 3b
       -0.22390427 0.24678534 0.15325566 0.004461524
0002d0 36 12 8c 3d aa 39 03 be 0f 9a 06 bd 26 d5 90 3d
       0.06839411 -0.12814966 -0.032861765 0.07071905
0002e0 c3 84 b8 bc 5e 55 26 bf 83 ab 4b be dc d3 7e be
       -0.022524243 -0.6497401 -0.19889645 -0.24885505
0002f0 82 d6 15 3f dc 6a b7 3c 11 d6 43 3d 41 fe 90 3e
       0.5853044 0.022389822 0.04781157 0.2831898
000300 6b e5 42 bd 32 27 6f be 12 60 a0 3e c4 b2 9a bd
       -0.04758207 -0.23354796 0.31323296 -0.07553628
000310 44 1f e8 bd 33 d8 39 be ec 41 9e be 89 dd 17 bf
       -0.113340884 -0.1814888 -0.3090967 -0.5932241
000320 50 ec f7 3d c4 19 36 bd 43 0a 30 3e 42 18 34 3f
       0.1210562 -0.044458166 0.17191415 0.70349514
000330 2f e8 26 bd c6 94 13 3f 8c 51 ac be d4 a8 0f 3e
       -0.04074877 0.57648885 -0.33655965 0.14029247
000340 84 17 a2 3e b4 58 23 3e 96 56 c9 3d 7a 3b 94 bd
       0.31658566 0.15951806 0.09830968 -0.07237907
000350 d5 99 b7 3d 64 c5 bb be fb 51 46 3d 4a 26 67 be
       0.08964888 -0.36674035 0.048418026 -0.225732
000360 5d 79 12 3f 36 61 84 bd c9 3e fa be 00 6e 98 be
       0.57216436 -0.06463854 -0.48876026 -0.29771423
000370 96 e5 bf 3d 86 c2 f3 bd 5f 1a ca bd 5e f3 90 3d
       0.09369962 -0.11902337 -0.09868311 0.070776686
000380 cb d9 78 3e f6 ed c5 bd 23 f2 80 be 10 20 5a 3e
       0.24301831 -0.09664528 -0.25184736 0.21301293
000390 01 82 4b 3f e2 3e f9 3c 57 ba 87 3d f1 4e 1e 3f
       0.79495245 0.030425493 0.066273384 0.61839205
0003a0 43 47 12 bf e7 46 8f be 96 6d 88 be 3e 39 83 bd
       -0.57139987 -0.27983782 -0.26646107 -0.064074025
0003b0 c4 3f 04 bd 0f 48 40 3f ef 0a 6a 3b c1 9d 43 3f
       -0.032287374 0.7510995 0.0035712083 0.7641259
0003c0 65 01 ba be 58 c5 d7 3d 5f c7 e0 3c 34 b8 43 3d
       -0.3632919 0.10535687 0.027438818 0.04778309
0003d0 c5 46 27 be 04 09 03 be d4 f0 99 3e f6 e0 7c 3d
       -0.1633559 -0.12796408 0.3006655 0.061737977
0003e0 b9 0f aa bc e9 cb 73 be 0c 2e aa be 78 9f cd be
       -0.02075945 -0.23808254 -0.33238256 -0.40160728
0003f0 78 ab 13 3e 31 73 4a 3e 68 51 40 be 73 45 9b bd
       0.14420879 0.19770505 -0.18781054 -0.07581606

bias f4 [32]
000000 f9 07 a9 3d c5 ed 46 3d 51 5f 81 3d d5 85 8d 3e
       0.08253474 0.0485666 0.06317008 0.27641168
000010 27 9f ba 3d ba bc b4 bd bc ab 60 bd fd fa 8d 3c
       0.09112387 -0.08825059 -0.05485128 0.017331595
000020 b4 bd db 3e 65 57 60 3e 6e 6b a4 3b 8e e8 91 3d
       0.4291817 0.21908338 0.0050176894 0.071244344
000030 06 c5 ef 3c 15 82 9f 3d 6e 7e 91 bc 1d 80 c2 bc
       0.029268753 0.07788483 -0.017760482 -0.02374273
000040 73 0d 2c be e7 c7 f7 bd 00 42 f5 3d 34 ca e8 3d
       -0.16802005 -0.12098675 0.11975479 0.11366692
000050 57 8e a7 bd 7c 4b 27 be 1c 4f 04 be e3 52 0f 3e
       -0.08181446 -0.16337389 -0.12920803 0.13996463
000060 98 a5 86 bc 7f 69 67 3e 23 81 93 3d 32 c4 8e 3d
       -0.016436383 0.22598837 0.07202365 0.06971015
000070 3c ad 9b b9 f2 67 bb 3d c7 c0 03 be 6f 62 97 3d
       -0.00029692973 0.09150685 -0.12866507 0.073918216

weight f4 [8, 32]
000000 c5 c5 19 3e 84 56 7b bd 96 18 9f bd be 7b 87 bd
       0.1501685 -0.061361805 -0.07768361 -0.06615399
000010 10 65 44 3d ed 09 0a be d0 ab 11 bc e9 f0 cf bd
       0.047947943 -0.13480349 -0.008891061 -0.10153372
000020 20 7e ba bb 92 66 57 bd f8 91 29 be c4 05 1d 3d
       -0.005691305 -0.052588053 -0.16559589 0.038335577
000030 e2 e1 e9 3d b6 27 5b bd fb 3b ca bd 50 df 81 bc
       0.11420037 -0.05350467 -0.098747216 -0.015853554
000040 c0 d3 19 3c 2a c2 f6 3d 42 1a fb 3d 20 c9 30 3d
       0.009388864 0.120487526 0.12260868 0.043160558
000050 a0 9f 72 3c 2c f6 0d be a8 39 6b bd f2 8b 0a be
       0.014808565 -0.13863438 -0.057428032 -0.13529947
000060 fe 9b aa 3d 07 e0 2a be 5a c8 1d be 08 ae ac 3c
       0.083305344 -0.16687022 -0.1540846 0.021079078
000070 59 a7 00 3e 00 29 9c ba 2a 22 8e 3d 40 69 79 3d
       0.12563838 -0.0011914074 0.0694011 0.06089139
000080 17 b3 6a be c8 87 83 3e d7 26 df be 38 a7 28 bf
       -0.2291988 0.2568953 -0.4358432 -0.65880156
000090 6b 63 72 be d9 f5 4a be cb 7a 6e 3d 27 84 1d bf
       -0.23670737 -0.19820346 0.058222573 -0.61529773
0000a0 a8 47 5c bf 8c b9 68 3e 19 fb f9 3d 03 36 9d 3e
       -0.8604684 0.2272703 0.12206096 0.3070527
0000b0 7c 13 cc be ac da fa 3d bd 20 2e 3e fd cf 49 3e
       -0.39858615 0.122487396 0.17004676 0.19708247
0000c0 ad 42 b2 3d 9a 73 20 3e ef 21 8f be 7c 99 c8 be
       0.08704124 0.15669098 -0.27955577 -0.391796
0000d0 d9 c1 d1 bd 20 f8 56 bc 85 37 89 bd 16 56 f1 3d
       -0.10242052 -0.013120681 -0.06700043 0.11783998
0000e0 00 81 94 bd 4d 1f 37 bf a1 8e 95 3e 22 82 7c 3e
       -0.07251167 -0.71532136 0.2921038 0.24659017
0000f0 67 5d 30 be 3b 6f 3c be 2b c2 55 3d 57 32 1c bf
       -0.1722313 -0.18401806 0.052187126 -0.6101431
000100 48 40 0a bc 91 f5 4f be 9c 5f a0 bd d5 22 88 bc
       -0.008438177 -0.2030852 -0.07830736 -0.016618172
000110 a2 86 2c be f0 48 f5 bd 13 e3 60 bd 2f 4e d4 3d
       -0.16848233 -0.11976802 -0.054904055 0.10366475
000120 e0 5e 8a bb 44 91 ee 3d 35 da 05 3e c4 9d fb bd
       -0.0042227358 0.11648801 0.1307152 -0.12285951
000130 dc f4 12 be e9 1f 25 3e 0f db 9c 3c d2 05 d0 3d
       -0.14351219 0.16125454 0.019147424 0.1015736
000140 c8 f3 1d 3d 21 62 2f be 74 a4 25 be 25 65 a1 bd
       0.038562566 -0.17127277 -0.16176015 -0.0788062
000150 b1 1b 2e be 1c 84 9d 3b 03 85 b4 3b df a4 be bc
       -0.17002751 0.0048070084 0.0055090203 -0.023271976
000160 2f 6b df bd 9a 73 a8 3d 73 24 94 bd 37 89 49 bd
       -0.109091155 0.08225174 -0.07233515 -0.049203124
000170 fc 63 89 bd e0 24 c6 bb 92 8f 35 be 65 04 d6 3d
       -0.06708524 -0.0060468763 -0.17730549 0.10450057
000180 cc af 6d 3d a0 b1 d0 3d 8e 6d cc bd ee e4 db bd
       0.05802898 0.10190129 -0.099818334 -0.10737024
000190 4d 70 87 bc 02 10 00 3e c9 52 e8 3d 32 59 15 be
       -0.016533041 0.12506106 0.11343915 -0.14584807
0001a0 1a 6f f2 bd 98 c7 37 bd 6e ec 95 bd e1 35 ef 3c
       -0.11837597 -0.04486808 -0.07320486 0.029200496
0001b0 fb ba 17 3e 7e 61 7e 3d ec de cd bd de f1 82 bd
       0.14817421 0.062104695 -0.100522846 -0.06393789
0001c0 c6 5a 8a 3d d0 01 28 be 83 ab e8 bc 1d 37 23 3e
       0.06755595 -0.16406941 -0.028402096 0.15938993
0001d0 7a fc e4 3d 30 fe 7b bd d3 e9 c1 3d 66 97 fa 3c
       0.111809686 -0.06152171 0.094684266 0.03058977
0001e0 1e 63 c0 3d c5 d9 0e 3d 7d dc 47 3d b4 07 80 bd
       0.09393905 0.03487565 0.04879426 -0.06251469
0001f0 8d df 08 3e 76 d1 da 3d 69 08 23 3d 12 fc f4 bd
       0.13366528 0.10684483 0.039802942 -0.11962141
000200 1c 75 2c be 02 04 93 3e f4 bf 12 bf 41 a4 0c bf
       -0.16841549 0.28713995 -0.5732415 -0.5493813
000210 0b db cf be cd db 55 bc 62 f1 fc bd 05 33 dc be
       -0.40596804 -0.013052893 -0.123507276 -0.43007675
000220 99 c3 39 bf 49 b3 78 3e ab 65 53 3e 38 b6 93 3e
       -0.72564083 0.24287142 0.20644252 0.2884996
000230 0f bf 06 bf cf 4c e5 3d ea 02 70 bd f0 e8 14 3e
       -0.5263528 0.11196291 -0.05859653 0.14541984
000240 ab b4 ae 3d e8 7c ca 3d 18 49 6a be 00 8b 89 bd
       0.085305534 0.09887105 -0.22879446 -0.06715965
000250 51 2b 04 be cb fe 2d 3d 4b ee 04 3e bb 3e 83 3e
       -0.12907149 0.042479318 0.12981527 0.25633797
000260 6a 25 78 bd 12 3a 36 bf 6a 23 98 3e 69 ea 73 bd
       -0.060582556 -0.7118236 0.2971452 -0.059549723
000270 f0 cf f4 bd 85 b2 3d 3d 36 97 23 3e c6 90 07 bf
       -0.119537234 0.046312828 0.15975651 -0.5295528
000280 0b 0b b6 bd 00 44 99 39 90 4a fe bc 08 9b 83 3c
       -0.08888825 0.00029233098 -0.031041414 0.016065136
000290 ff 85 ce bd 78 26 83 3d 69 73 0e 3e a2 eb d2 3d
       -0.100841515 0.06403822 0.13911213 0.1029885
0002a0 48 a9 bb 3c d0 5e 8c 3d 00 2c 88 3b 68 7a 9c bd
       0.022907868 0.068540215 0.004155636 -0.07640535
0002b0 cf 17 dd bd 4c c8 17 bd a0 06 07 3d f4 18 56 3d
       -0.10795557 -0.037056252 0.032965302 0.05226989
0002c0 fa de 8c bd 00 06 17 bb ea 3e fa bd 64 b4 5c bd
       -0.06878467 -0.0023044348 -0.12219031 -0.05388297
0002d0 b0 38 c0 bd 46 66 ff bd b4 3c aa bd eb e5 0a be
       -0.09385812 -0.12470679 -0.083123595 -0.13564269
0002e0 b0 b9 44 bd 20 c5 43 3d be da b4 3d e0 23 a9 bb
       -0.048028648 0.047795415 0.08830784 -0.0051617473
0002f0 5a 12 cf 3d e0 28 15 3d fc 9e 4f bd ff c7 e0 bd
       0.10110922 0.036415935 -0.05068873 -0.10975646
000300 2e 8b 52 bd 83 78 2e 3e 64 5f 06 bf b0 9f 87 be
       -0.051402263 0.17038159 -0.52489305 -0.2648902
000310 13 4f 47 be e9 78 21 be 5a ad 10 3e a3 ad 10 bf
       -0.19463758 -0.1576878 0.14128628 -0.5651495
000320 f2 bd 37 bf c6 cb b0 bd 12 0c 52 bd 2a dc 13 3e
       -0.7177421 -0.08632617 -0.051281042 0.14439455
000330 57 12 b2 be 10 c4 03 bc 6a f7 b8 3d 51 88 e1 3d
       -0.34779617 -0.00804235 0.090315655 0.110123284
000340 a8 34 51 3d 0e 42 16 be 9c 29 d7 bd 6a c1 5d bc
       0.051075608 -0.14673635 -0.10505983 -0.013534883
000350 78 64 aa 3c 13 65 0c 3e 25 e9 78 3e 46 13 10 3d
       0.02079986 0.13710432 0.24307688 0.03517463
000360 44 8f 20 be c3 91 03 bf e9 3d 3e 3e a0 45 78 3c
       -0.15679651 -0.5139429 0.18578304 0.015153319
000370 9c 97 61 3d 5f 7b b4 bd c4 d2 ed 3d eb c8 d7 be
       0.055076227 -0.08812594 0.11612466 -0.42145476
000380 f8 a6 07 be 23 9b 26 3e 82 44 ad be 19 98 9c be
       -0.13247287 0.16270117 -0.3384133 -0.3058479
000390 a2 d3 b1 be 8d ed af 3d 1d 2e 04 bd 47 54 17 bf
       -0.34731776 0.08590231 -0.03227054 -0.5911297
0003a0 de 7e 2d bf da 5d 81 3e 28 f6 17 3e b7 1d a3 bc
       -0.6777171 0.25266916 0.14839995 -0.01991163
0003b0 22 30 bf be 9e a1 1d 3e 63 c5 a8 3d 02 64 f6 3d
       -0.3734141 0.15393683 0.082407735 0.12030794
0003c0 4e 32 3e 3d 9c 97 bd bc 72 ed 42 bd 48 72 5c be
       0.046434693 -0.023143582 -0.047589727 -0.2152797
0003d0 17 6e 21 bd 41 24 0d bb 4c 9c 32 3e b9 95 8a 3d
       -0.03941163 -0.0021536502 0.17442435 0.067668386
0003e0 e5 27 1f be a5 7c 19 bf d2 2c 8c 3e 7e ad 6f 3e
       -0.15542562 -0.5995582 0.27377945 0.23406026
0003f0 c4 8d 25 3e 1e 6e ed bd 3e 86 19 be b2 42 cb be
       0.1616736 -0.11593269 -0.14992616 -0.39699322

bias f4 [8]
000000 98 0e 12 bd 7b 5c 30 3e d9 e3 b2 3d 07 22 e6 bb
       -0.03565845 0.17222778 0.08734865 -0.0070230993
000010 23 64 bb 3d d0 75 0d be bc 7b 98 bd f2 63 e5 3c
       0.09149959 -0.13814473 -0.074454755 0.02800176

weight f4 [1, 8]
000000 86 68 42 3e 81 fc 06 3f d0 63 b1 bd 14 f1 75 be
       0.18985185 0.5272904 -0.08661616 -0.24017745
000010 47 9a aa 3e a0 47 b4 3d 51 62 f6 3e a2 81 12 3e
       0.3332083 0.08802724 0.48121884 0.14307263

weight f4 [64, 4]
000000 85 e0 a7 bd d6 46 20 bf b8 ee 0b bf d9 f2 b1 be
       -0.081971206 -0.6260809 -0.5466113 -0.3475559
000010 51 78 21 be 7a aa a3 3e f3 dd b2 3e ec 19 9f 3c
       -0.15768553 0.31966 0.3493496 0.01942154
000020 db 5e 21 be 59 9e a7 be fd c8 8f be ab a2 57 bf
       -0.1575884 -0.32737997 -0.2808303 -0.84232587
000030 63 ea 85 be 47 27 bb 3e 43 ac 2b bf 5a d4 97 bf
       -0.26155385 0.36553404 -0.67059726 -1.186168
000040 0e 99 cb bc 1a ff f5 3d 81 02 59 be 9f 20 61 be
       -0.024853256 0.120115474 -0.21192361 -0.219851
000050 c7 b5 48 3e 23 89 77 bd 2c 10 5f 3f b4 a2 dd 3f
       0.19600593 -0.06043352 0.8713405 1.7315278
000060 40 78 84 bc 80 49 c1 3b 90 10 62 be 54 b9 23 3e
       -0.01617062 0.0058986545 -0.2207663 0.15988666
000070 19 2f 89 be 88 af 37 bd 75 e4 87 3e ab ea 9b bd
       -0.26793745 -0.044845134 0.26541486 -0.07613119
000080 46 b8 40 bf 90 37 52 be a3 4a 86 be 70 f6 96 be
       -0.7528118 -0.20529008 -0.26228818 -0.29484892
000090 12 94 f2 3e 48 3b 47 be da fd cf be 8b 97 93 bf
       0.47378594 -0.19456208 -0.4062336 -1.1530622
0000a0 ed 74 23 bf 5b 11 36 3e b7 6d 0e bf f7 c6 34 bf
       -0.6385029 0.17780058 -0.5563616 -0.70616096
0000b0 62 bd 47 3e 42 95 d2 bd 75 89 de 3e ff e7 ef 3f
       0.19505838 -0.10282375 0.43464246 1.8742675
0000c0 7d 54 e7 be 0a 13 b2 3c c7 b9 a8 3e 96 21 3e 3f
       -0.45181647 0.021737594 0.32954237 0.7427
0000d0 99 3d 54 3e aa 8a 35 3d cf 63 3a 3f 2d 0d a7 3f
       0.20726623 0.044321693 0.72808546 1.3050896
0000e0 2c b1 9f 3e 29 19 c2 3e 07 89 5a 3e 65 1b fa be
       0.3118986 0.3790982 0.21341334 -0.48849025
0000f0 84 1c d1 3e 8b 24 5a be c8 65 42 3f 7e 79 6c 3f
       0.40842068 -0.21303003 0.75936556 0.9237288
000100 7a 23 ea 3e 46 1a 89 be bf bc cf 3e f6 c3 d2 3f
       0.4573019 -0.26777858 0.4057369 1.6466053
000110 b1 36 98 3d c0 aa 72 3e a7 ef 8d 3f 8a 4c cf 3f
       0.074323066 0.23697948 1.1088761 1.6195233
000120 22 de ec 3d 60 d8 fa bd 03 1e 42 3e 36 e1 23 3c
       0.11565806 -0.122483015 0.18956761 0.010002425
000130 bb 81 10 be 1b 49 1f bf 94 eb 16 bf 61 f2 bd be
       -0.14111988 -0.62220925 -0.58953214 -0.37098983
000140 fb 74 0b 3f 3d 1c cb be c1 c3 1f 3f 56 12 d9 3f
       0.54475373 -0.39669982 0.6240807 1.6958721
000150 91 11 b2 3e b5 67 36 3e 7e ef 1b 3e 11 5f 98 be
       0.34779027 0.17812999 0.15228078 -0.2976003
000160 0f d8 0e be 17 81 e8 bd 3e 92 40 bf 29 ac 8a bf
       -0.13949607 -0.11352747 -0.7522315 -1.0833789
000170 7a be 7c be 2a dd 0e 3e a4 ed a1 3b ad bb cf 3e
       -0.24682036 0.13951555 0.004941659 0.40572873
000180 9e c8 c2 be ee 35 2f 3f 4b d6 8c 3e 42 f9 96 3e
       -0.38043684 0.68441665 0.27507243 0.29487044
000190 64 b3 91 be c6 2a 9e 3d a4 58 1d bf 29 67 5a bf
       -0.28457177 0.07723002 -0.6146338 -0.8531366
0001a0 11 fe 09 3f 3f 54 b9 be fd b0 4b 3f e0 e4 eb 3f
       0.539033 -0.36197087 0.7956694 1.8429222
0001b0 49 3c 0b 3d 9a 8c 42 be 70 ac 56 bf 2e d3 6d bf
       0.03399304 -0.18998948 -0.8385687 -0.9290036
0001c0 f9 3d 85 3d 8e 05 db 3d f3 98 8b 3e e2 1f b3 3f
       0.06505961 0.10694419 0.27265128 1.3994105
0001d0 f4 e0 b4 3d 5c 85 9a be 45 8f f4 be 13 17 78 be
       0.08831969 -0.3017987 -0.47765556 -0.24227552
0001e0 1f 81 26 3e aa 6a 05 3d db e5 18 3e 52 d6 25 3f
       0.16260193 0.032572426 0.14931433 0.6478015
0001f0 0e 29 9c 3e 91 f7 68 3e 9c fb 86 be aa 8a e5 3e
       0.30500072 0.22750689 -0.26363838 0.44832355
000200 19 4a 0d bf c4 fb a2 bd ac 20 32 bf 70 f1 65 bf
       -0.5519119 -0.07958177 -0.69581103 -0.8982153
000210 76 47 fb be de 14 90 be 4c 0a 0d 3f 47 96 e6 bc
       -0.49077958 -0.2814092 0.55093837 -0.02814783
000220 53 1e e6 bd db 16 ad 3c 79 54 ba be 48 ac a8 bf
       -0.11236253 0.021129062 -0.36392573 -1.3177576
000230 92 68 5a be da e4 8c 3e c2 6d b0 3e 30 33 59 be
       -0.21328953 0.2751835 0.3445874 -0.21210933
000240 be 03 08 bf b7 8c 8e be 9c 54 51 bf b2 d4 15 bf
       -0.5313071 -0.27841732 -0.8176973 -0.5852767
000250 89 8c aa be b1 15 f5 bd c8 8f 81 b8 5d 31 63 bc
       -0.33310345 -0.11967028 -6.177981e-05 -0.01386675
000260 65 2a ef be 15 55 e6 3c af a5 e5 3d eb c5 9d 3e
       -0.46712032 0.028116742 0.11213242 0.30815062
000270 08 68 0e 3f 1f f0 79 be 39 ee 26 3f 6e d2 c4 3f
       0.5562749 -0.24408005 0.6520725 1.5376718
000280 4c 26 d8 3d 79 f7 ae be e6 74 19 bf 7c 74 90 bf
       0.105541795 -0.34173182 -0.59944 -1.1285548
000290 80 4b 2e 3f 71 19 3c 3e dc 1a 72 3f 59 2f 79 3f
       0.68083954 0.1836908 0.94572234 0.9733787
0002a0 be 41 cc 3e bf 85 17 be b4 d7 72 bf 03 8d 67 bf
       0.39893907 -0.14797114 -0.94860387 -0.9044954
0002b0 3b 4f b2 3c 7c eb b2 3e e6 57 b2 be 95 61 bc 3e
       0.021766296 0.34945285 -0.34832686 0.367932
0002c0 80 1d 29 3e b8 9d 96 be 0f 67 20 bf 58 32 9d bf
       0.1651516 -0.29417205 -0.62657255 -1.2280989
0002d0 e5 aa a5 bd 74 d3 4f 3e 90 4e d8 3e 64 84 07 3e
       -0.08089236 0.20295507 0.42247438 0.13234097
0002e0 ab f4 25 bf f1 3e 1a 3e ff ef 65 bf 49 d6 25 bf
       -0.6482646 0.15063073 -0.8981933 -0.647801
0002f0 f2 e6 16 3e ec 68 a8 3d c5 f9 4f bf ee fb 4a bf
       0.14736536 0.08223137 -0.81240493 -0.79290664
000300 44 fe 25 be c0 1d 59 3e ad 3d 3f 3e ec 73 62 3e
       -0.16210276 0.21202755 0.18675871 0.22114533
000310 67 a4 93 3e 64 e6 02 be b4 bb 4f 3e fd d1 63 be
       0.28836367 -0.127832 0.20286447 -0.22248073
000320 64 fd 40 3e dc 33 92 be 72 e2 ad be ee 8e 18 be
       0.18846661 -0.2855519 -0.33961827 -0.14898273
000330 d5 9f ad 3e 0b 22 ed 3d f7 cd 67 bf e2 9e 83 bf
       0.33911005 0.11578759 -0.9054865 -1.0282862
000340 6d 55 83 3d 0c 40 8f be a4 1f 5b 3f 88 93 f1 3e
       0.06412778 -0.2797855 0.85595155 0.4718287
000350 1e c4 c2 bd f8 3b 52 3d 1d e1 6e 3e 77 b8 01 3f
       -0.09510063 0.051326722 0.23328061 0.50672096
000360 12 59 d9 3c e6 ff fb be be 69 a9 3e e2 80 6e 3f
       0.02653173 -0.49218673 0.33088487 0.9316541
000370 79 fa e0 3d 6d ae 3a 3e d8 1f 54 3f 1f bf bf 3f
       0.10985274 0.182306 0.8286109 1.49802
000380 e4 30 92 bc a7 d6 80 be eb 34 7f 3e e2 63 02 bf
       -0.017845578 -0.25163767 0.2492253 -0.5093366
000390 8c b9 1e be b4 59 bc be b8 4e b4 be 51 0b 58 bf
       -0.15500468 -0.36787188 -0.35216308 -0.8439227
0003a0 d6 cf b7 3e 90 a8 2a be 2a b8 d4 be 54 56 90 be
       0.35900754 -0.16665864 -0.41546756 -0.28190863
0003b0 8e 98 af 3e ea 28 ab be 8f f1 9b bf b6 29 92 bf
       0.34296077 -0.33429652 -1.2183093 -1.1418979
0003c0 38 dc 4d bd 8c e9 0b 3e 32 8a 75 be 20 55 ea 3e
       -0.050258845 0.1366331 -0.23978499 0.4576807
0003d0 5c 4f a8 be 02 04 54 3e 9b 5d f4 3e 0c f9 23 be
       -0.32873046 0.20704654 0.47727665 -0.16012973
0003e0 f0 58 25 bf fb 68 3a 3e 71 7b a0 be d3 d6 8b bf
       -0.6458883 0.1820411 -0.31344178 -1.0924934
0003f0 53 84 5d be ed e2 9f 3e db d3 9d 3d ec 96 6d 3d
       -0.21632509 0.31227818 0.07706424 0.05800526

bias f4 [64]
000000 2d 84 36 be ee 48 10 3e 25 f6 84 3e 5e f9 3c 3e
       -0.17823859 0.1409032 0.25969043 0.18454501
000010 f7 9a d1 3a 89 38 25 3e 16 cf e9 be 68 d1 9c be
       0.0015991618 0.16134848 -0.45665807 -0.30628514
000020 6a 8b 25 3d 12 7a b7 3e 4d 5e e7 3d 86 54 7a 3e
       0.04041616 0.3583532 0.11297283 0.24446306
000030 c1 81 32 be 8f 91 57 3e 41 ba 8b be 75 73 bc 3e
       -0.1743231 0.2105162 -0.27290538 0.36806837
000040 84 d4 7e 3e 7a 2e af 3e e8 20 a4 be 20 a9 e1 bd
       0.24885756 0.34215146 -0.32056355 -0.11018586
000050 61 8f 91 3e b8 91 03 3e a0 cb ba 3e 1d 16 29 3e
       0.28429702 0.12848556 0.3648348 0.16512342
000060 14 4e 8d be ed 3a 7a 3d 28 a3 9b 3e 9b 92 86 3e
       -0.2759863 0.061091352 0.30397916 0.26283726
000070 1d c8 db 3d 54 7c e8 3e 44 3b b4 3e b0 63 0c bd
       0.10731528 0.45407355 0.35201466 -0.034274757
000080 41 01 b4 3e b0 d8 0d be c4 52 6d 3e 93 a6 c0 3d
       0.35157207 -0.13852191 0.23176104 0.094067715
000090 2f 4d 96 3c 04 44 f5 be fa de b1 3e 26 c5 8e 3e
       0.01834735 -0.47903454 0.3474043 0.27884787
0000a0 1e 38 cc 3e 21 d4 72 bc 11 59 04 3e 75 4a 9d be
       0.39886564 -0.014821083 0.12924601 -0.3072087
0000b0 a3 5e bd 3e 53 20 d8 be 46 d9 47 3e 51 d9 cb 3d
       0.36986265 -0.4221216 0.19516477 0.09953559
0000c0 04 0b 3b 3e 24 55 f0 be 01 cf 63 be 64 d2 a8 3e
       0.18265921 -0.46939957 -0.22246934 0.32973015
0000d0 50 6f 72 be aa 00 79 bb 6c f2 bb be 65 10 8d 3e
       -0.23675275 -0.003799478 -0.3670839 0.2755157
0000e0 ea 80 ed be 22 1b c2 3e 6e ac 05 bf b7 4b ce 3e
       -0.46387416 0.37911326 -0.5221623 0.4029214
0000f0 84 5a 70 be ce f8 99 be 1f 93 d2 3d 0a 40 f5 3d
       -0.23472029 -0.30072635 0.10281967 0.11975105

weight f4 [32, 64]
000000 65 80 84 be 85 34 b6 3e c8 b8 d3 be 76 8b a1 be
       -0.25879207 0.35586944 -0.41351914 -0.31551713
000010 7d dd 1a 3e 4e 39 02 3f ac cf ec 3d 02 ad 11 be
       0.15123554 0.5086869 0.11563048 -0.14226153
000020 44 64 b1 be de 6b 03 bc 07 1e 5f be eb de 35 3f
       -0.3464681 -0.008021323 -0.21788798 0.7104327
000030 98 d3 4d 3e 7f 2e f9 3e 5e 47 ed bd 96 79 3e be
       0.20100248 0.48668286 -0.11585878 -0.18601069
000040 73 4f b9 3e 56 99 99 3e 79 4b 47 3d 87 fe 89 be
       0.36193427 0.299998 0.04865596 -0.26952
000050 76 71 0a 3f 12 30 2f 3e e6 e3 7f be f8 85 9d 3d
       0.5407938 0.17108181 -0.2498928 0.07691568
000060 96 d6 5e 3e 12 cc 7b be 09 ac fb 3e bd 7f 03 bf
       0.21761546 -0.24589565 0.4915469 -0.5136679
000070 9e 65 0b 3f 11 58 91 be 41 0f 55 3e 3f 01 b3 3c
       0.5445193 -0.28387502 0.208066 0.02185118
000080 fd aa d4 bc 6d 9a 2e bd 2e d3 86 be f8 86 bf 3e
       -0.02596044 -0.04262774 -0.26332992 0.3740766
000090 13 7e 9c be 66 4c c6 bd 07 bb 9f 3d 00 7a 8c 3e
       -0.30564937 -0.096825406 0.077993445 0.2743683
0000a0 34 ee a6 be ac ef e2 bc 4e 21 15 bd 62 c5 d3 3d
       -0.3260361 -0.027702175 -0.036408715 0.10340382
0000b0 9f 70 83 be ea 6a 87 3d 9d 73 0c be f6 99 8b 3d
       -0.2567186 0.06612189 -0.13715978 0.06816475
0000c0 dc a9 8a bb bb 27 ca bd 24 5d 58 be 45 b9 fc bc
       -0.0042316746 -0.09870859 -0.2112928 -0.030850062
0000d0 f3 79 42 3d 46 8d ad 3e b3 1b 54 3e 24 65 e8 3e
       0.04747958 0.33896846 0.20713691 0.45389664
0000e0 9d 4e 75 3a 64 25 b0 be de 67 c3 39 78 60 9d be
       0.00093577226 -0.34403527 0.00037270685 -0.30737662
0000f0 30 0a 88 bd 17 35 5e 3e 72 44 11 be 79 06 8f 3e
       -0.06642568 0.2169994 -0.14186266 0.27934626
000100 fb 2f dd bc 48 d3 3b bd 76 cf b0 bd 1f d5 ae bd
       -0.027000418 -0.04585579 -0.0863332 -0.085367434
000110 5e a2 1e be 8f e1 9e bd 84 da 59 3d d9 43 71 3d
       -0.15491626 -0.07757866 0.05318691 0.058902595
000120 51 f8 ac 3d bf 25 3c bd 42 47 0d be 20 31 3a be
       0.084458 -0.045934435 -0.13796714 -0.18182802
000130 c5 2b 31 bd e8 b7 3d 3d 28 46 ba bd cb 0b 49 bd
       -0.043254633 0.046317965 -0.090954125 -0.049083512
000140 4e 0d ba bd 60 31 05 3d e8 ef e3 bd ae 09 a6 bc
       -0.09084569 0.03251779 -0.11129743 -0.020268288
000150 5e cc 83 bd 38 4e ca 3c 81 eb 0d 3d c4 4e a4 bd
       -0.06435464 0.0246955 0.034648422 -0.08022836
000160 71 e7 91 bb af f4 60 3d 20 0c a9 3c 4a ab be bd
       -0.004452639 0.05492085 0.020635664 -0.093100145
000170 92 2a 18 bd a6 c3 02 3e 07 4f 72 bd 05 de b7 bd
       -0.037149973 0.12769946 -0.059157398 -0.08977894
000180 e2 23 04 bd 64 d8 04 be 58 37 1d bb 40 57 2c bd
       -0.032260783 -0.12973171 -0.0023989286 -0.042075396
000190 3e 01 0e bd 49 45 da bd 58 ba 7c 3d d8 b6 af bd
       -0.034669153 -0.10657746 0.06170115 -0.085797966
0001a0 f7 e0 51 3d 7f d2 19 bd 89 b4 8e bd 14 56 61 bd
       0.051239934 -0.03755426 -0.06968028 -0.05501373
0001b0 a4 38 7c 3c 48 d6 81 bd c2 0b 80 bd 45 bf d5 3d
       0.015394364 -0.06339699 -0.062522426 0.104368724
0001c0 1e ed db 3d 6e a8 96 bd 0f 73 30 bd 16 92 7a 3c
       0.10738586 -0.07356344 -0.04307848 0.015293619
0001d0 a7 98 c4 3d 08 3e 01 be d0 eb 52 bd 1a 21 31 3e
       0.095994286 -0.1262132 -0.05149442 0.17297783
0001e0 ae 09 8f bd 02 9e 99 3d 4c aa 7f bc 15 b9 83 3d
       -0.06984268 0.07500841 -0.015604567 0.06431786
0001f0 70 95 56 bd b1 2f 0b 3e 81 9a 8c 3d d2 82 65 bb
       -0.05238861 0.13592412 0.06865407 -0.0035020602
000200 67 44 60 be df 7f 70 3d 72 c5 00 bf 09 84 63 be
       -0.21901093 0.058715697 -0.5030128 -0.22218336
000210 d9 f6 bd 3c ed 88 5f 3f c0 26 6a bc 26 a4 cc bd
       0.023188995 0.8731831 -0.014291465 -0.09992246
000220 f9 a1 ae bd 56 a0 cf be ee 07 58 be 74 24 89 3f
       -0.085269876 -0.40552014 -0.21096775 1.071425
000230 1c 66 c9 3e 84 e3 49 3f 7f e4 cf bd 72 06 49 3e
       0.39335716 0.78862786 -0.10151004 0.19631365
000240 b1 76 30 3f 55 36 fe 3e 47 d3 18 3d 09 73 a9 be
       0.6893111 0.49650827 0.037310865 -0.33095577
000250 d9 b6 62 3f 5d 19 81 bd ab 62 14 bf 0e 91 8c bc
       0.88560253 -0.06303666 -0.57963055 -0.017159011
000260 c6 47 20 3e 8e d3 3e be 04 50 85 3f 7b 30 43 bf
       0.1565238 -0.18635389 1.0415044 -0.7624585
000270 91 c0 70 3f a2 66 b1 bd a5 13 7a 3e 07 0e 7e 3d
       0.94043833 -0.08662154 0.24421556 0.062025096
000280 56 e9 5f be 88 3f 8a 3d 06 42 e8 be 83 59 fd bd
       -0.21866354 0.06750399 -0.45362872 -0.12370589
000290 af c5 b3 be bd b6 ab bd e5 33 0e bd ed 77 0c 3f
       -0.35111758 -0.08384464 -0.03471746 0.5487049
0002a0 75 59 18 bf bb 34 87 3e 16 d7 7f be 06 9b 49 3e
       -0.595115 0.26407418 -0.24984393 0.19688043
0002b0 89 46 18 bf 2a f7 38 bd 52 5a a4 bd 6c 4c 69 be
       -0.5948263 -0.04515759 -0.0802504 -0.22783059
0002c0 0e 19 72 3d cf b7 06 3e 70 36 8d bd d8 41 c4 be
       0.059105925 0.13156055 -0.06895149 -0.38331485
0002d0 35 ae 43 3e 7b b9 fd bc af 95 df 3e 6d 0f 4f 3f
       0.19109423 -0.030972233 0.43668887 0.8088291
0002e0 25 9d 98 bd d9 d7 df be db 8f 6a bc 73 43 cd be
       -0.07451848 -0.43719366 -0.014316524 -0.40090522
0002f0 df fb b3 3d 71 96 d3 bd 72 ae 50 bc aa 00 d3 3b
       0.08788275 -0.10331429 -0.0127369035 0.006439288
000300 d1 ca 2d be ba f8 de 3e c2 5a da bc f6 33 8f bd
       -0.169719 0.43549138 -0.026654605 -0.06992333
000310 ef a6 99 3e e6 a1 07 3f 40 0e a5 bc 9f c6 be 3c
       0.30010173 0.5298141 -0.020148396 0.02328807
000320 04 11 9f bd 6d de 45 3e 6e af 3a be 70 69 0c 3f
       -0.07766917 0.1932313 -0.18230984 0.54848385
000330 b0 b1 59 3e b8 1d 7b 3e 46 1a 29 bd df 83 8a bd
       0.21259189 0.24523056 -0.041284822 -0.06763434
000340 57 84 e7 3e 11 c1 fe 3e a1 85 19 3c 67 e5 47 be
       0.45218155 0.49756673 0.0093702385 -0.19521104
000350 99 57 20 3f 9f a4 a9 3e 7c 45 58 3e bb a7 f6 3e
       0.62633663 0.33133408 0.21120256 0.48174843
000360 81 2e 8a bc 89 ce ae be d6 20 1f 3f da 9c 38 bd
       -0.016867878 -0.3414195 0.6215948 -0.04507146
000370 85 66 cf 3e 5f a2 fc bd 99 f9 6e 3e 70 46 9c 3e
       0.40507904 -0.12335657 0.23337401 0.3052249
000380 92 6c 5a 3e da fd 38 be b0 cb 1f be f8 7b 39 3e
       0.21330479 -0.18065587 -0.15605044 0.18113697
000390 e2 98 dd bd 02 79 36 bd 9b 93 93 3d 5d 2f ce 3d
       -0.10820176 -0.044548996 0.07205888 0.100676276
0003a0 d4 3e a3 3d 6a d1 04 3e cd 7b 83 3e a6 cf 28 3e
       0.07970968 0.1297051 0.2568039 0.16485462
0003b0 97 0d dd bd 32 be 53 3d 19 0a 59 3e 7f 44 8a 3e
       -0.10793608 0.051695056 0.21195258 0.27005383
0003c0 a7 56 9b 3e b6 fc 6e bc 45 2e 24 be 77 d8 93 3e
       0.30339548 -0.014586618 -0.16033275 0.28876087
0003d0 2d 33 7c bd 2f 04 84 3e 10 68 89 3e 04 05 b3 3e
       -0.061572243 0.25784442 0.26837206 0.34964764
0003e0 94 08 0b bd ba 54 88 3c 67 32 59 3c 28 60 ae bc
       -0.033943728 0.016641963 0.013256646 -0.021286085
0003f0 ba 11 b3 3d 39 12 c2 3d 0f 63 d7 3d 63 8e 5a 3e
       0.087436154 0.09476132 0.10516941 0.21343379

bias f4 [32]
000000 8c b9 ba 3c 55 37 a5 bc 8e 2f f9 3d 13 2e 49 3e
       0.022793554 -0.020167986 0.121672735 0.19646482
000010 5c 59 45 3e e5 15 70 bd 2a 59 87 3e 16 01 f2 3d
       0.19272369 -0.05861463 0.26435214 0.118166134
000020 af c0 33 3d e0 bf 5e bd 53 73 d7 bd 62 22 68 3e
       0.04388493 -0.054382205 -0.10520043 0.22669366
000030 59 9f 8d 3e f8 79 e3 bd b4 20 75 bd bf 8f 8a 3e
       0.27660635 -0.11107248 -0.05984564 0.27062795
000040 95 ad af bc e1 5a 48 3e 6c 4a 97 3d 2c eb 52 bd
       -0.021445075 0.19565918 0.07387242 -0.05149381
000050 f5 7c ef bd 5f d5 b7 bd 71 32 42 3c 00 47 1a 3d
       -0.116937555 -0.08976244 0.0118528465 0.037665367
000060 e7 1e b5 bc c9 f4 2d bd 5e 0e 49 3d eb b7 77 3e
       -0.022109462 -0.042469773 0.049085967 0.24191253
000070 0c 77 a5 bd d7 45 8b bd c1 34 af bd e2 5e b9 bd
       -0.08079347 -0.0680043 -0.08554984 -0.090513006

weight f4 [8, 32]
000000 af b3 30 be e9 74 0f be f6 fe fd be 6a bc 2a 3e
       -0.17256044 -0.14009441 -0.49608582 0.16673437
000010 c9 94 3f 3f 68 de 1a bd 46 8c 62 3f 26 44 71 3f
       0.74836403 -0.03780976 0.8849529 0.9424461
000020 09 a6 23 bf ef 49 2b bf b7 3c e9 bc b0 c7 23 3f
       -0.63925225 -0.6690969 -0.028471334 0.63976574
000030 e7 5e 05 3e 73 de ab bd 4b d8 c0 bd c6 31 45 3f
       0.13024484 -0.08392038 -0.094162546 0.77029073
000040 22 06 90 bc 10 28 74 3f e3 fc 38 3f e5 5f ac be
       -0.01758105 0.9537363 0.72260875 -0.33666912
000050 ff e3 b6 3d 90 df 76 3e 96 3a e1 be 80 00 16 bf
       0.089302056 0.2410872 -0.4399001 -0.5859451
000060 fe 1e e1 3d d5 55 3d bf 5c 43 1f be 9b 49 3e 3f
       0.109922394 -0.73959094 -0.1555304 0.74331063
000070 c3 12 da be ce ff 0d be 1f 8d 14 bd 89 5f cc be
       -0.4259244 -0.13867113 -0.036267396 -0.39916638
000080 2d 62 d2 3d 2b dd 15 bd e1 b2 55 bf f9 75 59 3e
       0.10272632 -0.036587875 -0.8347607 0.21236409
000090 6a db 1e 3f d1 42 8b bd 95 dd 45 3f f6 61 4e 3f
       0.6205355 -0.067998536 0.7729123 0.80618227
0000a0 b2 73 38 bf 7d 23 63 bf 97 30 45 3d 3b 23 38 3f
       -0.7205154 -0.88726026 0.048142042 0.7192876
0000b0 a9 99 81 3e 9d 90 b5 bd 40 0c 57 3b 92 bd 59 3f
       0.25312546 -0.088654734 0.0032813698 0.85054886
0000c0 36 51 0f be fe c2 7d 3f a3 a0 7d 3f 2a 52 88 be
       -0.13995823 0.9912566 0.9907324 -0.26625186
0000d0 66 fc 0f 3e 69 a2 96 bd c0 2a 04 bf 72 25 3e bf
       0.14061126 -0.07355196 -0.5162773 -0.74275887
0000e0 98 3d 9b 3c 83 be 33 bf 7d 44 9b bd 11 3f 26 3f
       0.018950269 -0.7021257 -0.075814225 0.6493998
0000f0 38 04 af be 4f 95 73 be 85 f3 32 bd b8 9f 8f be
       -0.34182906 -0.23787425 -0.04368927 -0.28051543
000100 20 73 ad 3e e9 ea 6b bd ce d4 3a 3f 2b 74 6b 3e
       0.33876896 -0.057597075 0.72980964 0.22993533
000110 f7 08 53 be da 64 15 3e f8 c0 08 bf 3a 6f 0b bf
       -0.20608889 0.14589253 -0.53419447 -0.54466593
000120 4e 39 19 3f e7 70 45 3f 74 4f 02 be 6c 82 ac be
       0.59853065 0.771254 -0.12725621 -0.33693254
000130 52 f0 a0 3d 93 70 14 3e d0 6a 51 3c e7 57 e2 be
       0.078583375 0.14496069 0.012781814 -0.4420769
000140 3d e1 13 be e5 d9 4c bf 3a b1 cf be 31 c8 5a 3e
       -0.1444139 -0.8001998 -0.405649 0.2136543
000150 74 86 ee bd 57 be 3d 3d e7 d7 e5 3e 03 e8 44 3f
       -0.11646739 0.0463241 0.44891283 0.7691652
000160 2a 59 2e 3e 95 be 29 3f 70 15 7c bd bd 8a 0b be
       0.17026201 0.6630643 -0.061543882 -0.13627143
000170 da 43 0f 3f c1 44 10 3f 69 29 d4 bd a7 78 1b 3f
       0.5596291 0.5635491 -0.10359461 0.60730976
000180 63 a2 2f 3d 0f 24 10 be 8d d2 55 bf 60 93 f5 3d
       0.042879473 -0.14076255 -0.835244 0.11991
000190 cd 6b 24 3f 8e 45 af bd 82 f4 28 3f 62 47 87 3f
       0.6422699 -0.085581884 0.6599809 1.0568659
0001a0 33 c4 30 bf df 3d 36 bf 33 f2 cd 3d 1d 8d 23 3f
       -0.69049376 -0.7118816 0.100559615 0.63887197
0001b0 bc f1 9b 3e 50 83 f5 bc 5a 45 d9 bd 1d aa 1f 3f
       0.30457866 -0.029969841 -0.10608931 0.6236895
0001c0 31 77 f7 bd 46 68 83 3f bb b2 64 3f dc 8d be bd
       -0.12083281 1.0266197 0.8933522 -0.09304401
0001d0 00 bb cc bd c1 98 a6 3d 6c 12 1b bf 95 76 1f bf
       -0.09996605 0.08134604 -0.60574985 -0.62290317
0001e0 6a 4a 3b 3d 91 92 09 bf 41 cd f4 bc 20 64 02 3f
       0.045725264 -0.5373927 -0.029883029 0.5093403
0001f0 9f 18 b3 be a2 3a 9b be 30 90 c2 3c bf d0 13 be
       -0.34979722 -0.3031817 0.023750395 -0.14435099
000200 ce ab 34 be 7e 7f dd 3d d1 8b ec be 91 f6 ea bc
       -0.17643663 0.10815333 -0.4620042 -0.028682025
000210 db bf 9f 3e 4a 33 61 3b 1b ca 2a 3f 4c 1f 31 3f
       0.31201062 0.0034362846 0.6671464 0.6918838
000220 bd d4 97 be b3 8a eb be 3e 4b ec 3d 41 2c b4 3e
       -0.29654494 -0.46004257 0.11537789 0.35190013
000230 f2 34 94 3e 04 0a ea bd 8c 41 2e bd 7a 55 f4 3e
       0.28946644 -0.114276916 -0.04254298 0.47721463
000240 28 58 0e be 79 8b 49 3f 78 ac 35 3f d5 25 75 bd
       -0.13900816 0.78728443 0.7096629 -0.059850533
000250 0e aa 81 bd a7 94 92 bd 71 75 99 be f6 0b 21 bf
       -0.063312635 -0.071572594 -0.29972413 -0.62908876
000260 b9 86 24 3e 50 a9 cf be 6c c4 79 3d 1b 16 97 3e
       0.16067018 -0.40558863 0.060978338 0.29509053
000270 45 ee 1e be 5e 15 ab bb 44 20 39 3d 91 82 a0 bc
       -0.1552058 -0.005221053 0.045196787 -0.019593509
000280 62 20 04 be 4a d6 f9 3d d4 bb 29 be b0 6f 0f bc
       -0.12902978 0.121990755 -0.16575557 -0.008754656
000290 a8 ff 11 be bc eb 03 bd f3 a0 19 3e 5a 36 ea 3d
       -0.14257681 -0.032207236 0.15002804 0.11436148
0002a0 86 a7 83 3d da 11 f0 bd 2c 80 7b 3d 13 e7 17 3e
       0.06428437 -0.11722155 0.06140153 0.14834242
0002b0 63 45 04 be 3c de 90 3d 3d 23 ae bd 20 b7 db bc
       -0.12917094 0.07073638 -0.08502815 -0.02682072
0002c0 8b 48 19 be e3 46 c6 bd f4 cd 30 be c0 be 13 3d
       -0.14969079 -0.09681489 -0.17266065 0.036070585
0002d0 c8 49 53 3d dd 87 0a be d0 4a 5a bc 0d 58 a1 bd
       0.051584035 -0.1352839 -0.013323501 -0.078781225
0002e0 c9 e2 ed bd 8a 8d e1 3d 06 01 6f bd a0 bd 16 bc
       -0.116155215 0.110133246 -0.058350585 -0.009200484
0002f0 4e d8 da 3d 1c 81 87 bd fd f5 95 bd 90 b9 fc 3c
       0.10685788 -0.066164225 -0.07322309 0.030850202
000300 92 fa 6d 3e de 90 66 3d 4d 5d 53 3f 38 1a b3 3e
       0.23240116 0.0562905 0.8256424 0.3498094
000310 68 2f 9d be 0c 0c 22 3d a2 6b 14 bf 33 25 3e bf
       -0.3070023 0.03956227 -0.57976735 -0.7427551
000320 a9 ed 26 3f b7 ae 58 3f 56 87 e2 3d 82 58 01 bf
       0.6520639 0.84641594 0.110609695 -0.5052568
000330 b0 d0 43 3e 06 88 2e be 49 ac 1d 3e 86 64 79 be
       0.19122577 -0.17044076 0.15397753 -0.24354753
000340 e1 14 1e be ec c1 2d bf 01 23 12 bf c0 c2 a2 3e
       -0.15437652 -0.67874026 -0.5708466 0.31789207
000350 c9 c1 aa 3d e9 1e 1a be 3e 27 3f 3f 0b 92 58 3f
       0.08337743 -0.15050854 0.74669254 0.84597844
000360 22 9f a8 bd bf 8d 04 3f af c5 ce 3d 98 6c 27 be
       -0.08233477 0.5177879 0.10096299 -0.16350019
000370 99 73 f5 3e 61 0a de 3e 77 b9 03 3d f8 7f c5 3e
       0.47939757 0.43367293 0.032159295 0.38574195
000380 7b 2c af bd 8a 7f 0f be e2 a4 2c bf e4 e2 3c 3e
       -0.08553406 -0.14013496 -0.6743909 0.18445927
000390 19 9b 18 3f 49 69 58 bb a6 01 41 3f 6c a6 77 3f
       0.5961166 -0.003302174 0.7539314 0.96738315
0003a0 d4 59 3b bf ec bd 59 bf 20 d4 cf bc 06 17 f8 3e
       -0.7318394 -0.8505542 -0.025369704 0.48455065
0003b0 66 44 9b 3e cc 85 6c 3d ea 25 2d be 9b 34 5e 3f
       0.3032562 0.057744786 -0.16908994 0.8679902
0003c0 fd ec 38 bd 36 05 83 3f 9e 97 4a 3f ae 8f 34 be
       -0.045147885 1.0235965 0.791376 -0.17632934
0003d0 7d a5 d7 3d 06 c3 ad 3d d3 c7 04 bf f0 a2 28 bf
       0.10529611 0.084844634 -0.5186741 -0.6587362
0003e0 b6 f4 4c 3d 40 c5 29 bf e8 32 bc 3d bd 13 19 3f
       0.050038062 -0.66316605 0.09189397 0.59795743
0003f0 8f 1e b3 be 47 29 50 be 2c 30 10 be e1 39 a3 be
       -0.34984252 -0.20328246 -0.14080876 -0.31880096

bias f4 [8]
000000 65 90 6b 3e 98 81 a6 3e 10 9f ba 3d 00 f9 a1 3e
       0.23004301 0.32520747 0.0911237 0.31635284
000010 b1 85 2c 3d d2 86 f7 bd 34 da 99 3e c8 ea 9f 3e
       0.042119686 -0.12086262 0.30049288 0.3123381

weight f4 [2, 8]
000000 be d8 da 3f 54 45 dd 3f 49 d4 7d bf 0a 0f c3 3f
       1.7097394 1.7286782 -0.99152046 1.5238965
000010 e6 9c 87 3f 80 23 7a bb 4b 52 17 bf a9 2c 9c 3f
       1.0594757 -0.0038168132 -0.59109944 1.2201129
000020 ac 34 ae bf 08 24 ca bf ae a5 4d 3f 66 94 9d bf
       -1.3609824 -1.5792246 0.8033093 -1.2310913
000030 b4 af 95 bf 3f 32 1a be 07 08 8e 3f b6 73 d2 bf
       -1.1694245 -0.1505823 1.10962 -1.6441562

bias f4 [2]
000000 a2 41 e6 bd 91 4a c3 3e
       -0.11242987 0.38142827
